model.pth (torch, 719771 bytes, 20 tensors)

layer1.conv.weight f4 [64, 1, 2, 2]
-0.07986617 0.43846902 0.08536348 -0.43285233 -0.19382268 -0.40513912 0.010807117 0.23061919
-0.312498 0.04613394 0.39886937 -0.08458994 0.1885114 0.38862735 0.020916907 0.21652919
-0.25001904 0.00777942 -0.33051378 -0.07388421 0.02085238 0.10085724 -0.48357382 0.24378195
0.23571372 0.1539851 -0.22107151 0.3046132 -0.37274426 -0.13537002 -0.2098156 0.39259142
0.012544741 -0.014156624 0.017354103 0.1561634 0.30132833 -0.5416621 -0.24632034 0.28654853
0.47575068 0.051646624 -0.40211478 -0.18368278 0.19737437 0.348166 -0.42950144 0.13302839
-0.28828478 -0.15144394 -0.13367747 0.040618703 0.16879667 -0.32569265 -0.32226562 -0.08832012
0.18267727 -0.5195225 0.22751306 0.35881737 0.23838142 -0.22014196 0.2029238 -0.22031596
-0.35878438 0.33780482 0.3071954 -0.036684383 0.32763267 -0.33619806 0.09524752 0.35829616
-0.08940079 -0.1918241 0.1846052 0.006853408 0.117691875 -0.36555982 0.41136375 -0.16511223
0.18129201 -0.08249144 -0.18952827 0.21368338 -0.43176144 0.042239577 0.061060544 -0.05537241
-0.30825856 -0.051981445 -0.03845878 -0.0549048 0.14343412 0.31941023 -0.5013869 0.052532416
-0.2673791 0.4295423 -0.21983053 -0.2826925 -0.025032593 0.156292 -0.121576495 0.41062027
-0.2602148 0.10344325 0.19447744 0.35463235 0.34806448 -0.196429 -0.260178 -0.24422199
0.26138234 0.22775277 0.059558757 -0.29846993 0.03645247 0.32177097 -0.28466338 0.17640705
0.49033332 0.27864775 -0.03212778 -0.15988502 -0.39867255 0.18872938 -0.30009207 0.21231702
-0.3264459 -0.35544538 0.35771185 0.31310093 0.029390844 0.07982225 -0.4288546 0.3965657
-0.27721834 0.11289801 0.16001993 -0.35040578 -0.29169646 -0.23263653 0.2959177 0.24470493
-0.25132644 -0.07069573 -0.24292395 0.5406973 -0.09714142 0.10067375 -0.19755618 0.19650494
0.29104474 -0.35470882 -0.15164338 -0.11374733 0.43856645 -0.11319475 -0.20473388 0.27726018
-0.37627977 -0.19034758 0.37647545 -0.21802048 -0.24131986 -0.24327663 0.40751117 -0.12178086
0.40752494 0.35916305 -0.35420892 0.054081712 0.035883743 -0.11757977 0.52113414 0.089239016
0.022769412 0.4045837 -0.4987113 0.08543489 -0.35240027 0.35015684 -0.11063139 0.21627945
-0.037423708 -0.19612841 -0.23257685 0.39438927 -0.27969575 -0.06416512 -0.14563456 -0.16426797
0.40131056 0.11252761 -0.11075629 -0.34391618 -0.30831113 -0.15219373 -0.29007488 0.29477167
0.32628068 -0.33998662 0.47841433 -0.28452826 -7.198006e-05 0.02613463 0.3444491 0.02513847
-0.101894416 0.11982606 -0.07481227 -0.20005016 -0.02653571 -0.21124794 0.12103844 -0.30512342
-0.32752767 0.296635 -0.41198578 0.09939167 0.45180586 -0.30594116 0.25143468 -0.028537776
-0.011299299 0.13285474 -0.25724223 -0.056763917 -0.2366557 0.2787338 -0.39200342 0.360211
0.21887085 0.029158913 0.105963334 -0.061139613 0.36891243 -0.33041504 -0.37950608 0.18600713
0.3198825 -0.06745745 0.045139097 -0.31379768 -0.18946874 0.11525845 0.08773648 0.050834063
0.11672151 0.230517 -0.20314173 -0.096479535 0.098020636 -0.24847549 0.47462484 0.28426287
00000000: e090 a3bd 037f e03e 0cd3 ae3d d29e ddbe
00000010: 7479 46be 656e cfbe 5610 313c 7027 6c3e
00000020: bdff 9fbe f1f6 3c3d 9b38 cc3e 7e3d adbd
00000030: 2209 413e 2afa c63e ef59 ab3c d4b9 5d3e
00000040: 7f02 80be 81ea fe3b 1a39 a9be 9b50 97bd
00000050: 9cd2 aa3c 3e8e ce3d fd96 f7be faa1 793e
00000060: f05e 713e 45ae 1d3e 9260 62be 43f6 9b3e
00000070: 56d8 bebe 709e 0abe e7d9 56be be01 c93e
00000080: 7588 4d3c 2ff1 67bc 312a 8e3c 4ce9 1f3e
00000090: b547 9a3e 5eaa 0abf 663b 7cbe 7db6 923e
000000a0: 9895 f33e 698b 533d fde1 cdbe 5717 3cbe
000000b0: 821c 4a3e d042 b23e 9de7 dbbe 9838 083e
000000c0: 109a 93be 1f14 1bbe bfe2 08be cc5f 263d
000000d0: 09d9 2c3e 30c1 a6be 0000 a5be 2ee1 b4bd
000000e0: c00f 3b3e 6dff 04bf 2ff9 683e e9b6 b73e
000000f0: 421a 743e e56c 61be 42cb 4f3e 829a 61be
00000100: 96b2 b7be c1f4 ac3e b748 9d3e 5d42 16bd
00000110: 78bf a73e 2722 acbe 2211 c33d 9872 b73e
00000120: c317 b7bd 896d 44be 2509 3d3e 8e92 e03b
00000130: 7008 f13d a82a bbbe 459e d23e 2e13 29be
00000140: 9da4 393e 46f1 a8bd b313 42be d1cf 5a3e
00000150: d60f ddbe 6803 2d3d 9f1a 7a3d 2ece 62bd
00000160: 11d4 9dbe 7fea 54bd f486 1dbd dbe3 60bd
00000170: 65e0 123e bd89 a33e e45a 00bf 3b2c 573d
00000180: eae5 88be f8ec db3e 411b 61be 12bd 90be
00000190: 2711 cdbc 030b 203e 19fd f8bd d23c d23e
000001a0: e03a 85be 0eda d33d 1825 473e 5f92 b53e
000001b0: 8235 b23e af24 49be 0d36 85be 5415 7abe
000001c0: e8d3 853e 0638 693e e2f3 733d 0dd1 98be
000001d0: 2f4f 153d 2abf a43e 66bf 91be 0da4 343e
000001e0: f80c fb3e ebaa 8e3e 6b98 03bd e6b8 23be
000001f0: cf1e ccbe 4642 413e aba5 99be a269 593e
00000200: eb23 a7be f0fc b5be 0226 b73e c44e a03e
00000210: 11c5 f03c d979 a33d d592 dbbe a90a cb3e
00000220: 90ef 8dbe 1237 e73d 44dc 233e 6368 b3be
00000230: 3d59 95be 4538 6ebe 8682 973e ee93 7a3e
00000240: dcad 80be ecc8 90bd 0ec1 78be 236b 0a3f
00000250: 15f2 c6bd 0a2e ce3d 2b4c 4abe 9738 493e
00000260: d103 953e 659c b5be 6748 1bbe 5cf4 e8bd
00000270: c88b e03e a6d2 e7bd c2a5 51be 0cf5 8d3e
00000280: bea7 c0be 7aea 42be 64c1 c03e c340 5fbe
00000290: 8e1c 77be 821d 79be 4ea5 d03e 3e68 f9bd
000002a0: 1ca7 d03e 38e4 b73e df5a b5be c984 5d3d
000002b0: d5fa 123d aacd f0bd 0c69 053f f2c2 b63d
000002c0: eb86 ba3c 9825 cf3e 1657 ffbe 7df8 ae3d
000002d0: cf6d b4be c247 b33e b692 e2bd 5c78 5d3e
000002e0: 9a49 19bd e3d5 48be a028 6ebe 64ed c93e
000002f0: 4834 8fbe 0169 83bd 3a21 15be dd35 28be
00000300: 9478 cd3e e074 e63d 32d4 e2bd c815 b0be
00000310: f5da 9dbe acd8 1bbe b284 94be 50ec 963e
00000320: 430e a73e ba12 aebe b9f2 f43e b0ad 91be
00000330: 00f4 96b8 4b18 d63c a25b b03e 31ef cd3c
00000340: 05ae d0bd 5e67 f53d 2d37 99bd f3d9 4cbe
00000350: 6b61 d9bc 6151 58be 00e3 f73d 2339 9cbe
00000360: b5b1 a7be 8be0 973e cdef d2be dc8d cb3d
00000370: 1953 e73e 52a4 9cbe 0cbc 803e 0ec8 e9bc
00000380: b220 39bc 130b 083e 41b5 83be 4881 68bd
00000390: df55 72be 32b6 8e3e acb4 c8be 946d b83e
000003a0: ae1f 603e acde ee3c 4e03 d93d 886d 7abd
000003b0: 17e2 bc3e 292c a9be 9f4e c2be a778 3e3e
000003c0: a4c7 a33e 2227 8abd c6e3 383d 17aa a0be
000003d0: 1804 42be 9f0c ec3d 2faf b33d 6137 503d
000003e0: b00b ef3d a60c 6c3e 6304 50be 1097 c5bd
000003f0: 0bbf c83d 5c70 7ebe 0702 f33e e78a 913e

layer1.conv.bias f4 [64]
0.37218156 -0.35652307 0.36814278 -0.49438104 0.2806734 -0.29104865 0.4936776 -0.3061341
0.24370629 -0.3727922 0.04848951 0.48780203 -0.42836946 -0.43579757 -0.02201062 0.01660457
-0.08299119 -0.3726914 -0.08303827 0.20861264 -0.071938254 0.031168384 -0.4276891 0.37698963
-0.30259663 -0.38908795 -0.3424067 -0.049531117 -0.2053096 -0.07864316 0.19016758 -0.16224022
0.013188219 0.4813261 0.16890088 0.05175122 0.10428251 0.017624887 -0.2941898 0.036872227
-0.38375616 -0.06725243 -0.39316142 0.05066372 0.15073906 0.2603004 -0.036060713 -0.36767742
0.29374173 -0.42571443 -0.15675217 -0.34694242 0.19618371 0.174784 -0.2440838 -0.34593594
-0.16929236 0.04541217 0.33543625 -0.05371324 0.027695877 0.30637577 -0.051678166 -0.46374407
00000000: 958e be3e 318a b6be 367d bc3e 831f fdbe
00000010: 6db4 8f3e 5404 95be 4fc3 fc3e 9cbd 9cbe
00000020: 248e 793e 9fde bebe f09c 463d 30c1 f93e
00000030: 3e53 dbbe dc20 dfbe 9e4f b4bc 4f06 883c
00000040: 49f7 a9bd 68d1 bebe f80f aabd 8d9e 553e
00000050: 5d54 93bd d754 ff3c 11fa dabe c904 c13e
00000060: f2ed 9abe 8936 c7be ee4f afbe 24e1 4abd
00000070: ae3c 52be aa0f a1bd 4abb 423e 4d22 26be
00000080: 6613 583c 6070 f63e 5af4 2c3e 16f9 533d
00000090: 1292 d53d 1162 903c 0ca0 96be 5507 173d
000000a0: b07b c4be a4bb 89bd 744c c9be c384 4f3d
000000b0: 575b 1a3e 1846 853e 66b4 13bd 3740 bcbe
000000c0: 5165 963e 3ef7 d9be a483 20be 70a2 b1be
000000d0: 62e4 483e 94fa 323e 1bf1 79be 841e b1be
000000e0: fa5a 2dbe 1d02 3a3d 4dbe ab3e 6a02 5cbd
000000f0: 77e2 e23c 49dd 9c3e 7cac 53bd dd6f edbe

layer1.bn.weight f4 [64]
0.9436853 1.0401242 0.9270365 0.8736988 0.7159055 0.94593394 0.8466581 0.9447978
0.8786345 0.78496933 1.004156 0.7844753 0.7813854 0.80667365 0.8730148 1.0712351
0.8690605 0.8788357 0.9838513 1.0795878 0.8195973 0.73822445 0.9945248 1.020433
0.93911695 0.9944858 1.0132601 0.8317151 1.013949 0.833413 0.84415895 0.78292865
1.0170739 0.9255934 0.77493536 1.0854151 0.93906295 1.01619 0.93521845 0.7708828
0.94347465 0.8894575 0.9867802 0.76775706 1.0156009 0.90565115 0.91267335 0.7547198
0.9321187 0.9410859 1.0258379 0.8696755 0.72841054 0.7878768 0.91240513 0.9988578
0.9205829 1.0565658 0.86914015 0.8764765 0.9331498 0.9278211 0.95833105 0.88404286
00000000: 5c95 713f ca22 853f 4452 6d3f b9aa 5f3f
00000010: 9545 373f ba28 723f 96be 583f 45de 713f
00000020: 31ee 603f c0f3 483f 2f88 803f 60d3 483f
00000030: e008 483f 2a82 4e3f e67d 5f3f 3b1e 893f
00000040: c07a 5e3f 60fb 603f aedd 7b3f ef2f 8a3f
00000050: 21d1 513f 47fc 3c3f 2d99 7e3f 8c9d 823f
00000060: f869 703f 9f96 7e3f 82b2 813f 48eb 543f
00000070: 15c9 813f 8e5a 553f cd1a 583f 036e 483f
00000080: 7a2f 823f b0f3 6c3f 2a62 463f e2ee 8a3f
00000090: 6e66 703f 8412 823f 7a6a 6f3f 9358 453f
000000a0: 8e87 713f 7db3 633f a19d 7c3f ba8b 443f
000000b0: 36ff 813f c1d8 673f f6a4 693f 5135 413f
000000c0: 559f 6e3f 01eb 703f a84e 833f 0ea3 5e3f
000000d0: 1d79 3a3f 4bb2 493f 6293 693f 25b5 7f3f
000000e0: 52ab 6b3f 8c3d 873f f87f 5e3f c460 603f
000000f0: e8e2 6e3f af85 6d3f 2f55 753f a250 623f

layer1.bn.bias f4 [64]
0.1356714 0.1935974 0.19365151 0.14782785 0.31155792 0.15258655 0.3971322 0.23408982
0.44195205 -0.042827025 0.2626013 0.26871422 0.35233566 0.33996943 0.20206302 0.36464176
0.17958097 0.09308728 0.29648936 0.23731507 0.097342186 0.29159346 0.4517354 0.14077364
0.3055357 0.1364265 0.16666044 0.39827332 0.15568458 0.16468495 0.22923374 0.21787229
0.32618 0.16688599 0.37522078 0.34367424 0.20434807 0.33508295 0.26088285 0.2109459
0.26117116 0.32216907 0.13714874 0.18836729 0.26563245 0.30387938 0.19886161 0.3094921
0.22560143 0.20949818 0.21234746 0.17557964 0.2914958 0.39935967 0.25597236 0.13086474
0.24961804 0.35315707 0.31020695 0.15328632 0.29371205 0.2721868 0.19315937 0.17808412
00000000: 72ed 0a3e 663e 463e 954c 463e 2f60 173e
00000010: 8584 9f3e a63f 1c3e e954 cb3e 3eb5 6f3e
00000020: 8a47 e23e 646b 2fbd ad73 863e e994 893e
00000030: 5765 b43e 7910 ae3e 9ce9 4e3e 53b2 ba3e
00000040: 13e4 373e 8ba4 be3d 74cd 973e b902 733e
00000050: 575b c73d bd4b 953e dd49 e73e f726 103e
00000060: 2d6f 9c3e 63b3 0b3e 09a9 2a3e 7bea cb3e
00000070: c76b 1f3e 2ca3 283e 40bc 6a3e ea19 5f3e
00000080: 1101 a73e 29e4 2a3e f01c c03e 12f6 af3e
00000090: 9f40 513e fe8f ab3e 7092 853e 3402 583e
000000a0: 3ab8 853e 58f3 a43e b870 0c3e 5be3 403e
000000b0: fa00 883e 1496 9b3e 61a2 4b3e c075 9e3e
000000c0: 1004 673e b186 563e 9d71 593e 26cb 333e
000000d0: f03e 953e df78 cc3e cf0e 833e 6801 063e
000000e0: df9b 7f3e 01d1 b43e 72d3 9e3e 17f7 1c3e
000000f0: 6d61 963e 115c 8b3e 92cb 453e af5b 363e

layer1.bn.running_mean f4 [64]
0.36262897 0.023010777 0.33776152 0.01907388 0.701949 0.012591143 0.2074465 0.044476908
0.13718982 0.0018538835 0.12878434 0.33983952 0.066763744 0.073205695 0.05514539 0.06071049
0.024632294 0.005476283 0.020058557 0.24028356 0.005941414 0.30109224 0.011813656 0.37963945
0.04105246 0.0042369952 0.0097571565 0.2352095 0.015256103 0.03570913 0.1200721 0.120880164
0.08217043 0.43533513 0.39581215 0.08667262 0.16902125 0.042057738 0.033621866 0.047361996
0.027253198 0.118169576 0.011266092 0.07960845 0.1854258 0.21948996 0.0590341 0.16875601
0.27568507 0.031166049 0.047311142 0.0012698105 0.35717636 0.45256272 0.09092494 0.010795178
0.027383333 0.092247784 0.15275571 0.08324259 0.084353395 0.26820153 0.023490109 0.011571785
00000000: 81aa b93e 1981 bc3c 14ef ac3e d340 9c3c
00000010: eeb2 333f 154b 4e3c db6c 543e 6b2d 363d
00000020: 7d7b 0c3e 02fe f23a 0be0 033e 72ff ad3e
00000030: 6ebb 883d deec 953d 22e0 613d 90ab 783d
00000040: aac9 c93c 6472 b33b d851 a43c e50c 763e
00000050: 31b0 c23b c328 9a3e 118e 413c 1a60 c23e
00000060: a026 283d 7ed6 8a3b 7bdc 1f3c c2da 703e
00000070: bcf4 793c bd43 123d 5ce8 f53d 0590 f73d
00000080: f848 a83d 3fe4 de3e e4a7 ca3e 6a81 b13d
00000090: e813 2d3e bc44 2c3d 15b7 093d a7fe 413d
000000a0: 1942 df3c e402 f23d 6a95 383c c109 a33d
000000b0: 43e0 3d3e fac1 603e becd 713d 60ce 2c3e
000000c0: 9826 8d3e f14f ff3c 54c9 413d c56f a63a
000000d0: d2df b63e 4db6 e73e db36 ba3d 42de 303c
000000e0: 0353 e03c 68ec bc3d fe6b 1c3e 177b aa3d
000000f0: 79c1 ac3d b651 893e 546e c03c 9697 3d3c

layer1.bn.running_var f4 [64]
0.023415202 0.0030088339 0.017755246 0.0044026724 0.11285993 0.0024442628 0.08977209 0.0075382525
0.012660814 0.0003247523 0.025024336 0.0646864 0.0029204618 0.0037151664 0.016971814 0.015640514
0.0057095606 0.0009629316 0.0026433656 0.033704028 0.00058134214 0.028944006 0.00012618239 0.04397665
0.0041396213 0.000447249 0.0017562768 0.022643866 0.0031792966 0.00792434 0.061910085 0.015258516
0.032134384 0.036399905 0.033596337 0.022088492 0.030874236 0.007222701 0.0023054392 0.0143547915
0.0023004732 0.0116199795 0.0028652449 0.031520754 0.034128737 0.036256827 0.0068536806 0.017002163
0.040473446 0.0023094495 0.021227306 3.4568566e-05 0.023841908 0.051824808 0.01205197 0.0029068105
0.0013211066 0.033158 0.039538033 0.004531678 0.016588537 0.007688446 0.0048716264 0.0020639433
00000000: 3dd1 bf3c db2f 453b 7373 913c 4b44 903b
00000010: 1b23 e73d ed2f 203b 6eda b73d 7203 f73b
00000020: 4e6f 4f3c 8443 aa39 d6ff cc3c 4e7a 843d
00000030: 3865 3f3b 267a 733b 7908 8b3c 8920 803c
00000040: 4417 bb3b 3f6d 7c3a 513c 2d3b 3c0d 0a3d
00000050: 3665 183a fb1b ed3c d44f 0439 dc20 343d
00000060: a9a5 873b bf7c ea39 df32 e63a a17f b93c
00000070: bf5b 503b 17d5 013c 6e95 7d3d dbfe 793c
00000080: 589f 033d 1118 153d 509c 093d edf2 b43c
00000090: f7eb fc3c 68ac ec3b da16 173b 5c30 6b3c
000000a0: 89c3 163b ba61 3e3c d5c6 3b3b e81b 013d
000000b0: 93ca 0b3d 0a82 143d d794 e03b 1f48 8b3c
000000c0: 7cc7 253d 225a 173b e3e4 ad3c b7fd 1038
000000d0: 1b50 c33c 4046 543d a075 453c 3080 3e3b
000000e0: fb28 ad3a afd0 073d a2f2 213d 787e 943b
000000f0: afe4 873c 5cef fb3b 2aa2 9f3b 3943 073b

layer2.conv.weight f4 [128, 64, 2, 2]
0.056012154 -0.038504925 0.04713874 0.0797414 -0.020934056 -0.061544523 -0.054112006 -0.09560143
0.07999131 -0.03788645 0.04086957 0.00027313692 -0.002844128 0.005465199 -0.03513716 -0.010665531
-0.007434534 -0.036503796 -0.01721874 -0.00056506996 -0.01604592 0.030532802 -0.05221931 -0.14037538
-0.05839929 0.02282108 0.013148935 0.027895777 0.023991542 -0.018424837 0.025142284 -0.02249275
-0.059128877 -0.013895058 0.039985795 0.047403876 0.021874618 0.02405295 -0.041270193 -0.037693545
-0.085358396 0.03202371 0.040684473 0.08557678 -0.023751764 -0.009062789 0.0064056483 -0.012528364
-0.01622324 -0.051194616 0.04594439 -0.026824836 -0.048883494 -0.0114841545 0.019825105 -0.0012791754
-0.063154474 -0.05041741 -0.04102903 -0.014705984 -0.008112927 0.025083696 -0.007530748 0.027275397
-0.004801717 0.03899595 0.033306614 0.028864522 -0.09547021 -0.03747345 0.0006149725 -0.006942501
-0.029801449 -0.10287583 -0.028689299 -0.0295836 -0.07170955 -0.028613705 -0.033793688 -0.008834287
-0.05822064 -0.00888708 -0.06458531 -0.082183905 0.045106787 -0.009561242 -0.0048117777 0.014307925
0.0047092554 -0.068537205 0.0107827345 0.05191058 -0.02709093 -0.1065912 -0.027357899 -0.036140602
0.022797327 -0.05070489 -0.009964625 -0.07202121 -0.035740502 0.07995769 -0.04067829 -0.0927968
0.057570357 0.045991387 0.016561562 0.034151264 -0.0066884584 0.001762401 0.032169145 0.07167015
0.053333014 0.023598747 0.046907388 0.07586963 0.0019117066 0.020583758 -0.009133715 -0.06178742
-0.0088836625 -0.010307966 0.006744948 0.03957735 -0.025274044 -0.052755944 -0.007923216 -0.074365646
0.03268232 -0.120584466 -0.0039614225 0.011013694 -0.030790467 0.028282722 -0.016881399 -0.11005158
-0.01930611 -0.023207115 0.03644906 -0.0068688127 0.06580193 -0.08988607 0.026653903 -0.03309829
0.06119558 -0.0025665385 0.007567047 -0.05084647 0.045747004 0.023227261 -0.046032533 -0.110013865
-0.030180201 0.0023328378 0.0014254523 -0.05594317 -0.066530615 -0.03303722 -0.0134386625 -0.045817517
0.02895313 -0.11037621 0.02293903 0.047227133 -0.029912684 -0.090071954 0.016807323 0.013801707
-0.08483823 -0.04534584 -0.062071677 -0.09314802 -0.073738255 0.032613315 0.06664142 0.06637196
0.012565547 -0.044371698 -0.014857964 -0.078141116 -0.0006741702 -0.033921506 -0.014180463 -0.05447904
0.038799778 -0.047412552 0.011526342 -0.08551863 -0.056517363 -0.031202111 0.0006834946 -0.0010172144
-0.037058897 -0.0020651952 0.05061022 0.09439948 -0.011552668 0.025272364 0.058377106 -0.07221561
0.09941075 0.04763295 -0.02208601 -0.0007892229 -0.0635459 0.024637356 0.0503317 0.0024802662
-0.035652693 -0.06262483 0.019960755 0.024428599 -0.029283104 -0.057602946 0.041628942 -0.009193359
-0.034759704 -0.053018108 -0.060159545 -0.084069066 -0.013125937 0.044880852 -0.059499953 -0.0493342
0.03250127 -0.04678166 -0.018325038 -0.024215762 0.09541822 0.029564248 -0.02999597 -0.119389065
-0.0030550004 0.0048341574 -0.020752314 0.0090253595 -0.09788057 0.0271962 0.02341838 0.011898826
-0.017260721 0.042510226 0.045209374 0.06299116 0.018590413 -0.052841924 -0.023469444 0.0010415516
-0.002420035 -0.053204104 0.006947823 0.07072446 -0.051212005 -0.07786734 -0.036337197 0.010441851
00000000: 006d 653d 57b7 1dbd 8d14 413d 764f a33d
00000010: e67d abbc 1c16 7cbd 8da4 5dbd afca c3bd
00000020: 7cd2 a33d d22e 1bbd da66 273d d133 8f39
00000030: 8d64 3abb 6915 b33b fceb 0fbd 7bbe 2ebc
00000040: 649d f3bb 0185 15bd 510e 8dbc 3421 14ba
00000050: bc72 83bc ed1f fa3c eae3 55bd 90be 0fbe
00000060: 1834 6fbd 46f3 ba3c a16e 573c af85 e43c
00000070: e989 c43c afef 96bc 31f7 cd3c b742 b8bc
00000080: 1f31 72bd 19a8 63bc 25c8 233d 912a 423d
00000090: 6632 b33c b10a c53c ef0a 29bd 8c64 1abd
000000a0: 62d0 aebd 4b2b 033d c3a4 263d e142 af3d
000000b0: 0f93 c2bc 187c 14bc 79e6 d13b c443 4dbc
000000c0: 9ae6 84bc 72b1 51bd 2f30 3c3d c2bf dbbc
000000d0: 0f3a 48bd 0928 3cbc 4268 a23c 01aa a7ba
000000e0: 2257 81bd 7c82 4ebd 0e0e 28bd 5ef1 70bc
000000f0: 15ec 04bc 537c cd3c 7ec4 f6bb a770 df3c
00000100: b957 9dbb 38ba 1f3d 846c 083d 4a75 ec3c
00000110: e385 c3bd c37d 19bd 1b36 213a eb7d e3bb
00000120: 2b22 f4bc 90b0 d2bd d205 ebbc 4e59 f2bc
00000130: 75dc 92bd 4a67 eabc 406b 0abd afbd 10bc
00000140: c478 6ebd 1d9b 11bc 4e45 84bd 0950 a8bd
00000150: e5c1 383d c1a6 1cbc 1eac 9dbb c96b 6a3c
00000160: 1950 9a3b 3c5d 8cbd 11aa 303c 30a0 543d
00000170: cced ddbc 7d4c dabd ac1d e0bc 2b08 14bd
00000180: 76c1 ba3c eeaf 4fbd ab42 23bc db7f 93bd
00000190: a264 12bd dbc0 a33d 479e 26bd 400c bebd
000001a0: e5ce 6b3d 7761 3c3d 1dac 873c 32e2 0b3d
000001b0: db2a dbbb 5d00 e73a cbc3 033d cdc7 923d
000001c0: b873 5a3d 2952 c13c f621 403d 8961 9b3d
000001d0: 3b92 fa3a 459f a83c 94a5 15bc ce14 7dbd
000001e0: c88c 11bc bee2 28bc ba04 dd3b dc1b 223d
000001f0: 830b cfbc 9e16 58bd 60d0 01bc 044d 98bd
00000200: e5dd 053d fdf4 f6bd d2ce 81bb c872 343c
00000210: 4a3c fcbc 2bb1 e73c dc4a 8abc b962 e1bd
00000220: d927 9ebc d91c bebc 9c4b 153d c713 e1bb
00000230: 2ac3 863d 3016 b8bd 4959 da3c 1392 07bd
00000240: 37a8 7a3d 5f33 28bb fef4 f73b 6344 50bd
00000250: 3661 3b3d 1947 be3c 9c8c 3cbd f34e e1bd
00000260: 783c f7bc 86e2 183b 3ed6 ba3a aa24 65bd
00000270: 3441 88bd 0952 07bd d62d 5cbc 26ab 3bbd
00000280: 1d2f ed3c ec0c e2bd a2ea bb3c 3d71 413d
00000290: 720b f5bc a577 b8bd 83af 893c 8e20 623c
000002a0: aabf adbd 8fbc 39bd df3e 7ebd 64c4 bebd
000002b0: 1504 97bd 8a95 053d 4c7b 883d 06ee 873d
000002c0: b9df 4d3c 19bf 35bd d16e 73bc 7308 a0bd
000002d0: ccba 30ba 47f1 0abd 2c55 68bc 6a25 5fbd
000002e0: 84ec 1e3d aa33 42bd fbd8 3c3c 6424 afbd
000002f0: c07e 67bd 929b ffbc 8c2c 333a 0d54 85ba
00000300: 12cb 17bd 3a58 07bb a94c 4f3d 8454 c13d
00000310: 6747 3dbc fd07 cf3c d51c 6f3d c7e5 93bd
00000320: dd97 cb3d c51a 433d b8ed b4bc dae3 4eba
00000330: 5a24 82bd 48d4 c93c 9d28 4e3d f68b 223b
00000340: 8f08 12bd 7241 80bd bd84 a33c 7c1e c83c
00000350: 1fe3 efbc 11f1 6bbd 1c83 2a3d be9f 16bc
00000360: 3160 0ebd 8429 59bd db69 76bd 672c acbd
00000370: 2c0e 57bc fcd4 373d 39b6 73bd a812 4abd
00000380: 0d20 053d 209e 3fbd 641e 96bc 2260 c6bc
00000390: a16a c33d b930 f23c 1cba f5bc 4182 f4bd
000003a0: 6736 48bb da67 9e3b c200 aabc 1adf 133c
000003b0: 9c75 c8bd 91ca de3c e7d7 bf3c 4bf3 423c
000003c0: 5b66 8dbc 341f 2e3d 772d 393d 8201 813d
000003d0: ec4a 983c c670 58bd fe42 c0bc ac84 883a
000003e0: 7399 1ebb 8cec 59bd 90aa e33b fcd7 903d
000003f0: aec3 51bd e978 9fbd 50d6 14bd 4c14 2b3c

layer2.conv.bias f4 [128]
0.04542434 -0.2702199 0.043277044 -0.054401495 0.07801958 -0.063668534 0.015370782 0.027739497
-0.009439054 0.090320684 -0.027086688 -0.03296231 -0.016363496 -0.26036552 0.045621857 -0.050856724
-0.016515363 0.078095354 -0.08089181 0.011849647 -0.0033336692 -0.09713059 -0.045549333 0.04969952
-0.2123862 0.07777693 0.04717759 0.01538753 0.027101815 0.008559759 0.082360834 0.017934965
-0.20960726 0.08707517 0.025360169 0.023564024 -0.088135175 -0.001006167 0.027599107 -0.046878856
0.037690613 -0.17571053 -0.061881296 -0.032472752 0.0683771 -0.03027629 0.0881405 -0.1916683
0.033259913 0.05726202 -0.14915362 -0.00714908 -0.13778737 -0.03527941 0.028495109 -0.05215436
-0.10405575 0.044150226 -0.18975191 0.06022295 0.13603044 0.010250018 -0.07074797 -0.22346699
-0.069520324 -0.14639282 -0.27428603 0.030336943 0.04567626 -0.04897899 0.0065815537 -0.037134133
-0.05480195 -0.026259905 -0.010674863 -0.03909053 0.06597998 -0.16834472 0.024092186 0.036798988
-0.04759162 -0.0061660185 0.00757228 -0.04881348 -0.095684275 0.019562699 0.010658617 0.04859317
0.047506392 -0.068469435 0.029005822 0.06563887 0.0223419 -0.03317364 0.009728125 -0.0050460473
-0.01555362 0.035461195 0.032491643 -0.032810375 -0.020017264 -0.019359322 -0.055146325 -0.1331216
-0.06447578 0.06486523 -0.0342891 -0.068149865 -0.03888543 -0.16834287 0.014632778 -0.03444316
-0.31024083 -0.07143564 0.08977727 0.13674818 0.009857873 -0.10156687 -0.025794985 0.039624136
-0.08202162 -0.043853063 -0.015078789 0.02606988 -0.1382623 -0.024570353 -0.059713535 -0.041118335
00000000: df0e 3a3d 435a 8abe 4543 313d 1ad4 5ebd
00000010: bbc8 9f3d a664 82bd bcd5 7b3c f13d e33c
00000020: 43a6 1abc 0dfa b83d e7e4 ddbc 7d03 07bd
00000030: bd0c 86bc a14e 85be fcdd 3a3d 244f 50bd
00000040: 3a4b 87bc 75f0 9f3d 9baa a5bd 0625 423c
00000050: b079 5abb 67ec c6bd f091 3abd b991 4b3d
00000060: c57b 59be 8349 9f3d 4a3d 413d fb1b 7c3c
00000070: a004 de3c 3b3e 0c3c ccac a83d 59ec 923c
00000080: 49a3 56be 7754 b23d 21c0 cf3c 5709 c13c
00000090: 3780 b4bd 5de1 83ba 8617 e23c 0b04 40bd
000000a0: 7961 1a3d 76ed 33be 3e77 7dbd 2602 05bd
000000b0: 4b09 8c3d fb05 f8bc 0283 b43d b244 44be
000000c0: 8c3b 083d 948b 6a3d babb 18be d442 eabb
000000d0: 2218 0dbe 2581 10bd 936e e93c cf9f 55bd
000000e0: 2e1b d5bd ded6 343d 534e 42be 57ac 763d
000000f0: 904b 0b3e b1ef 273c 50e4 90bd 88d4 64be
00000100: ac60 8ebd 00e8 15be 386f 8cbe 2e85 f83c
00000110: 0817 3b3d 329e 48bd 13aa d73b f619 18bd
00000120: 0278 60bd 031f d7bc 9fe5 2ebc 641d 20bd
00000130: 8320 873d 8f62 2cbe fa5c c53c 89ba 163d
00000140: 6eef 42bd 500c cabb e320 f83b a5f0 47bd
00000150: 1ef6 c3bd f441 a03c 7ba1 2e3c a209 473d
00000160: 1096 423d b439 8cbd 9e9d ed3c ac6d 863d
00000170: 5c06 b73c 15e1 07bd b762 1f3c 5059 a5bb
00000180: 9cd4 7ebc c23f 113d f515 053d 2c64 06bd
00000190: 3ffb a3bc 7197 9ebc 1de1 61bd 0751 08be
000001a0: e10b 84bd 10d8 843d ba72 0cbd 2892 8bbd
000001b0: 5446 1fbd 1362 2cbe 52be 6f3c 4514 0dbd
000001c0: e3d7 9ebe d94c 92bd 25dd b73d b707 0c3e
000001d0: eb82 213c 4b02 d0bd 0150 d3bc eb4c 223d
000001e0: f3fa a7bd 459f 33bd 060d 77bc 8090 d53c
000001f0: a294 0dbe c447 c9bc 2e96 74bd b36b 28bd

layer2.bn.weight f4 [128]
0.87551445 0.8406135 0.8807851 0.86634296 0.88546383 0.9112524 0.9454077 0.88073736
0.82642967 0.9411521 0.90773255 0.91950697 0.901133 1.0697107 0.82644725 0.8716169
0.8919705 0.81982565 0.9624961 0.90709037 0.86016834 0.85671926 0.9465155 0.82825446
0.91219467 0.92485553 0.8558203 0.9328814 0.83678263 0.8663464 0.75584733 0.908384
0.9907561 0.92128843 0.9455952 0.87688124 0.8409181 1.1473392 1.0059192 1.0082717
1.0998795 0.835109 0.9950757 1.0354762 0.8314107 0.93149567 0.94841105 0.86592084
0.92764276 0.86235 0.9289046 0.78381133 0.88556504 0.99451226 0.9336323 0.9671202
0.91395235 0.9008845 0.9103638 0.7578746 0.89134705 0.98004365 0.9677092 0.92342716
1.042669 0.860705 0.9949101 0.9274496 0.92838967 0.9198467 0.8455792 1.0115741
0.95056677 0.8913254 0.9042907 0.9465268 0.8809204 0.95886964 0.88474566 0.87933576
0.893501 0.9670832 0.84839505 0.8867577 0.94264066 0.8705272 0.8765766 0.8771955
0.94389623 0.9202355 0.8856385 0.7922432 0.94801813 0.8430008 0.93178767 0.8550793
1.0109138 0.8493393 1.1107033 0.96405476 0.9745139 0.82786417 0.86191225 0.93669796
0.9371888 0.8290797 1.0167352 1.1172922 1.0038264 0.86288625 0.9180726 0.8815115
0.9346742 0.90438366 0.8244251 0.8412142 0.93807197 0.96305305 0.8323985 0.96760064
0.85243016 1.0133693 0.87776846 0.8263821 0.9161327 0.9012727 0.8617562 0.8351695
00000000: b721 603f 7232 573f 227b 613f a7c8 5d3f
00000010: c2ad 623f d647 693f 3d06 723f 0178 613f
00000020: e590 533f 58ef 703f 2961 683f cf64 6b3f
00000030: a7b0 663f 48ec 883f 0c92 533f 4922 5f3f
00000040: 2e58 643f 18e0 513f 2566 763f 1337 683f
00000050: fe33 5c3f f451 5b3f d74e 723f 7c08 543f
00000060: 9785 693f 55c3 6c3f 0a17 5b3f 51d1 6e3f
00000070: 6337 563f e1c8 5d3f 367f 413f db8b 683f
00000080: 31a2 7d3f 8fd9 6b3f 8712 723f 4a7b 603f
00000090: 6946 573f 03dc 923f f6c1 803f 0c0f 813f
000000a0: dac8 8c3f b4c9 553f 48bd 7e3f 7c8a 843f
000000b0: 55d7 543f 8076 6e3f 11cb 723f fdac 5d3f
000000c0: ff79 6d3f f8c2 5c3f b1cc 6d3f dca7 483f
000000d0: 64b4 623f 5b98 7e3f 8702 6f3f 3095 773f
000000e0: c8f8 693f 5ea0 663f 9a0d 693f 1204 423f
000000f0: 522f 643f 24e4 7a3f cabb 773f b965 6c3f
00000100: 2e76 853f 2a57 5c3f 6eb2 7e3f 566d 6d3f
00000110: f2aa 6d3f 137b 6b3f e177 583f 437b 813f
00000120: 5858 733f e72d 643f 987f 673f 954f 723f
00000130: 0084 613f 7b78 753f b17e 623f 261c 613f
00000140: 7bbc 643f c492 773f 6b30 593f 8d02 633f
00000150: e650 713f dfda 5e3f 5367 603f e28f 603f
00000160: 2fa3 713f 8e94 6b3f 34b9 623f 73d0 4a3f
00000170: 51b1 723f e7ce 573f a389 6e3f 7ae6 5a3f
00000180: a065 813f 4d6e 593f 872b 8e3f 4bcc 763f
00000190: be79 793f e8ee 533f 48a6 5c3f 70cb 6f3f
000001a0: 9beb 6f3f 913e 543f 6124 823f 6e03 8f3f
000001b0: 627d 803f 1de6 5c3f ce06 6b3f bdaa 613f
000001c0: cf46 6f3f b085 673f 860d 533f d059 573f
000001d0: 7c25 703f a58a 763f 1118 553f adb4 773f
000001e0: dd38 5a3f 16b6 813f 6fb5 603f c78d 533f
000001f0: ac87 6a3f cfb9 663f 0e9c 5c3f abcd 553f

layer2.bn.bias f4 [128]
0.10175196 -0.0005696138 0.033321567 0.089599065 0.08647208 0.13177238 0.15678899 0.10768978
-0.041065987 0.24297729 0.13879277 0.095998615 0.028053079 0.08401272 0.16335985 0.10691365
0.101257384 0.08994703 0.29566428 0.1518936 0.20584814 0.072874576 0.12541011 0.12953576
0.040127456 0.13578628 0.11912273 0.23494719 0.0205464 0.10070232 0.16464491 0.10796752
0.040085617 0.116493985 0.22833295 0.024436582 0.012889254 0.52704996 0.22405775 0.15254487
0.42958987 -0.0024094647 0.13070694 0.21135995 0.099591166 0.125487 0.17927137 0.02178613
0.15423547 0.060885876 0.14906923 0.023092486 0.11973248 0.12571482 0.06460712 0.18752001
0.12131298 0.21527639 0.10214908 -0.024201294 0.06250643 0.038365953 0.087543234 0.025538279
0.13866836 0.04721721 0.033136874 0.11400507 0.15977 0.2559654 0.085156195 0.16142264
0.113507375 0.23178934 0.12614991 0.053300258 0.08261106 0.12499071 0.123766705 0.25828522
0.08901915 0.17851219 0.049341492 0.2278803 0.17731571 0.17328422 0.10580994 0.11600161
0.13856684 0.03820803 0.15979987 0.15060875 0.1491782 -0.0033450138 0.1224403 0.024464289
0.18249449 0.0912531 0.22561438 0.093168035 0.11238655 0.07372876 -0.09337788 0.06759117
0.09811557 0.19988012 0.12462853 0.4712625 0.3351685 0.06006222 0.10101756 0.06964034
0.1153064 0.10534349 0.06127286 0.24237993 0.16127641 0.1260484 0.027641997 0.1369837
0.12510844 0.12919506 -0.05014803 0.188007 -0.041170303 0.2873604 0.09985356 -0.123550355
00000000: 5563 d03d 2352 15ba 327c 083d b77f b73d
00000010: 4618 b13d 57ef 063e 4b8d 203e 768c dc3d
00000020: cf34 28bd 0acf 783e b11f 0e3e ec9a c43d
00000030: 92cf e53c dc0e ac3d ce47 273e 8bf5 da3d
00000040: 0860 cf3d 2636 b83d 4f61 973e ff89 1b3e
00000050: dbc9 523e 443f 953d 826b 003e 06a5 043e
00000060: b05c 243d 8f0b 0b3e 9ef6 f33d ff95 703e
00000070: ed50 a83c 053d ce3d ad98 283e 131e dd3d
00000080: d130 243d 6694 ee3d 1dd0 693e 3a2f c83c
00000090: 732d 533c bfec 063f 656f 653e b934 1c3e
000000a0: 34f3 db3e 1ce8 1dbb 0ad8 053e be6e 583e
000000b0: 74f6 cb3d aa7f 003e ea92 373e d378 b23c
000000c0: e7ef 1d3e 7863 793d 9ba5 183e 742c bd3c
000000d0: 4d36 f53d 63bb 003e bd50 843d 3f05 403e
000000e0: f172 f83d 6a71 5c3e 8933 d13d cb41 c6bc
000000f0: 5f03 803d 9e25 1d3d de49 b33d a735 d13c
00000100: 14ff 0d3e d566 413d 88ba 073d 7d7b e93d
00000110: bf9a 233e e60d 833e 5f66 ae3d fa4b 253e
00000120: 8e76 e83d 2f5a 6d3e 712d 013e 5f51 5a3d
00000130: fd2f a93d 21fb ff3d 6679 fd3d f63d 843e
00000140: ac4f b63d e6cb 363e 4e1a 4a3d 7459 693e
00000150: 4092 353e 6b71 313e e2b2 d83d 4192 ed3d
00000160: 77e4 0d3e 0680 1c3d 94a2 233e 2e39 1a3e
00000170: 2cc2 183e 0538 5bbb fbc1 fa3d 5569 c83c
00000180: d6df 3a3e e8e2 ba3d 7507 673e e2ce be3d
00000190: eb2a e63d 1bff 963d e73c bfbd 3d6d 8a3d
000001a0: d1f0 c83d 60ad 4c3e 3e3d ff3d 5249 f13e
000001b0: 359b ab3e cd03 763d 4be2 ce3d 989f 8e3d
000001c0: c325 ec3d 54be d73d 40f9 7a3d 7232 783e
000001d0: a525 253e d512 013e 7871 e23c 7445 0c3e
000001e0: 6d1c 003e b64b 043e 0568 4dbd e884 403e
000001f0: 31a2 28bd e720 933e 0680 cc3d f807 fdbd

layer2.bn.running_mean f4 [128]
0.18634394 0.01330317 0.01583306 0.119268596 0.2158895 0.11457621 0.68740785 0.4106156
0.9727597 0.21935469 0.17142268 0.13685356 0.039700676 0.023041978 0.22116745 0.023792956
0.3415385 0.11761344 0.057389595 0.079790376 0.4343652 0.029388024 0.085212395 0.20506154
0.07234757 0.42620546 0.15390778 0.1150761 1.9353696 0.37031144 1.3405576 0.10327572
0.030834861 0.028206976 1.416254 0.12088698 0.052333962 0.37339514 0.39029992 0.08000362
0.33044198 0.038102385 0.05517094 0.09964081 1.1292927 0.15608567 0.15995929 0.06969094
0.17358199 1.1891878 0.16928808 0.19991308 0.36196303 0.07784237 0.038699206 0.17264241
0.08498062 0.068601966 0.047871843 0.33696598 0.026998721 0.012995762 0.03485116 0.016468063
0.072763115 0.17290714 0.02198417 0.113188535 0.06725111 0.13216743 0.13155821 0.07706027
0.11246748 0.03570331 0.20842534 0.7467412 0.08985269 0.056227993 0.20179065 0.86575425
0.5608092 0.6224003 0.042961698 0.25656602 0.21926008 0.10986161 0.8649273 0.90491706
0.09704839 0.08314569 0.09833776 1.4749377 0.08734513 1.099828 0.6525563 1.2003622
0.1199575 0.37107775 0.10940583 0.07286367 0.07550151 0.1324873 0.76743555 0.024096873
0.06886031 1.8770837 0.06709882 0.063154735 0.9166598 0.049940675 0.030340998 0.063685596
0.096252985 0.25568122 0.2934183 0.7117564 0.08318412 0.055744354 0.3517206 0.22608587
0.16459589 0.050236665 0.83282405 0.53393894 0.5816144 0.18504126 0.04902873 1.7091258
00000000: f2d0 3e3e 8af5 593c 55b4 813c 1843 f43d
00000010: 2312 5d3e efa6 ea3d f6f9 2f3f 353c d23e
00000020: c806 793f 849e 603e 6d89 2f3e 5723 0c3e
00000030: 2d9d 223d 88c2 bc3c b879 623e 72e9 c23c
00000040: 22de ae3e 51df f03d 5a11 6b3d 2369 a33d
00000050: 1e65 de3e 27bf f03c d683 ae3d a7fb 513e
00000060: f62a 943d 9a37 da3e 009a 1d3e 05ad eb3d
00000070: 31ba f73f 7699 bd3e 6497 ab3f 3882 d33d
00000080: 6499 fc3c 5112 e73c d047 b53f 9893 f73d
00000090: 235c 563d a62d bf3e 64d5 c73e f0d8 a33d
000000a0: b12f a93e 3f11 1c3d ecfa 613d 7b10 cc3d
000000b0: aa8c 903f ecd4 1f3e 5ecc 233e 20ba 8e3d
000000c0: 7abf 313e 4e37 983f db59 2d3e 04b6 4c3e
000000d0: 3853 b93e d26b 9f3d 0f83 1e3d 2cc9 303e
000000e0: 520a ae3d 307f 8c3d 4415 443d ce86 ac3e
000000f0: 6c2c dd3c 2dec 543c 17c0 0e3d 08e8 863c
00000100: d404 953d 920e 313e 2518 b43c 64cf e73d
00000110: f3ba 893d e656 073e 32b7 063e c6d1 9d3d
00000120: 5a55 e63d a23d 123d 746d 553e 6e2a 3f3f
00000130: b004 b83d 534f 663d 35a2 4e3e 12a2 5d3f
00000140: 3191 0f3f a055 1f3f 9bf8 2f3d 9f5c 833e
00000150: b785 603e 20ff e03d e06b 5d3f a5a8 673f
00000160: 4ec1 c63d 4a48 aa3d 4f65 c93d c2ca bc3f
00000170: 01e2 b23d 2ac7 8c3f ee0d 273f 78a5 993f
00000180: 47ac f53d e7fd bd3e 2a10 e03d 8c39 953d
00000190: 89a0 9a3d c0aa 073e a876 443f ce66 c53c
000001a0: a206 8d3d 4744 f03f 1b6b 893d 4557 813d
000001b0: 37aa 6a3f 988e 4c3d af8d f83c 986d 823d
000001c0: 4920 c53d a6e8 823e ec3a 963e ab35 363f
000001d0: 705c aa3d 3154 643d b914 b43e 0e83 673e
000001e0: d38b 283e f6c4 4d3d f533 553f 39b0 083f
000001f0: aee4 143f 757b 3d3e 59d2 483d a2c4 da3f

layer2.bn.running_var f4 [128]
0.32065105 0.017052142 0.026013935 0.11992964 0.3435635 0.11639317 1.2908894 0.7666324
1.015535 0.28460914 0.42316628 0.24565873 0.05606149 0.043150153 0.3158251 0.028779956
0.38636124 0.12428279 0.06297418 0.08452433 0.34402165 0.036052864 0.103269935 0.18726191
0.16131076 0.75042456 0.2674445 0.09154406 3.3266215 0.41225922 2.1382823 0.097886294
0.047513433 0.029185366 2.3181868 0.14776957 0.080068104 0.3465111 0.50456554 0.12200674
0.3000878 0.053788796 0.11005428 0.14384225 1.5158484 0.27993163 0.2789653 0.11207592
0.26890174 1.4210972 0.38252017 0.19373783 0.7621311 0.10184614 0.06188354 0.3204674
0.11462928 0.060451694 0.06692861 0.406658 0.031427428 0.018095504 0.06350271 0.028146978
0.13904777 0.43632331 0.04256769 0.10584292 0.06699841 0.20222725 0.22013175 0.13663366
0.23446141 0.028781582 0.270237 1.1165986 0.079550825 0.11708495 0.18678616 3.688581
0.9811002 0.80216897 0.06437721 0.62107366 0.49470076 0.102148056 0.84487456 1.4327663
0.07947366 0.16305546 0.04637765 1.73086 0.13132878 1.2721066 0.59475046 1.2276093
0.18958925 0.5276964 0.120162904 0.11262517 0.12201758 0.18249282 0.5959294 0.03726937
0.09710226 3.3791027 0.13270992 0.014587904 0.76921916 0.08061356 0.032162767 0.09057075
0.17667124 0.4139548 0.3524652 1.0905473 0.12764291 0.09784776 0.27356625 0.4706645
0.3798121 0.08879266 1.1123856 1.5188161 0.63625824 0.12972839 0.07221479 1.444519
00000000: 602c a43e efb0 8b3c 2d1b d53c ac9d f53d
00000010: 8ee7 af3e 8b5f ee3d dd3b a53f 0542 443f
00000020: 0dfd 813f 4ab8 913e 40a9 d83e f68d 7b3e
00000030: bca0 653d 37be 303d d4b3 a13e f1c3 eb3c
00000040: 24d1 c53e fa87 fe3d 9bf8 803d 181b ad3d
00000050: 9b23 b03e 2bac 133d 307f d33d 96c1 3f3e
00000060: a62e 253e d31b 403f 7cee 883e 747b bb3d
00000070: 5ee7 5440 a413 d33e 9ed9 0840 9c78 c83d
00000080: 729d 423d 2616 ef3c 2c5d 1440 e850 173e
00000090: bffa a33d e769 b13e 352b 013f abde f93d
000000a0: 1ca5 993e a451 5c3d 2364 e13d 624b 133e
000000b0: 5207 c23f 3353 8f3e 8ad4 8e3e 0f88 e53d
000000c0: 7dad 893e 83e6 b53f afd9 c33e 3663 463e
000000d0: 061b 433f b694 d03d 9879 7d3d 4e14 a43e
000000e0: c2c2 ea3d 329c 773d de11 893d 7a35 d03e
000000f0: 0cba 003d 063d 943c b50d 823d 7e94 e63c
00000100: 8a62 0e3e c565 df3e 755b 2e3d 2cc4 d83d
00000110: 7636 893d a914 4f3e 386a 613e b2e9 0b3e
00000120: a716 703e 5ac7 eb3c 815c 8a3e b4ec 8e3f
00000130: 8beb a23d 3cca ef3d df44 3f3e b611 6c40
00000140: 6229 7b3f f25a 4d3f 33d8 833d affe 1e3f
00000150: 6b49 fd3e 0033 d13d b349 583f e364 b73f
00000160: 16c3 a23d 03f8 263e 7ef6 3d3d d28c dd3f
00000170: 0d7b 063e 64d4 a23f 9141 183f 4d22 9d3f
00000180: af23 423e 1c17 073f f817 f63d 06a8 e63d
00000190: 5ae4 f93d 66df 3a3e d48e 183f c4a7 183d
000001a0: 8ddd c63d 3843 5840 1ce5 073e 1b02 6f3c
000001b0: 8ceb 443f b918 a53d 1bbd 033d 287d b93d
000001c0: 4ee9 343e e2f1 d33e 5276 b43e 0e97 8b3f
000001d0: d3b4 023e 6864 c83d e010 8c3e f0fa f03e
000001e0: bb76 c23e edd8 b53d a762 8e3f 9168 c23f
000001f0: d2e1 223f 85d7 043e 59e5 933d 00e6 b83f

layer3.conv.weight f4 [256, 128, 2, 2]
0.018276785 0.011287248 -0.02937283 -0.027981665 -0.0021433865 -0.06416655 0.013624949 -0.020547297
-0.018739728 -0.065248616 0.0061932043 -0.040713985 0.037629608 -0.011822091 0.00655894 -0.0057285316
0.009443152 0.032047503 0.0012360421 0.038414802 0.045796853 0.02906831 0.036772948 0.013403168
0.010236777 0.031921305 -0.040559795 -0.014118734 0.051900405 0.078969195 0.017241966 0.006186838
0.032965403 -0.022042667 0.025585381 0.0014638425 -0.011208687 -0.03699066 -0.07140118 -0.08737343
-0.0006439478 -0.05791017 -0.026420651 -0.057495736 0.03244441 0.059045304 0.03467759 0.02125218
0.009210533 0.040407974 0.017781269 0.05327179 0.029586762 -0.028936123 0.035842013 -0.039626654
0.013709795 0.026773961 0.007927086 0.0048913336 -0.025548996 0.012282457 -0.023488358 -0.022253802
-0.0015093209 0.0064086034 0.04296285 0.020289745 0.0051237433 -0.028610503 -0.02532291 0.008133362
-0.040035505 0.0032808527 -0.016487267 -0.027694946 -0.0011882399 -0.0065251836 -0.00028466625 0.015056673
0.020084111 -0.023815129 0.053689834 -0.019048253 0.07919007 0.034918852 0.059392422 -0.0007564521
0.017594934 0.020846318 -0.006520976 0.006525564 0.020027481 -0.0023627728 0.019529507 0.015423235
0.041435175 -0.0037726103 0.06785126 -0.0015572701 0.007005025 -0.019602291 0.025978528 -0.0017024709
0.0026246582 0.027148325 0.017628789 0.018396327 -0.08200377 -0.03101925 -0.04419983 -0.023550568
0.020638699 0.007713192 0.04406711 0.0006876633 0.04395014 -0.024452595 -0.020458125 -0.05593137
0.014700777 0.003195801 0.014568137 0.012820258 0.0442262 -0.004418401 -0.003217894 -0.015804255
0.039419264 0.006752729 0.062837705 0.060395904 -0.10215378 -0.04850581 -0.08460815 -0.041068397
0.064314894 0.057678923 -0.023909539 -0.00079813116 0.05103162 0.10276643 0.06658475 0.06748079
-0.030635921 -0.04761792 -0.01231958 -0.03444808 -0.052371435 -0.110289395 -0.007732828 -0.09029738
0.021869367 0.02222541 -0.009056735 -0.016739804 0.0058804275 0.030809283 0.0238511 0.027608113
-0.02327374 -0.0012651463 0.003308238 -0.0078119785 -0.015164276 -0.046436127 0.011804774 -0.044516552
0.0017126191 0.01924851 0.014195335 0.016592236 0.00023155154 -0.020002073 -0.05036091 -0.0055742916
0.043108795 0.049790904 0.04340802 0.05676161 0.0016852322 0.014301657 0.027261112 0.002256681
0.0033059116 0.052932184 -0.018510649 -0.006868513 0.031462245 0.009907337 -0.010060052 -0.0050132605
0.02627533 0.023078745 0.008993763 0.019836886 -0.0031272534 -0.0071810754 -0.016801083 -0.020367548
0.005210067 0.0022734227 -0.01653412 -0.010757467 -0.0029918025 0.050194185 -0.05024437 -0.01471583
-0.022624854 -0.021978945 -0.018339353 -0.0034321076 0.0029631937 0.022207849 0.004810695 -0.00081704406
0.048125464 0.023948915 0.010131879 0.024195101 -0.017222395 -0.007600064 -0.03665476 -0.0022194686
-0.038209494 -0.06365483 -0.01672769 -0.014760091 0.002812827 -0.010983964 -0.01940699 -0.03373989
0.07845228 0.07814611 0.0815098 0.08210456 0.0062227827 -0.02231918 -0.0011890901 -0.047271095
0.040078018 0.057945352 0.05092817 0.040819794 0.040871453 0.015976397 0.051994123 0.049696755
-0.009235085 -0.009972157 -0.021203456 -0.017365124 -0.02794828 -0.016883045 -0.059321724 -0.01590457
00000000: 32b9 953c 26ee 383c 4a9f f0bc ce39 e5bc
00000010: 0f78 0cbb c169 83bd 2e3b 5f3c ce52 a8bc
00000020: 0f84 99bc 11a1 85bd 5df0 ca3b b5c3 26bd
00000030: 8121 1a3d 72b1 41bc 60ec d63b 68b6 bbbb
00000040: 73b7 1a3c 3e44 033d b102 a23a d758 1d3d
00000050: 7b95 3b3d aa20 ee3c 3b9f 163d f698 5b3c
00000060: 28b8 273c eabf 023d 0722 26bd 4352 67bc
00000070: 8595 543d 9aba a13d 063f 8d3c f5ba ca3b
00000080: bb06 073d d392 b4bc 6f98 d13c 67de bf3a
00000090: a4a4 37bc 8583 17bd c83a 92bd d7f0 b2bd
000000a0: 9bce 28ba 3733 6dbd 1f70 d8bc a680 6bbd
000000b0: 6ee4 043d 7dd9 713d 170a 0e3d 0d19 ae3c
000000c0: c7e7 163c d582 253d 06aa 913c 8533 5a3d
000000d0: f05f f23c 730b edbc 13cf 123d 8f4f 22bd
000000e0: 0c9f 603c 1155 db3c 9ce0 013c 7b47 a03b
000000f0: 214c d1bc 5c3c 493c a86a c0bc 9b4d b6bc
00000100: 68d4 c5ba 43ff d13b d0f9 2f3d ae36 a63c
00000110: 13e5 a73b 9360 eabc fe71 cfbc cb41 053c
00000120: 45fc 23bd 9303 573b 4e10 87bc 83e0 e2bc
00000130: b7be 9bba 35d1 d5bb 423f 95b9 44b0 763c
00000140: 6f87 a43c f217 c3bc dfe9 5b3d 150b 9cbc
00000150: 672e a23d 1207 0f3d 7845 733d a44c 46ba
00000160: 4023 903c e6c5 aa3c e9ad d5bb 66d4 d53b
00000170: ac10 a43c c0d8 1abb 58fc 9f3c bcb1 7c3c
00000180: eeb7 293d e63d 77bb 9af5 8a3d 501d ccba
00000190: 698a e53b fc94 a0bc ecd0 d43c 7225 dfba
000001a0: 7502 2c3b 2a66 de3c 406a 903c e5b3 963c
000001b0: 98f1 a7bd 151c febc e20a 35bd 1fed c0bc
000001c0: 7d12 a93c f2be fc3b b77f 343d 4e44 343a
000001d0: 1005 343d cf50 c8bc cc97 a7bc 4b18 65bd
000001e0: 87db 703c a570 513b 32af 6e3c 0f0c 523c
000001f0: 8826 353d 3cc8 90bb 4de3 52bb ed77 81bc
00000200: 1876 213d ff45 dd3b 0eb1 803d b261 773d
00000210: 0036 d1bd 07ae 46bd 0a47 adbd 5637 28bd
00000220: 87b7 833d bc40 6c3d f0dd c3bc ad39 51ba
00000230: 8806 513d 3577 d23d 965d 883d 5e33 8a3d
00000240: 2ff8 fabc 020b 43bd 10d8 49bc 6e19 0dbd
00000250: 6e83 56bd 68df e1bd aa63 fdbb d5ed b8bd
00000260: 6327 b33c 1012 b63c b362 14bc ea21 89bc
00000270: 9ab0 c03b c063 fc3c 6263 c33c 692a e23c
00000280: 92a8 bebc 44d3 a5ba 06cf 583b a0fb ffbb
00000290: 9573 78bc cf33 3ebd d068 413c fd56 36bd
000002a0: f679 e03a 0daf 9d3c 8d93 683c 71ec 873c
000002b0: a5cc 7239 63db a3bc 3e47 4ebd 8ca8 b6bb
000002c0: d992 303d 8cf1 4b3d 9ccc 313d dd7e 683d
000002d0: 02e3 dc3a 7f51 6a3c b252 df3c d3e4 133b
000002e0: fea7 583b 6bcf 583d a5a3 97bc 4311 e1bb
000002f0: 8ede 003d 6252 223c ebd2 24bc 4746 a4bb
00000300: 5c3f d73c a30f bd3c 935a 133c f780 a23c
00000310: 9bf2 4cbb 3a4f ebbb 6da2 89bc d8d9 a6bc
00000320: 36b9 aa3b b4fd 143b 9072 87bc 1640 30bc
00000330: 1e12 44bb 6b98 4d3d 0acd 4dbd aa1a 71bc
00000340: c257 b9bc 300d b4bc 693c 96bc 36ed 60bb
00000350: 2432 423b 3ced b53c 09a3 9d3b e62e 56ba
00000360: 351f 453d 8430 c43c 2e00 263c ce34 c63c
00000370: fb15 8dbc f509 f9bb 4d23 16bd 8174 11bb
00000380: 8f81 1cbd 775d 82bd 8208 89bc 4fd4 71bc
00000390: 6857 383b 16f6 33bc 68fb 9ebc d732 0abd
000003a0: 97ab a03d 110b a03d 9cee a63d 7026 a83d
000003b0: 7ce8 cb3b b7d6 b6bc 3edb 9bba 569f 41bd
000003c0: d928 243d 1b58 6d3d 0f9a 503d a832 273d
000003d0: d368 273d efe0 823c caf7 543d d38e 4b3d
000003e0: c14e 17bc 4262 23bc dfb2 adbc 4e41 8ebc
000003f0: cbf3 e4bc 504e 8abc 56fb 72bd 4d4a 82bc

layer3.conv.bias f4 [256]
0.08955621 0.22670093 0.18856291 -0.06269824 0.009518062 0.039234556 -0.03512017 0.011467924
-0.04935986 -0.18224563 -0.015406729 0.10975504 -0.06530491 0.053816702 -0.08654649 -0.028175231
-0.0068360944 0.116920926 -0.055474546 -0.18274234 -0.16777912 -0.008762071 0.05006841 0.065137394
0.0073416256 -0.003920466 0.020282693 -0.090087265 -0.020791344 -0.010923938 0.04879145 -0.09517681
-0.12161274 0.030429654 0.053962044 -0.18691067 0.0488922 0.0533416 0.0922511 0.16296163
0.05620722 -0.038555205 -0.15059868 0.034759097 -0.23726378 0.08212514 -0.09928493 -0.16990905
-0.044509932 -0.025648993 -0.108494684 -0.06073033 -0.014700682 -0.12570201 0.044785246 0.03249809
0.088432565 -0.00887946 0.036825232 0.11378351 0.046221733 -0.062421523 -0.013812376 -0.10707658
-0.07041332 -0.28113574 -0.12814665 -0.19779459 -0.14672701 -0.02802123 -0.0020740647 -0.0979365
-0.0057456773 0.097248256 -0.03112704 0.011938889 -0.11937534 -0.112205006 0.037493356 0.028158106
0.047634274 0.04627476 -0.016944716 -0.12617816 -0.20231709 0.046635423 0.14430422 -0.012217206
-0.23659962 -0.030780151 -0.14035498 0.17357412 -0.028913984 0.009387545 0.007384157 0.0020461993
-0.12846005 -0.16450001 -0.1607865 -0.024263307 -0.16196218 0.02024706 -0.0477848 0.003546072
0.21364194 -0.097581334 0.06705648 0.10899831 -0.03261595 -0.078776985 -0.0042312793 -0.0018029877
0.03804171 0.016051613 0.059752993 0.07129062 0.0073149274 -0.032755412 -0.11222132 -0.15263344
-0.048910752 -0.014773208 0.04564556 0.023585612 0.06588881 0.023341665 -0.04625562 -0.06119119
-0.2628643 0.05089592 -0.08841903 0.12134939 -0.08343663 0.021229878 -0.03889293 0.0024604676
0.012914233 -0.16056329 -0.061021432 -0.14898613 0.039761268 -0.0051921695 0.018060049 -0.004822788
0.10431404 0.19377981 0.09328164 -0.04507632 -0.15596674 0.065788426 0.055767763 0.1057186
-0.097463705 -0.037813533 0.1191745 0.10844818 -0.12706652 0.05090452 -0.016429508 -0.1176213
-0.12964946 -0.0029771735 -0.007823369 -0.07579278 -0.12655777 -0.16197738 -0.102252886 -0.020524343
-0.064135775 0.08871063 0.022706393 -0.090708114 -0.11310165 0.00793599 -0.05881897 -0.011049649
-0.12168248 -0.078261375 -0.047256675 -0.15897952 -0.20475876 0.039595578 -0.079743475 -0.03730535
-0.06905737 -0.028021438 0.04851032 -0.12844743 -0.13550025 0.07164475 0.0224114 -0.007187141
-0.018273704 -0.04542841 -0.098618224 -0.0009810433 -0.05666775 -0.09917823 0.02744282 0.032804757
-0.078975186 -0.04272378 -0.004484764 0.1515549 0.08412484 -0.08952693 -0.08089718 -0.0082949735
-0.15758401 0.07612187 -0.02736313 -0.05721786 -0.009405645 -0.30664036 0.00048682166 -0.0073243068
0.011951707 -0.10104788 0.024590744 -0.10752423 0.043710634 -0.01430427 -0.1324891 0.010394459
-0.08003124 -0.015253787 -0.02616447 0.064886846 -0.058628168 -0.0066552167 0.0069986987 -0.14588873
0.05621697 0.06630581 -0.013155143 -0.07006028 0.093042046 -0.007518663 -0.074347444 0.0013793698
0.01632705 0.019789392 0.055890605 -0.07080083 0.031913422 0.14426807 0.065542184 0.029834654
-0.0172707 -0.021815129 -0.081635796 -0.034094747 -0.009947661 0.020243783 0.08318315 -0.04164704
00000000: 3f69 b73d 4a24 683e a316 413e ef67 80bd
00000010: a5f1 1b3c 6ab4 203d 2bda 0fbd f6e3 3b3c
00000020: 912d 4abd 999e 3abe 816c 7cbc 40c7 e03d
00000030: 95be 85bd e76e 5c3d 493f b1bd becf e6bc
00000040: 5101 e0bb 3d74 ef3d 4739 63bd cf20 3bbe
00000050: 4ace 2bbe ca8e 0fbc 8814 4d3d c166 853d
00000060: 0592 f03b 4177 80bb e427 a63c ac7f b8bd
00000070: 9c52 aabc 51fa 32bc 8bd9 473d 0fec c2bd
00000080: 1a10 f9bd 9c47 f93c 4e07 5d3d 8365 3fbe
00000090: 3043 483d b97c 5a3d 25ee bc3d 6adf 263e
000000a0: 8b39 663d 10ec 1dbd 8a36 1abe 8e5f 0e3d
000000b0: 47f5 72be 3a31 a83d e655 cbbd a3fc 2dbe
000000c0: 0c50 36bd d61d d2bc 7632 debd 5ec0 78bd
000000d0: 21db 70bc 07b8 00be bc70 373d b81c 053d
000000e0: 221c b53d 287b 11bc 0ed6 163d 5407 e93d
000000f0: 0053 3d3d b6ad 7fbd 4e4d 62bc f74a dbbd
00000100: dc34 90bd 06f1 8fbe e038 03be aa8a 4abe
00000110: 9b3f 16be c78c e5bc 08ed 07bb ef92 c8bd
00000120: 3c46 bcbb 182a c73d 22fe febc 549b 433c
00000130: 0f7b f4bd bdcb e5bd a292 193d d4ab e63c
00000140: 281c 433d 9a8a 3d3d a5cf 8abc d934 01be
00000150: 362c 4fbe c904 3f3d 7cc4 133e ad2a 48bc
00000160: 2c47 72be a826 fcbc 37b9 0fbe 6abd 313e
00000170: 05dd ecbc 38ce 193c ccf6 f13b 8719 063b
00000180: 088b 03be b172 28be 37a5 24be d8c3 c6bc
00000190: 6ad9 25be 2add a53c ffb9 43bd 3765 683b
000001a0: f4c4 5a3e b9d8 c7bd e854 893d 823a df3d
000001b0: 4d98 05bd d455 a1bd 8ba6 8abb 3a52 ecba
000001c0: a0d1 1b3d ac7e 833c 8ebf 743d d100 923d
000001d0: 0fb2 ef3b 8a2a 06bd 4bd4 e5bd f14b 1cbe
000001e0: a456 48bd 530b 72bc d7f6 3a3d 9d36 c13c
000001f0: b6f0 863d 0537 bf3c 8876 3dbd 9da3 7abd
00000200: 2696 86be 3d78 503d 0915 b5bd 0786 f83d
00000210: d3e0 aabd 48ea ad3c 314e 1fbd cc3f 213b
00000220: 3896 533c b46a 24be 9cf1 79bd d28f 18be
00000230: b6dc 223d 1323 aabb abf2 933c 7a08 9ebb
00000240: 99a2 d53d 376e 463e 720a bf3d f3a1 38bd
00000250: bfb5 1fbe 15bc 863d bd6c 643d fe82 d83d
00000260: 0d9b c7bd 5de2 1abd c311 f43d 141a de3d
00000270: ba1d 02be 4281 503d 2d97 86bc 70e3 f0bd
00000280: d4c2 04be af1c 43bb 962d 00bc 3f39 9bbd
00000290: 5c98 01be 66dd 25be f669 d1bd ab22 a8bc
000002a0: 9e59 83bd ebad b53d c202 ba3c 2dc5 b9bd
000002b0: d6a1 e7bd f405 023c 29ec 70bd 9609 35bc
000002c0: aa34 f9bd 8047 a0bd 3790 41bd 87cb 22be
000002d0: 48ac 51be f92e 223d 8c50 a3bd 7fcd 18bd
000002e0: f36d 8dbd 378d e5bc c2b2 463d b987 03be
000002f0: 94c0 0abe 7cba 923d 1d98 b73c 1c82 ebbb
00000300: bcb2 95bc 2413 3abd 5af8 c9bd 5a96 80ba
00000310: 711c 68bd f51d cbbd c4cf e03c 485e 063d
00000320: bebd a1bd 21ff 2ebd edf4 92bb 3531 1b3e
00000330: a549 ac3d e559 b7bd 6cad a5bd a4e7 07bc
00000340: b45d 21be c8e5 9b3d a528 e0bc 465d 6abd
00000350: 221a 1abc f7ff 9cbe 193c ff39 bd00 f0bb
00000360: 18d1 433c 31f2 cebd 8772 c93c aa35 dcbd
00000370: ec09 333d 755c 6abc 39ab 07be 854d 2a3c
00000380: 6be7 a3bd 05eb 79bc df56 d6bc 65e3 843d
00000390: 1724 70bd 0114 dabb 5755 e53b db63 15be
000003a0: c443 663d 57cb 873d ab88 57bc c47b 8fbd
000003b0: d48c be3d 1e5f f6bb 7943 98bd f8cb b43a
000003c0: 4ec0 853c 5d1d a23c 8ced 643d 0700 91bd
000003d0: a6b7 023d 02bb 133e fb3a 863d ce67 f43c
000003e0: 487b 8dbc a4b5 b2bc ab30 a7bd efa6 0bbd
000003f0: 84fb 22bc 4ad6 a53c ed5b aa3d 1696 2abd
