models/model_cnn.pth (torch, 721095 bytes, 20 tensors)

layer1.conv.weight f4 [64, 1, 2, 2]
00000000: 47c3 973e ade3 29be b925 97bd e6d3 be3d
00000010: eb0f 0cbe e92c cabd 8ff9 8e3d b7f8 89be
00000020: a926 1cbe 0505 9bbe 1609 8dbe 10c9 183f
00000030: 3b91 08be 0c99 9e3e 0596 973e fe29 25bd
00000040: 8adb 7ebd ca24 1b3e d1aa 70be 15d6 2f3e
00000050: d5ea aa3c 9bbd 3f3e 5320 353e be78 053f
00000060: 218e 8ebe 1b9b 37bb f76d 3cbe 20fd 8b3e
00000070: 4204 74be 32a1 983d 6934 b9bd 84d1 72be
00000080: b6da 45be bd51 28be 1421 babd 2d83 9bbd
00000090: 5cb0 a1bd c049 cb3e b709 f8be 5740 4e3e
000000a0: 6179 bebe 2396 cb3e 699a c4bd 7803 68be
000000b0: 25da 3c3d 3642 bf3e e007 6fbe c033 83be
000000c0: 0d70 043f 172d dabe 87a8 3dbd 53a2 78bd
000000d0: a103 cfbe ad1f d33e 6e03 a339 7748 853b
000000e0: 0728 da3e a76b b83e c1b7 4fbe 2eae f4bd
000000f0: 9ace 9f3e 927e e73d 2532 a2be 29f7 5f3e
00000100: 1c4d cabe aa0b 343e bb0f 58bd baae 9d3e
00000110: a933 17be 2cd4 c5bb e86f 26be 6203 953c
00000120: c023 b33d 2cb5 64be 9d07 b3bd ab45 8cbd
00000130: 18fb debd f54d fd3e f29b c6be 4988 b7be
00000140: 5923 6d3e 27fd 0c3d bfca 0cbd 776d 0bbe
00000150: cdcc 4dbe 0b3c b4be 6b81 2a3e 3178 febc
00000160: d070 0abe c9ce 73be 1403 4a3e 7681 13be
00000170: 19a6 60bd 316e b53d cf2b 2cbe a4f0 28be
00000180: 8891 bc3b aa9e e1be 9306 c23e 913c 8b3d
00000190: 2daf 513e 8d8a 0abf 8f46 05bf bb31 f53e
000001a0: 2104 3d3e 286d adbe e304 46bd e9b7 99be
000001b0: 3248 c0be e9d3 a9bd abf3 ce3b c8a1 013f
000001c0: 6f69 8ebe 332d 67be 71eb 1b3e 8538 aa3e
000001d0: a2c4 e93e ddf2 44be f294 99be a9c1 36be
000001e0: 0c52 983e 49f9 b0bb ab65 98be 413c a9be
000001f0: 528f 973e 40f6 d0be 0730 913e 30ed 2dbe
00000200: ceb7 6b3e af8d 90be 16a4 e6bd 7b9b 9ebe
00000210: c858 dc3d a94f b23e e925 ba3e 0f5e b23e
00000220: 54e7 63be 950a bebd be12 163f afc1 c2be
00000230: 8972 82be f56d d0be 5e29 923e 389c d13e
00000240: d3af c7be 59b1 9d3e a6b3 553e abd5 9fbe
00000250: 594a 9389 6e30 2580 3f40 2180 1e6d b500
00000260: 0289 2abe 2a86 523e 2b16 98be 217b 8b3e
00000270: d399 9d3e 60c2 1d3e 918c e83c b303 f0be
00000280: d57f f23c 8acd cdbe 7192 583e 38ed 543e
00000290: 1f87 2bbe 43cb ca3c ff5e babb 29e3 e8bc
000002a0: 3b2e 01be 9f02 b0be 35a9 ccbe 3887 033f
000002b0: 3459 11be 40a9 0e3f a1d0 bfbe ed06 83bd
000002c0: d06f 9c3e 4701 f73c d42e b93d f24b 52be
000002d0: cd8e 283e 823b 813e fcf3 56bc 6a7d c0be
000002e0: 0bfb b53e c4f8 4c3e cf7f 8c3e d7e1 d3be
000002f0: 1f23 453e 740e f5be 34d5 063e de28 5dbe
00000300: 693b 77be af54 e1bd a0d6 1dbb e770 d13e
00000310: 51d2 cc3e ab60 533d 270b 9abe 556d 13be
00000320: 532d 693e c098 4cbd 50ce 99be cba2 8a3e
00000330: 4a49 babe bfde 4e3d 6c22 c03e b658 60bb
00000340: 297a c43c 8625 863e 0907 4ebe 6578 a1bd
00000350: def8 2cbe 6c9b f7be 83cb ae3e d799 a33e
00000360: 0e29 823e 6db9 5bbe 3001 e53d 94cf 72be
00000370: 5be9 803e af87 49be 728c 63be 191a a63d
00000380: 532f ab3d 9d10 7cbd 47be 55be c999 abbd
00000390: 5acb f6be 483a e83d 3fd8 5dbe 9b44 193e
000003a0: 3b08 a4be 4812 f93e 8a96 4bbe 0e2c 27be
000003b0: cebc 6cbe eed6 b23e 423f ba3e b76c 82be
000003c0: 7a5c 393e f95b 46be c796 363e 098b fbbb
000003d0: 9e5f 9f3e 223a c13e daaa cfbe 8669 8dbe
000003e0: fcae 813b 05cb e03c 2692 963e 8d2f 5cbe
000003f0: 3a31 103e d82d 65be 6d56 82be c865 523e
0.29641172 -0.16590758 -0.07380242 0.0931776 -0.13677947 -0.09871847 0.06981193 -0.26947567
-0.15249123 -0.30277267 -0.27545995 0.596818 -0.13336651 0.3097614 0.29606643 -0.04032325
-0.062221088 0.15150753 -0.23502661 0.1717151 0.02086393 0.18724672 0.17688112 0.5213736
-0.2784281 -0.0028016034 -0.18401323 0.27341557 -0.23829749 0.074526206 -0.090431996 -0.23712736
-0.19321713 -0.1643743 -0.090883404 -0.07593379 -0.07894966 0.39704704 -0.48444912 0.20141731
-0.3720198 0.39762983 -0.09599764 -0.22657573 0.046106476 0.37355202 -0.23342848 -0.2562542
0.51733476 -0.42612526 -0.0463033 -0.06070168 -0.40432456 0.41235104 0.00031092338 0.0040674764
0.42608663 0.36019632 -0.2028494 -0.11947285 0.31212312 0.11303438 -0.31678882 0.21871628
-0.39511955 0.17582574 -0.052749377 0.30797368 -0.147658 -0.0060372557 -0.16253626 0.01819009
0.08747053 -0.22334737 -0.087416865 -0.068492256 -0.10887736 0.4947354 -0.38790852 -0.35846165
0.23158015 0.034421112 -0.03437304 -0.13615976 -0.20097657 -0.3520206 0.16650932 -0.031063171
-0.13519597 -0.23809351 0.19727737 -0.14404854 -0.054845903 0.08858908 -0.16813587 -0.16498047
0.0057546534 -0.44066364 0.3789564 0.067986615 0.2047698 -0.5411766 -0.5206079 0.47889504
0.18458606 -0.33872342 -0.048344504 -0.30023125 -0.3755508 -0.08292372 0.0063156686 0.50637484
-0.27814814 -0.22575836 0.15226533 0.33246246 0.4565783 -0.1923327 -0.2999645 -0.17847313
0.29750097 -0.005400811 -0.29765067 -0.33053783 0.29601532 -0.40812874 0.28356954 -0.16985011
0.23019335 -0.28233096 -0.11261766 -0.30977997 0.10759121 0.348264 0.36357048 0.34837386
-0.22256213 -0.09279362 0.5862235 -0.38038394 -0.25478008 -0.4070889 0.28547186 0.40939498
-0.3900133 0.30799368 0.20869312 -0.31217703 -3.545888e-33 -3.415287e-39 -3.053619e-39 1.6661369e-38
-0.16653827 0.20558992 -0.29704413 0.27242377 0.3078142 0.1540618 0.02838734 -0.46877822
0.02960197 -0.40195876 0.21149613 0.20793617 -0.16750763 0.024755126 -0.005687594 -0.02842863
-0.12615292 -0.34377 -0.39972845 0.513782 -0.14194185 0.55727005 -0.3746386 -0.06397805
0.30554056 0.030151976 0.09042135 -0.20536783 0.16460724 0.25240713 -0.013119694 -0.37595683
0.35543093 0.20016772 0.2744126 -0.4138324 0.19251679 -0.4786259 0.13167268 -0.21597621
-0.24143757 -0.1100248 -0.0024084225 0.4090645 0.4000421 0.05160586 -0.30086634 -0.14397176
0.22771196 -0.04995036 -0.30040216 0.27077326 -0.3638404 0.050505396 0.37526262 -0.0034232563
0.023984032 0.26200503 -0.20119871 -0.078842916 -0.1689181 -0.48360765 0.34139642 0.31953308
0.25421947 -0.21457453 0.11181867 -0.23711997 0.25178036 -0.19680665 -0.22221544 0.081104465
0.08358636 -0.06153928 -0.20873366 -0.083789416 -0.4820202 0.11339241 -0.21664523 0.14967577
-0.3203753 0.4864676 -0.19881645 -0.163254 -0.23118898 0.34929603 0.36376387 -0.25473568
0.18101683 -0.19371022 0.17830954 -0.0076764864 0.31127638 0.37739664 -0.40560037 -0.2761957
0.0039576273 0.027440557 0.29408377 -0.21502514 0.14081278 -0.22380769 -0.25456563 0.20546639

layer1.conv.bias f4 [64]
00000000: b701 793e 6a48 c8be 9180 b73e 0a8e abbe
00000010: 070e 833e 40d4 5abe a89f f83d c5bc 903e
00000020: dfb4 18bf 00be 893e 0f20 42bc d939 69bd
00000030: 71c2 b23c 8dd1 c83d 6699 aabe 20ce 19be
00000040: a6ca 4c3d 6f29 d4be 0dac 64be d48e 9abe
00000050: 8111 a7be a72b f83d 82be 76be f939 8cbe
00000060: 2657 be3c 333b 98be e16b 903e 8964 c2be
00000070: 489f 853e bc27 2fbe 376f f5be 74b0 493d
00000080: 34ee bfbd 70f1 d23d 8421 8cbd 13b8 143d
00000090: 8dcb 253d 2f52 12b3 ba00 653c e461 543e
000000a0: d64c 603d b820 67be 7251 9cbe c020 693c
000000b0: 7c27 47be 4929 033e a52c 65be 21f2 afbe
000000c0: cf43 133e 4ea3 bd3e 0f89 c7bd 7f7d ad3e
000000d0: c026 993e f3b6 be3c 2ebf 7cbd b987 653e
000000e0: 0a03 2fbe 458d dfbe 657c 2abe 6f51 123e
000000f0: 8690 ebbc 2dcd 283d 50a5 b0be 544d 7c3e
0.2431706 -0.39117748 0.35840276 -0.33506805 0.2559664 -0.2137003 0.12139827 0.2826902
-0.5965099 0.2690277 -0.011848464 -0.056939933 0.021821233 0.09805594 -0.3332016 -0.15020037
0.049997948 -0.4143786 -0.22331257 -0.30187094 -0.32630542 0.12117701 -0.2409611 -0.2738798
0.023234915 -0.29732665 0.28207305 -0.37967327 0.26098084 -0.17105001 -0.47936413 0.049240544
-0.093716055 0.10299957 -0.0684233 0.03630836 0.040477324 -3.406802e-08 0.013977224 0.20740467
0.054760776 -0.22571075 -0.30530888 0.014229 -0.19448656 0.12808718 -0.22380312 -0.34364417
0.14381336 0.37038654 -0.09742939 0.33884808 0.29912376 0.023280596 -0.06170576 0.22415055
-0.17091003 -0.43662468 -0.16649015 0.14288877 -0.028755438 0.041211296 -0.34501123 0.24638873

layer1.bn.weight f4 [64]
00000000: 47cf 653f ab04 6a3f cc56 5b3f 480b 4b3f
00000010: 7f48 673f 46d1 553f e6be 2e3f 1f5e 153f
00000020: 573e 4d3f e7e9 7f3f de78 3b3f 692e 673f
00000030: 6f85 683f 3796 813f c606 4d3f bd5a 503f
00000040: 9d15 913f 8c60 363f e655 313f 1652 623f
00000050: 3e2b 483f dde0 263f 08fb 363f 2ea9 573f
00000060: 62e1 873f 048f 2c3f 9a1e 1b3f b0c1 653f
00000070: 21f4 5d3f 580f 6e3f 8b9b 4d3f 3028 893f
00000080: 8676 243f 89b6 4a3f 0bc9 753f d121 823f
00000090: 6d1c 353f 1841 1f3c 5cb6 753f 89af 783f
000000a0: e601 7d3f dff1 443f 6bbc 673f 500b 753f
000000b0: ac30 4a3f fdf4 603f edef 4a3f 56cb 753f
000000c0: e61f 873f 4209 7d3f ee43 4d3f 94e1 873f
000000d0: b71d 693f b296 833f 7c94 313f 1455 4b3f
000000e0: f97f 263f d1df 843f 9b19 773f d9f1 5f3f
000000f0: fd0d 583f 6f0c 723f c4fe ed3e abbd 203f
0.89769405 0.9141337 0.85679317 0.7931409 0.90344995 0.8352245 0.6826004 0.5834674
0.8017325 0.9996628 0.73231304 0.9030519 0.90828604 1.0123967 0.8008846 0.81388456
1.1334721 0.7124107 0.69271696 0.88406503 0.7819098 0.65186864 0.71476793 0.8424252
1.0615656 0.67405725 0.6059357 0.8974867 0.86700636 0.9299216 0.80315465 1.0715389
0.6424335 0.79184777 0.9600989 1.016657 0.707465 0.009720109 0.95981383 0.97142845
0.9883102 0.76931566 0.9052188 0.95720387 0.7898052 0.8787382 0.7927235 0.9601339
1.055661 0.9884225 0.8018178 1.0615716 0.91060966 1.0280364 0.69367194 0.79426694
0.6503902 1.0380803 0.96523446 0.87478405 0.84396344 0.9455022 0.46483433 0.6278941

layer1.bn.bias f4 [64]
00000000: fa69 f03e 6f5c 1c3f 4133 4c3e 1a00 d83d
00000010: 87ad d93d 38e4 3e3e bc37 aa3e b733 953e
00000020: 7cfc 863e 80e7 863e b858 843e 2732 973e
00000030: 8ba0 983e 1ffb 703e 83db 1d3e 81b1 283e
00000040: 37dd fd3e 8274 0b3e eacd b43e ec83 bb3e
00000050: b3f7 9e3c c1d9 913e 958d c83e 2269 083f
00000060: 1f91 e53e 5f43 1d3e 7e41 643e 849d e53d
00000070: d819 643e 67b0 c03e f9bc f13d f8ef be3e
00000080: 5558 a83e 9ea8 6f3e 2cad b13e a6cd c53e
00000090: 848c 7a3e 1c40 c13e d850 b23e 6507 943e
000000a0: 515b d13e fb7e 7f3e c77b ae3e c456 c23e
000000b0: 541c 093e 1754 933e 385f 3f3e 24f7 633e
000000c0: e26a ae3e 3d45 4a3e 085a 083e b009 733e
000000d0: 096a 383e ccbe ca3e 0440 7a3e 7e80 613e
000000e0: 0553 bb3e 4455 6a3e 9a11 a73e c95c be3e
000000f0: 99de 6a3e 7f9b b83e cf4d 4fbc 3aa9 6e3e
0.46955854 0.6107854 0.19941427 0.10546894 0.10628801 0.18641746 0.33245647 0.29141018
0.26364505 0.26348495 0.25848937 0.2953045 0.29809985 0.23533295 0.15415768 0.16473962
0.49582836 0.13618663 0.3531335 0.36624086 0.019405222 0.28486446 0.3917052 0.5328542
0.4483728 0.15357731 0.22290608 0.11211684 0.22275484 0.37634584 0.11803622 0.37292457
0.32879892 0.23404166 0.34702432 0.3863346 0.24467665 0.37744224 0.34827304 0.28911892
0.4088998 0.24950783 0.3407881 0.37956822 0.13389713 0.28775093 0.18688667 0.22262245
0.3406592 0.19752975 0.13315594 0.23734164 0.18009199 0.3959869 0.24438483 0.22021672
0.36586776 0.22884089 0.32630616 0.37180164 0.22936477 0.36056134 -0.012652828 0.23306742

layer1.bn.running_mean f4 [64]
00000000: c4b7 1e3e c327 e23c a90e e53e 22f8 af3b
00000010: ee9f 773e 76d3 653d 9cef 843e d87c 173f
00000020: 0400 0000 1ea0 8b3e a222 5a3e e9a1 463d
00000030: 3a60 ab3d cba3 f03d 8d8a 783c 7675 803c
00000040: 0796 a43d 0400 0000 a630 383d 97a7 873d
00000050: 0ea3 0339 95a0 cd3e 780a 5f3d 2cc8 873c
00000060: 6a50 983d af90 613d 9b91 1b3f 87e6 353c
00000070: 07c2 943e 2017 5d3d c393 ff3b 2a7b c73d
00000080: d738 8c3e 7116 013e c96b 8e3d 9109 a33d
00000090: 502f 303e 0000 0000 056f 573d 5db1 663e
000000a0: a5e6 873d 0400 0000 366c 583d 8b7a bd3d
000000b0: 95e0 253c eab9 063e 9dba e13c e0b2 183d
000000c0: dc53 143e 2141 bf3e 84bc ec3b 8a4f 9e3e
000000d0: 3862 983e d555 ac3d b36e 343d 52f4 8d3e
000000e0: cca9 5f3d 8cae 753c 0ec9 383d 74b6 7a3d
000000f0: c368 d93c 50b7 c13d 1c4c 4b39 16cc a73e
0.15499789 0.02760685 0.44737747 0.005370156 0.24182102 0.056109868 0.25964057 0.5917487
6e-45 0.27270597 0.21302274 0.048494253 0.08367963 0.11749991 0.015169752 0.01568101
0.08036428 6e-45 0.04496827 0.06623762 0.00012553876 0.40161577 0.054453343 0.016574942
0.07437213 0.05506962 0.6076905 0.011102325 0.2905428 0.05397713 0.007799597 0.097402886
0.27387115 0.12606217 0.06954152 0.07960809 0.17205548 0.0 0.05259611 0.22528596
0.06635789 6e-45 0.052837573 0.09251889 0.010124345 0.13156858 0.027554804 0.037279963
0.14485115 0.37354377 0.0072246213 0.30920058 0.29762435 0.08414809 0.044050884 0.27725464
0.05460529 0.0149952285 0.045113616 0.061209157 0.026539212 0.09458792 0.00019387942 0.32772893

layer1.bn.running_var f4 [64]
00000000: 8e97 473c 9d4b 233a 444b 463d d343 093a
00000010: eac8 5e3c e097 d33c 2460 c63c 494e 8d3d
00000020: 0400 0000 a9ec 2c3d bc04 9a3c fd0a 373c
00000030: 9ef5 983c 6e5b 813c 68bc 6b3b 5023 443b
00000040: 0870 bb3c 0400 0000 9421 a23a 2fdc 273c
00000050: 5721 bf36 d041 453d 2ddd 013b 946f 8639
00000060: f0ab ac3c ffe0 593b b72a b03d bd36 263b
00000070: 77b6 e53c 9a3e f93b 3d3a a23a c5e4 ce3c
00000080: ac7d f43c 2156 d03d cf02 4b3c b504 063d
00000090: 6cdd 113c 0400 0000 f509 863c b419 063d
000000a0: da46 7a3c 0400 0000 d0b7 b23b 796c d73c
000000b0: 74ef da3a c61a 913c b489 093c 7895 b43b
000000c0: fd48 b73c aafc e93c ad5d 853a 831b 9e3c
000000d0: 386c 773c 7fab f13c 3cad 163c 312a e33b
000000e0: 42e8 e33a 5691 4c3b c0c3 063c 91b6 793c
000000f0: 804e 903b 1975 033d f4b6 4837 4328 163c
0.01218213 0.0006229224 0.048411623 0.0005236242 0.013597706 0.025829256 0.024215765 0.06899697
6e-45 0.042217884 0.018801086 0.011172053 0.018671807 0.015790667 0.0035970453 0.0029928274
0.02288057 6e-45 0.0012369626 0.010245367 5.696125e-06 0.048158467 0.001981567 0.00025641604
0.02107808 0.003324568 0.08601897 0.0025362216 0.028041108 0.0076063396 0.0012376976 0.02525557
0.029845081 0.10172678 0.012390806 0.032719333 0.008902889 6e-45 0.01636217 0.032739356
0.015275681 6e-45 0.005454041 0.026296841 0.0016703443 0.017712962 0.008394647 0.005510982
0.02237367 0.028562862 0.0010175012 0.019300228 0.015101485 0.029500721 0.009196576 0.00693252
0.0017387944 0.0031214557 0.008225381 0.015241281 0.004403889 0.032094095 1.1963526e-05 0.009164873

layer2.conv.weight f4 [128, 64, 2, 2]
00000000: 8079 bd3c 36a9 57bd f9ea a53c ebc9 25bc
00000010: 07d2 283c 56b4 7a3d 1e7f 253d 4438 013d
00000020: 8139 70bd 96f8 8bbd 0289 3d3c 0a7b 37be
00000030: ce08 01bd 2435 5ebd 5e61 203d 39b1 0abd
00000040: fa6a 6dbd cc01 35bd b9f4 debc d4dd d1bd
00000050: 054f d1bb 2206 d2bc 505d 00ba cd5b 5d3d
00000060: 8ae2 b0bd e34d 43bc c8a4 dbbc 5180 86bd
00000070: 62d3 92bc 9234 e43c 8fc9 73bd 6d86 453d
00000080: ad5a 65bd 0eb6 733d 1da4 f539 1c7c 5a3d
00000090: 0253 ddbd 7c85 2abd 981b 2abd 53ab a6bd
000000a0: a009 e8ba c5e0 893d b830 0dbd bc6e b8ba
000000b0: 3a2b 023d c0cd d03c 3014 65bd a7c6 b2bc
000000c0: 1d65 34bc d309 423c 0da8 aabc 7414 503d
000000d0: 182b abbc 1098 ddbc 45b4 9a3d 3c17 02bd
000000e0: 0707 3a3d 9e06 383c fe0e 363d 14c0 8c3c
000000f0: e461 acbb 341a c1ba bf34 2fbc 5838 063d
00000100: 25f9 9dbd 5a60 35be 7764 903c 9260 92be
00000110: 0c4b 48bd 625a 4a3d 0052 c2bb 5884 323c
00000120: d588 c6bc dabd 273d c91c 4ebd 15a5 ad3d
00000130: 678f 25bd 7ec3 bf3c e0b3 88bd 5b21 063d
00000140: d7a8 ca3b 249b e1ba a566 acbd 018d d7bb
00000150: 07cc eb3c 7b2a 803c a70b 9abc 4355 da3d
00000160: 80eb bebc 6ce5 9a3d a5c9 4e3b c8fc c03d
00000170: b170 66bd b09e 9c3c 2b09 0bbe bbd5 ad3b
00000180: 82ec a43b 0754 8c3c 47a1 f43d 7453 bd3b
00000190: f89f 873c c48e 99bd aa9a 593d 0c1c 2bbd
000001a0: 0408 d0bb 90e8 913d f001 5cbd 08e7 4c3d
000001b0: 52a4 b83c ecd7 cebd e8cd 06bd b217 f1bd
000001c0: f95c 0e3d fa59 16bd ff8f cb3c 8165 08bd
000001d0: fefc 60ba 8917 96bc 4a14 123d 6ee2 acbc
000001e0: b2b7 9d3b bbb6 f7bb f8a8 0f3d e354 5f3d
000001f0: 6caa b3bc 51b5 6cbd b365 2d3d 042e c0bc
00000200: e3f0 a5bc fc1b e33c 26d5 5cbc 5783 f63d
00000210: 1d16 d53c 02f2 47bc ecab 6abc 024f 813c
00000220: 10db b9bb bd27 92bc 6159 d23d 7e3a 033b
00000230: b6ee a43d 2a95 5c3c 0d95 033e d938 0f3c
00000240: 2ed3 0e3c dd3f b23d 2220 7d3c 1394 ac3d
00000250: 10db dd3c 3fda aebc 351b 3b3d a3bf afbb
00000260: 2183 93bd 3444 d7bc 6c3c b2b8 8568 ccbd
00000270: c9b6 303c 4d2d 17bd fb8e 52ba 267b 173d
00000280: bffe 373d 7c48 1d3c d755 ad3d 7539 573c
00000290: 18fc 2ebd 5ddb 123d bd43 753c ae13 223b
000002a0: 52c4 cbbc 98c3 1bbe 4c8f 10bd e1c6 68be
000002b0: 32c3 99bd 5eb1 753c 246e b6bd c7f5 73bb
000002c0: 6218 3c3a 0269 523c 0e83 8b3c 463f 97bb
000002d0: 152e 583c cd3a 633c 930b 183d 284b 4f3d
000002e0: 6150 b83c 708f c9bc ea5c 363d d6ed 423c
000002f0: 25e6 69bd e821 4abc 53f3 5bbd 0965 75bd
00000300: 4001 a2bc 980d a8bd 7e2b 6b3d 48b4 25be
00000310: 3c6a fd3c 30ed 783c 091d 173d 680a a83b
00000320: f28a f23b dd2e c53c d87c b73c 2abc 1c3d
00000330: e723 073e 90fa 7abd f152 2b3e 71e3 833c
00000340: a227 75bc f884 dd3c 4135 dabc 2911 c43b
00000350: ed88 de3d 3e17 2c3d 7df0 bb3d 3a2c a43c
00000360: 2f30 19bd bfe5 f2bc dddf c9bc 558e 103d
00000370: 505d eeb9 f9bc 05bb dc26 66bc b0eb cd3b
00000380: 7685 07bd a266 043a cd00 7ebd d83f 43bc
00000390: 95da babd cff3 03bd 9aa3 aabc 5af2 f1bd
000003a0: ef36 7bbc 65fb e9bc bfb1 18bd f51d 1e3d
000003b0: ea09 afbb 648c dfbc bd53 aa3d c0bc 52bd
000003c0: 17ac 07bd 1506 3cbd d49a b2bc f467 ffbc
000003d0: 83fd a23d d80d 7e3d c498 e7bb 3057 933c
000003e0: f509 69bd 0a73 67bd c7eb d5bd b3f3 58bd
000003f0: be51 6b3c 97b1 81bc 1cb2 e0bc b8f8 fe3b
0.023129225 -0.052651607 0.020253645 -0.010118942 0.010303981 0.061207138 0.04040443 0.0315478
-0.05864859 -0.068345234 0.01156831 -0.1791803 -0.031502537 -0.054249898 0.039155357 -0.03386042
-0.05796335 -0.044191167 -0.027216302 -0.102473885 -0.0063875937 -0.02563769 -0.0004896717 0.054042626
-0.08636959 -0.011920425 -0.026811972 -0.06567443 -0.01792306 0.027857099 -0.059518393 0.0482239
-0.05599468 0.059499793 0.00046852315 0.053341016 -0.10806848 -0.041631207 -0.04153022 -0.08138146
-0.0017703064 0.067323245 -0.03447029 -0.0014071087 0.031779505 0.025488734 -0.055927455 -0.02182324
-0.011010435 0.011843163 -0.020832086 0.050800756 -0.020894572 -0.027050048 0.07553915 -0.03176044
0.045416858 0.011232046 0.04444789 0.017181434 -0.005260693 -0.0014732541 -0.010693728 0.032768577
-0.07713536 -0.17712536 0.01762603 -0.28589302 -0.048899695 0.049402602 -0.0059301853 0.010895811
-0.024235168 0.04095254 -0.05032042 0.084787525 -0.040419962 0.023408648 -0.066749334 0.032746654
0.006184678 -0.0017212373 -0.084180154 -0.0065780883 0.028783811 0.015645256 -0.018804384 0.10660794
-0.023305655 0.0756329 0.0031553295 0.09423214 -0.056259815 0.019118637 -0.13577716 0.0053050197
0.0050330767 0.017129911 0.11944824 0.0057777707 0.016555771 -0.074979335 0.053126015 -0.041774794
-0.006348612 0.07124436 -0.053712785 0.050025016 0.022539292 -0.100997776 -0.03291121 -0.11772098
0.034756634 -0.036706902 0.024848936 -0.033299927 -0.00085826206 -0.01832177 0.03566388 -0.021104064
0.004813158 -0.007559625 0.03507325 0.054524314 -0.02193185 -0.057790104 0.042333316 -0.023459442
-0.020256465 0.027723305 -0.013478553 0.1203677 0.026011521 -0.012203695 -0.014323216 0.015784744
-0.0056718662 -0.017841214 0.10270954 0.0020023878 0.08053343 0.013463298 0.12849827 0.008741581
0.008717341 0.08703587 0.015449556 0.084266804 0.027081996 -0.021344302 0.045680244 -0.005363421
-0.07202745 -0.026277639 -8.498956e-05 -0.09980873 0.010785767 -0.036908437 -0.000803217 0.036982678
0.04492068 0.009599801 0.08463638 0.013136257 -0.042720884 0.035853732 0.014969763 0.0024730968
-0.024873886 -0.15211332 -0.03529291 -0.22732116 -0.07507934 0.014995901 -0.089077264 -0.0037225352
0.0007175264 0.012842419 0.017030265 -0.004615697 0.013194581 0.013869 0.037120413 0.050608784
0.022499265 -0.02460453 0.044522204 0.011897525 -0.05710425 -0.012337185 -0.05369885 -0.059910808
-0.019775987 -0.08205718 0.057414524 -0.16182053 0.030934446 0.015193269 0.036892924 0.0051281936
0.0074018175 0.024070198 0.022398397 0.038265385 0.1319729 -0.06127411 0.16730858 0.016099663
-0.0149630625 0.027040944 -0.026636722 0.005983491 0.1086596 0.042014353 0.09176729 0.02004062
-0.037399467 -0.029650567 -0.02464288 0.03529199 -0.0004546442 -0.0020406826 -0.014047351 0.0062841997
-0.033086263 0.0005050694 -0.062012482 -0.011917077 -0.091237225 -0.032214936 -0.020829964 -0.11813803
-0.015332921 -0.028562257 -0.037278887 0.038602788 -0.005341758 -0.027288623 0.08316753 -0.051449537
-0.033123102 -0.045904238 -0.021802343 -0.031177498 0.0795851 0.06202492 -0.0070677716 0.01798591
-0.05689426 -0.056506194 -0.104453616 -0.052966785 0.014362751 -0.015831752 -0.02742868 0.0077811144

layer2.conv.bias f4 [128]
00000000: 81c7 29bd ef5a 633c 4c85 dbbc 5b75 88bd
00000010: 4099 6d3d a258 883d 805a ce3c 671b 52bd
00000020: 1231 723d 1be4 123e 14f0 03be b3e9 2a3d
00000030: 0a27 f1bd 81ce f13c 3e28 903d a6d0 043d
00000040: 0c42 b3bd 0874 4f3d 5b3b 66bd 077e dd3b
00000050: 91df 10be 54d3 a03d 9cf9 903d ffb0 2bbd
00000060: 3723 103e e5e6 263d 585a 95bd 55f9 cfbd
00000070: 0170 8f3c ff7c 453d 6434 cabd 9a80 35bd
00000080: e10c 693d 1b14 ca3c ab15 873d 350c 67bc
00000090: d79b 8f3c 3406 9f3c e39e b53a a2d2 e4bc
000000a0: dc4c 1cbe d85b 003e fb6e db3c 4848 9dbd
000000b0: 4a67 9bbd 2750 0abe 1dbe 3d3d 1b79 863c
000000c0: c49b cbbd 5afd de3c 5571 21be afe1 e03c
000000d0: c44b c93d f1b7 a6bd c65e e8bc e3be 2cbe
000000e0: eda8 c4bd 97cc 39be 4859 aabd 907c 24bd
000000f0: 8bef 913d c516 e8bd d4e6 f83c 814d 41be
00000100: d0d7 1cbd eaaa 3cbb 0444 07be a65d 19be
00000110: e263 343d 049a 90bc 932b bbbc a89d fd3c
00000120: c127 9bbc 2d01 5dbd 8fcb 4e3d fcbd 403d
00000130: 59b4 0b3d 53d3 873c aa51 843c d67a cf3d
00000140: b1dd b73d 4aba c63d e2af 183d 7f88 ce3c
00000150: c412 aabd 701e fcbc 30d2 73bc d890 213c
00000160: db47 01bd 8087 fcbc d39e 093d 9704 163e
00000170: d59c a83d 9066 653d 9f32 79bb e1e7 423e
00000180: 273b 3ebc 2ed5 493d 1fd5 30be 07d4 c73d
00000190: c1b2 fa3c cae1 cbbb 65bc 81bd 10b7 6b3c
000001a0: 864a 473d 3267 87bc e7d9 233d 44f8 47be
000001b0: 00cb 873b ef64 4eba e583 d03c a3b0 ebbc
000001c0: 638a c73d c2f3 82bb f280 053c 9d4e 72be
000001d0: 754c 60be ce4f 1fbd acc2 a43d 7d9d 363d
000001e0: 3080 c63d d60b 433d 0f6e fd3c c886 633d
000001f0: 3df5 613c a335 6fbd 07de ecbc 4cd0 ecbc
-0.041450027 0.013876661 -0.02679696 -0.06663009 0.05800748 0.0665753 0.025189638 -0.051295664
0.05912883 0.14344828 -0.12884551 0.04172678 -0.11775024 0.029517414 0.070389256 0.032425545
-0.08752832 0.050647765 -0.05620895 0.0067594084 -0.14147784 0.07852808 0.07078859 -0.041916844
0.14075933 0.040747542 -0.07292622 -0.10154978 0.017509462 0.04821491 -0.09873274 -0.044312097
0.056897048 0.02466779 0.0659593 -0.0141020315 0.017530365 0.019412138 0.0013856556 -0.027932469
-0.15263695 0.12535036 0.026786318 -0.07679802 -0.0758806 -0.13507138 0.046323884 0.01641517
-0.09941819 0.027220417 -0.15765889 0.027451364 0.09828904 -0.08140553 -0.028365504 -0.16869693
-0.096025325 -0.18144451 -0.0831781 -0.040157855 0.07125767 -0.11332468 0.030383505 -0.18877222
-0.038291752 -0.0028788396 -0.1320954 -0.1497713 0.04404057 -0.017651565 -0.022847926 0.030958965
-0.018939855 -0.0539562 0.050487097 0.047056183 0.03410754 0.01658026 0.016152222 0.10130851
0.08977831 0.097035006 0.03727711 0.02521157 -0.083043605 -0.030776232 -0.014881656 0.009861194
-0.031562667 -0.03082633 0.033598732 0.14650188 0.08233038 0.056006014 -0.0038024557 0.19033767
-0.011610783 0.04927557 -0.17268799 0.09757238 0.030602815 -0.0062219845 -0.063347615 0.014386907
0.048655055 -0.0165287 0.04000273 -0.195283 0.0041440725 -0.00078733166 0.025453517 -0.02877075
0.09743192 -0.0039963434 0.008148419 -0.23662801 -0.21904166 -0.038894467 0.08044943 0.044583786
0.096924186 0.04761871 0.03093627 0.05554846 0.0137913795 -0.05840076 -0.028914465 -0.028907917

layer2.bn.weight f4 [128]
00000000: 3067 5a3f a30c 5b3f 22fd 723f 0f7b 823f
00000010: 6044 563f 545a 5d3f 1448 493f 8f31 593f
00000020: 4fe1 803f 0e20 473f 0256 553f 586e 5a3f
00000030: c1a8 573f 3b0a 533f cdd1 613f fb5e 563f
00000040: d061 4d3f d466 713f e53a 5c3f ecaa 703f
00000050: d70f 633f d8f2 453f d9f7 583f c9fc 553f
00000060: c7ac 983f 6f57 5a3f 1ce0 683f 3fca 3e3f
00000070: 9779 6c3f dcb3 4d3f 0ba1 513f c911 193f
00000080: 8105 343f 411c 583f 42da 5a3f e89a 4c3f
00000090: be07 663f d537 593f fd2f 493f 08e3 563f
000000a0: f6ea 723f 86b5 4f3f b5dc 633f 8d64 5a3f
000000b0: b3a2 6d3f 7f4f 603f 091b 513f 2394 543f
000000c0: 2fb3 6d3f a57a 763f d45d 543f 378b 593f
000000d0: cc22 603f 08cb 4e3f b274 393f 17c2 533f
000000e0: d555 6a3f 1402 613f 8d2d 493f 54dc 443f
000000f0: 690d 373f 8c5e 503f 88c9 4d3f 703c 6b3f
00000100: 0541 743f 594e 4d3f 00b7 5c3f 9923 653f
00000110: 4bb1 343f 885b 713f 3fae 733f 2993 7f3f
00000120: c349 613f 6837 583f 5703 7d3f d256 5b3f
00000130: 76e0 393f 7790 3f3f 432d 783f c8fc 463f
00000140: 0c96 883f 068b 583f 359f 553f f695 653f
00000150: 6160 513f f30d 543f 66f3 663f a9f0 4e3f
00000160: 412a 753f c097 693f db0a 4c3f ae67 593f
00000170: bb0e 653f b75a 5b3f ad00 833f d5fa 523f
00000180: 0691 5a3f b78f 833f ea66 803f eb2c 513f
00000190: e096 5c3f 9cff 553f 23b9 7f3f 2e22 4d3f
000001a0: a1cc 493f 9a27 683f 35a4 783f 3db7 823f
000001b0: ff1a 4f3f 800b 403f 8057 5b3f ba2e 813f
000001c0: cb93 5f3f 5750 6b3f 74cc 8a3f 8a8a 573f
000001d0: a61c 673f 316d 493f 8453 4c3f e196 603f
000001e0: 36fb 553f 764e 4f3f 78b7 6e3f 9128 5c3f
000001f0: 5aad 573f 9773 823f c582 513f 894b 583f
0.853137 0.8556616 0.949175 1.0193805 0.8369808 0.86465955 0.7862561 0.84841245
1.0068759 0.77783287 0.8333436 0.8532462 0.84241873 0.82437485 0.88210756 0.8373868
0.80227375 0.9429753 0.86027366 0.94010806 0.88696045 0.77323675 0.84753186 0.83588845
1.1927727 0.85289663 0.90966964 0.74527353 0.9237303 0.8035257 0.8188636 0.59792763
0.703209 0.8441811 0.85489285 0.7992387 0.89855564 0.8485082 0.7858885 0.8394017
0.9488977 0.8113636 0.8900865 0.8530968 0.92826384 0.876213 0.8168188 0.8303854
0.9285154 0.9628089 0.8295567 0.8497805 0.87553096 0.8077855 0.7244369 0.8271803
0.9153722 0.87893796 0.7858513 0.76898694 0.7150484 0.8139427 0.8038564 0.91889095
0.9541171 0.80197674 0.86216736 0.8950744 0.7058303 0.9428029 0.95187753 0.99833924
0.88003176 0.84459543 0.9883322 0.8567935 0.72608125 0.7482981 0.96944064 0.77729464
1.0670791 0.8458713 0.83446056 0.8968195 0.8178769 0.82833785 0.90215147 0.8083597
0.957676 0.9124718 0.79704064 0.8492383 0.894756 0.85685295 1.0234581 0.8241399
0.8537754 1.0278233 1.0031407 0.81709164 0.86167717 0.83593154 0.9989187 0.8013028
0.78827864 0.9068543 0.9712556 1.021217 0.8090057 0.7501755 0.8568039 1.0092385
0.8733489 0.91919464 1.0843644 0.8419577 0.9027809 0.7868224 0.79814935 0.8773022
0.8358644 0.80979097 0.932487 0.859994 0.8424889 1.0191525 0.81840163 0.8449026

layer2.bn.bias f4 [128]
00000000: 1bde 2b3e d609 173e fea9 e13d 43d2 413e
00000010: 4499 443e a0a3 3d3e 2d5f 03bd ad60 f53d
00000020: f87d 143f 11d7 1a3e 3f96 db3d 1432 dd3d
00000030: 293e 8f3d b2a2 8f3d d097 1d3e fb4c 253d
00000040: e896 233e 3e46 373e 1cd1 023e 7276 1e3e
00000050: c707 b73d cba2 d23d 521a 8f3e 4dce 863e
00000060: 1bab 913e b7b7 273e f52b 0d3e 0232 1f3e
00000070: 451e 2c3e 36ef 443e af01 d43d 8021 3e3e
00000080: ed3e 463e a9dd af3d 8af0 6c3e 8a70 8e3e
00000090: 40f4 123e ecfa 0a3e 34b0 5b3e 7ea1 1fba
000000a0: b63d f83d 86c0 573e ec82 143e 7cf1 983d
000000b0: 60aa 153e f536 653d dc11 223e 9354 ad3e
000000c0: 6477 973d ae02 f83d 6b21 d13c 252f a63d
000000d0: ec5f db3d 9bcc 1f3e 8be2 b53c 2328 3a3d
000000e0: 9665 c53d 5549 013e b575 2a3c 0a4e aabc
000000f0: 3b04 7a3c c3a1 c23d 864a d1bc 730f 2a3d
00000100: 4e6c 183e 7ee9 423e a2ca 323d e43a fb3d
00000110: e944 223e bf65 8b3d 0124 2a3e 11dc 2a3e
00000120: 26b3 273e 4cac d93d 773f 133e d94a f93d
00000130: 7483 663e 2ec6 ed3d a4bb 933d bdb5 7c3d
00000140: bb76 603e 9d11 5a3e b9b3 2c3e a650 c93e
00000150: cf05 f73d 0245 f43d fb36 eb3d 3227 3c3e
00000160: 8b69 0d3e efa7 ec3d 8377 083e 6e08 813e
00000170: fcc3 383e 4bbe 033e b630 973e ebd8 663d
00000180: 3153 783e df0e 0e3e efa4 bb3d 414d 723d
00000190: 2164 393e 08d6 ea3d 151e 0d3f 1c12 873d
000001a0: 8228 353e e464 013e 21b1 113e 71a0 9d3d
000001b0: 40d0 d73d c4a0 1b3d 6cb7 d53d 9ed7 073e
000001c0: dc80 113e 73af 263e db0f 0e3f e524 023d
000001d0: bd86 bf3d 10fe c43d f778 5b3e cdb8 123e
000001e0: 754c 763e eb70 7c3e 4476 0d3e 37c4 3f3e
000001f0: 3c03 753e 964b 213e 3665 103e 2062 653e
0.16783945 0.14749846 0.110187516 0.18927865 0.19199091 0.18519449 -0.03207319 0.1198133
0.58004713 0.15121104 0.107220165 0.10800567 0.06994278 0.070134535 0.15389943 0.040356617
0.15975535 0.17897889 0.12775081 0.15474871 0.0893703 0.102849565 0.27949768 0.2632927
0.28450856 0.16378675 0.137863 0.1554642 0.16808422 0.19231877 0.103518836 0.18567467
0.19359942 0.085872 0.23138633 0.27820235 0.14350986 0.13572282 0.21453935 -0.0006089433
0.121211454 0.21069536 0.14503068 0.074679345 0.14615774 0.055960614 0.15827125 0.33853588
0.07395819 0.12109886 0.02552863 0.08114461 0.10711655 0.15605395 0.02220275 0.045448434
0.096385166 0.1262563 0.01040404 -0.020789165 0.015259798 0.0950351 -0.02554823 0.04151864
0.14885065 0.19034383 0.043650277 0.12267092 0.158466 0.06806516 0.16615297 0.16685511
0.16376933 0.10628566 0.14379679 0.12172479 0.22511083 0.116100654 0.07213524 0.061696757
0.21920292 0.21295781 0.16865434 0.39319342 0.12061655 0.11927225 0.11485096 0.18374327
0.13809793 0.11555468 0.1332684 0.25201744 0.18043512 0.1286556 0.2952935 0.056359213
0.24250485 0.1387286 0.09162318 0.059155706 0.18104602 0.114666045 0.55124027 0.06595251
0.17691234 0.12636143 0.14227726 0.076966174 0.105377674 0.037995115 0.104353756 0.13265845
0.14209312 0.16277866 0.55492944 0.031773467 0.09351871 0.09618771 0.21432863 0.14328308
0.24052604 0.2465245 0.13814646 0.18727194 0.23927015 0.1575149 0.14101109 0.22400713

layer2.bn.running_mean f4 [128]
00000000: 0fec da3e 7803 4b3e 214b bb3c df53 b33d
00000010: d24d fc3e fb20 b63d 6f5d 7c3d 35fc 593e
00000020: 033e 4b3f 184b d33e 31a8 653d 1314 8b3d
00000030: dac8 9f3c e2a5 0f3d b53c 463e 1921 dc3c
00000040: aa05 fc3c a251 013e 9e80 3e3d a7d6 c73d
00000050: 063f 873d e778 f33e 29d5 ad3f e03f 613e
00000060: 99cd 103e eb7d 8b3e e99f e53d 9884 9b3d
00000070: 4f0d 283e 72f4 153f 3261 5b3d 0101 3e3f
00000080: fbf3 b53e f87b 1e3e ec7d 3b3f 5720 2c3f
00000090: 5df9 c63d 78dd 363d 6fec b43e 2daf d03c
000000a0: a1a4 203d 8151 b33e 685e f53d 3671 8e3d
000000b0: c4b4 823d 4002 6f3c ddf5 763e 8e09 243f
000000c0: b9a1 523d f4cd 673d e1cd a83c 119e 703d
000000d0: 7a3e d73d de3c 5b3e 56bc 783d 717f 783d
000000e0: 17a7 cc3d 488e 3e3d 975b 7d3c 6e0d b03c
000000f0: ec3b 683d 7389 473e 0146 663c b258 523c
00000100: acea e53d b4bc 923e 4592 623f 8549 403d
00000110: 900f 333e b87e 273d 0bbf 0b3e d364 fc3d
00000120: e109 2e3e 1b5e 163d 3f0d aa3d dd56 7d3d
00000130: 121b 6e3f f9f3 003f 7a1b bf3c a62c f03c
00000140: 616f 263e 22f5 2e3f c25f 593e d295 fc3e
00000150: 606b 163d babd 2b3e c0a1 993d 8b7f 913f
00000160: 2dcc 673d 1e06 853d 3964 7d3f 9534 003f
00000170: 975b f83e 3c6d 7a3d 29dd ce3e f4c0 b13d
00000180: 28e6 123e ce80 313d 0adf ad3c 5f51 1f3e
00000190: 41ac 1a3e bd86 de3d 3cce 9900 1aa2 833d
000001a0: 23db 913e 5eb6 993d 5fcb b53d 96d8 c13c
000001b0: eedd 8e3d c640 113e f3d6 973d beee 333d
000001c0: 6604 9e3d 5648 773e 69b4 4b3d 56ac dc3c
000001d0: 3be9 373d 6864 853d 5f4f 303f a2d5 183e
000001e0: 6614 943f 5c71 a23e 2bef 503e 6af6 0f3f
000001f0: 10bf 3c3e 63ea a53d b6cf 713e 853c 0b3f
0.42758223 0.19825542 0.022862973 0.087562315 0.49278122 0.08893009 0.061612543 0.21287616
0.793915 0.4126823 0.056068603 0.06790938 0.019504953 0.035070308 0.19359095 0.026871251
0.03076442 0.12628797 0.046509378 0.097577386 0.06603818 0.4755318 1.3580676 0.21997023
0.1414093 0.27244505 0.11212141 0.075936496 0.16411327 0.5857612 0.05355949 0.7422028
0.35537705 0.15476978 0.73239017 0.67236847 0.09715531 0.044644803 0.35336635 0.025474155
0.039219502 0.3502312 0.11980897 0.06955187 0.063821346 0.014587939 0.24117227 0.6407708
0.051423762 0.056592897 0.020605983 0.058744494 0.10509963 0.21409938 0.060726486 0.060668413
0.09992807 0.04652241 0.015463731 0.021490779 0.05669777 0.19486026 0.014054776 0.012838529
0.11226401 0.28659594 0.8850444 0.046945114 0.17486405 0.040892333 0.13647096 0.12323918
0.16995956 0.03671084 0.08303308 0.061850417 0.93010056 0.5037227 0.023328532 0.029318165
0.16253425 0.68342793 0.21227935 0.49333054 0.036723495 0.16771594 0.075015545 1.1367048
0.0565912 0.064953074 0.9898105 0.50080234 0.48507378 0.06113933 0.40403107 0.08679381
0.1434561 0.04333573 0.021224517 0.15558384 0.15104772 0.10865543 1.4124814e-38 0.06427403
0.284875 0.07505487 0.088766806 0.023662847 0.069759235 0.14184865 0.07414045 0.043928854
0.07715683 0.24148688 0.0497326 0.026937645 0.04490016 0.065132916 0.6887111 0.14925244
1.1568725 0.3172711 0.20403735 0.56235373 0.1843226 0.08101346 0.23614392 0.5438922

layer2.bn.running_var f4 [128]
00000000: 4299 563f e43c 9f3e 4e41 e63c b515 143e
00000010: a93c ef3e 67e4 bd3d 7d2d 873d 8372 9c3e
00000020: 6562 5c3f cd2e 273f d0f7 ab3d b2d7 0c3e
00000030: bb4b f73c 3928 d63c 0ac3 a13e 34e3 f43c
00000040: 4c20 2e3d 6828 bd3d f563 953d b4a8 0f3e
00000050: 8dda 0c3e f798 3c3f 326b 3c40 a62a da3d
00000060: 3293 9d3e ddc2 d83e c8ff 763e a2b3 033e
00000070: c848 a03e 556f 0c3f f23b a43d 2c29 0240
00000080: 5a47 5e3f ae19 913e 1c48 db3f 5470 0340
00000090: 1e27 2c3e 605f 6d3d 582f 803f 898e 153d
000000a0: 6889 803d b8e1 263f caac 453e 36e7 d53d
000000b0: 7b8c 0c3e 3b8c a63c 59ba 633e c42e 0c3f
000000c0: e4b9 833d 6c5e e53d 9718 eb3c 21b0 dd3d
000000d0: b0af 373e 7841 dc3e fa6c 873d 74af d73d
000000e0: c6e4 2e3e 23e9 9d3d e807 ca3c 87fa 013d
000000f0: 7731 ac3d 95d8 f33e 9027 8d3c 6dcc 9c3c
00000100: af39 413e a2da 453f 1694 2c3f 4f7b 953d
00000110: 8341 433e d759 573d 31ef 5b3e 7ace 393e
00000120: e96d 483e a04b 723d 9025 c13d 24c2 e23d
00000130: 5452 c13f a4be 0d3f d995 143d bb16 343d
00000140: 3399 ba3e 8913 643f 855c ec3e 793b fe3e
00000150: 0cc9 4b3d a6e5 ec3e 832f 2a3e f430 d43f
00000160: 865d ae3d e238 d93d 86f6 0440 5374 453f
00000170: 6dc0 7c3f 1e46 223e 3678 e13e ce3c e73d
00000180: a89e 853e c94c 873d 840c 1b3d 9e38 273e
00000190: 076b 7d3e 8e74 6f3e c2b7 0100 35cc 073e
000001a0: 26f8 373f bf57 823d 3a1a 1a3e 724f 363d
000001b0: 5957 c03d 22d1 ff3d f691 a93d 0cc0 733d
000001c0: 6d2e 093e 47eb d43e 8480 2e3c eb7a 3a3d
000001d0: bbac a13d 5f62 e43d 49e7 b43f 9551 2f3e
000001e0: f66c 4740 a3ea c13e 6df4 703e 66e0 8b3f
000001f0: ba95 833e a7d2 e33d e6ef d63e 8d84 863f
0.838276 0.31101143 0.028107312 0.14461406 0.46725968 0.0927208 0.06600473 0.30556116
0.8608764 0.6530579 0.08396876 0.13754156 0.030187478 0.026142227 0.31594115 0.029893495
0.04251127 0.092362225 0.07294456 0.14029199 0.13755246 0.73670906 2.9440427 0.10652666
0.30776364 0.4233617 0.2412101 0.12861493 0.31305528 0.5485738 0.08019246 2.033763
0.86827624 0.28339905 1.7131381 2.053731 0.16811797 0.057952285 1.0014448 0.036512885
0.06276208 0.6518817 0.19304195 0.104444906 0.13725464 0.020330539 0.22239055 0.5475886
0.0643194 0.1119965 0.028698249 0.108246095 0.17938113 0.430187 0.066125825 0.10531512
0.17079458 0.07710483 0.024661973 0.031733062 0.08407872 0.47626176 0.017230779 0.019140447
0.18869661 0.7728673 0.6741346 0.0729891 0.1906796 0.052575912 0.21477963 0.18145171
0.19573177 0.059154153 0.094309926 0.11072186 1.510325 0.5536902 0.03627572 0.04396699
0.36445007 0.8909231 0.46164337 0.4965475 0.04975228 0.46268958 0.16619687 1.6577439
0.08513932 0.10606553 2.0775466 0.7713062 0.9873112 0.1584706 0.44037026 0.112908944
0.26097608 0.066064425 0.037853733 0.16330191 0.24747859 0.23384306 1.57755e-40 0.13261493
0.7186302 0.063643925 0.15049067 0.04450936 0.0939166 0.12491061 0.08279793 0.059509322
0.13396616 0.41585752 0.010650758 0.04552738 0.07894274 0.11151575 1.4133083 0.17120965
3.1160254 0.37874326 0.23530741 1.0927856 0.2570017 0.11124163 0.41979903 1.0509201

layer3.conv.weight f4 [256, 128, 2, 2]
00000000: cf7d 423c 3a45 133d b9ac 683d 82e5 033d
00000010: 0556 81bd a395 1b3d 565f 41bd ab00 fb3c
00000020: 300f 12be 029f 20bd dfd3 a8bd 8ca1 99bc
00000030: f231 52bc 34a4 6c3c dcfb e1bd 2040 69bd
00000040: 8132 263b 80b4 47bd 4b5b 92bc 377f 173a
00000050: 9ae5 813d 0bb0 d7bc 42a6 82bb b2a2 c9bc
00000060: cf40 96bd 85ce 87bb 9372 a1bc c891 8dbc
00000070: 248b 78bd 5123 0cbb 26d4 bbbc c2f7 7abd
00000080: fa8a 2bbd f869 0dbe ca36 133c b4e3 133a
00000090: 7aaf 903d 6837 02bd f854 1a3d 5aee bdbc
000000a0: 8cac 2bbd a2c6 98bd 43c4 613b 3411 bb3b
000000b0: 2f04 ee3c b521 e5bd f33c 54bc 91a2 37bc
000000c0: 423b 95bd b1e5 c0bc 9818 f7bb b708 063d
000000d0: e03b ba3c e6cf 473c 086b ff3c c574 1a3c
000000e0: 7929 163d 6f75 6c3d a200 0c3d 8a16 4e3c
000000f0: f38a a03c 8e4b 8f3b 929b 8f3d 7de7 efba
00000100: 0f5b 5bbd 69ed 2dbd 8197 06bd bafe 21bd
00000110: 9a91 68bc d183 34bc c550 99bc e4b6 5f3d
00000120: be17 f9bc ee38 08bd d34d 4f3c 72fa c1bc
00000130: dc38 dc3c 6c56 853d 3643 263d c168 9f3c
00000140: 9f62 21bd 4c78 8ebd cb46 1bbd e542 32bd
00000150: ed77 a73c 6a5f 2bbd 3b2d 5a3c 832c 633d
00000160: ec82 6eba 6bd9 10bd 8572 8a3c 42cc 99bc
00000170: 0919 f03a 6021 bfbc 0d1f 013d 399e 29bc
00000180: 964a 8eba aa1c 193c 133a 3cbc 755a 83bc
00000190: 1481 ab3d 20e8 243d c8fe 453d ccad 7fbc
000001a0: a934 413d 2053 f9ba 127f 86bc 13f4 bfbc
000001b0: c676 f13c 6e50 99bd 3a27 013b 1f4b 8cbc
000001c0: 9a97 24bc d890 ff3c 44da 7f38 fd7a 513c
000001d0: 6e79 3cbd 1b5a 74bd 9357 103b 7586 adbc
000001e0: 10ff 34bd 9731 dfbd f9eb 413d b3e2 0b3b
000001f0: 52e9 aabc 043c 06bd 1693 9dbc cb81 9fbc
00000200: dc8b 0abc 0a42 2fbc 0b35 23bc 370a 4bbd
00000210: 611f 7b3d dc7e 923c 26b9 923c 07ec 34bd
00000220: f294 91bb fcb7 2bbd 790f 043d 28d2 80bc
00000230: 61dc a3bc a2d5 b4bd 7031 09bc 5415 0dbd
00000240: 8735 893c 7c98 27bc dffe 3fbc 0d26 3c3d
00000250: 1289 193d cb16 cabc 3adb 3fbc 6e27 d8bc
00000260: f367 073d 6131 83bc e2b9 873d 2d59 203d
00000270: dc75 9ebd 3734 27bd a863 73bd 4d77 91bd
00000280: a31d a5bb 18de 01bc d900 33bd 3573 8bbd
00000290: 6ec1 7b3d 776d 03bd 83f9 a8bc af0c d7bd
000002a0: 22e7 693d b72e 8f3d a4cc 8a3d 3881 693d
000002b0: 79a4 f8bc 11fc b4bd 560d f6bd f072 96bd
000002c0: e383 96bd f4b2 a1bd e7ee f9bd 8e0d 97bd
000002d0: 2506 6ebd 36e7 c2bd 68ce 873c 3a61 abbb
000002e0: a6ab dfbb 61c3 57bd 6e04 433d f95d ef3c
000002f0: 72f4 b83c 58cb 06bd 4ff6 843d ad55 bd3c
00000300: f394 2e3d 2c9e 85bc 29b4 ccbc 3192 a3bc
00000310: 17d6 6e3d 1dbb 48bc fb75 cebb 4a6e 0abd
00000320: c216 d1bd 79ae d4bd f93f 89bd 0cea f33c
00000330: f4c2 90bb 9b73 5cbc 9ea1 9b3d 44fe 2c3c
00000340: 034c 37bd 5b31 34bd a77f 91bc a31a dabc
00000350: bb3d 6bbd 0746 5dbd 2b52 d53c 2755 e4bc
00000360: 5b8f f83c caf6 ba3d ce8f 97bc 1718 ab3c
00000370: 291d 31bd 18e2 e0bc b562 65bd c0ed 903a
00000380: d9e6 893d f340 523d f466 d83d 6e7d ee3c
00000390: fe95 0dbc 1735 e3bd de1d 03bd a404 f0bb
000003a0: 8cae 04bd bc84 2ebd 8192 3d3d 21f0 823d
000003b0: c87f a23c 5c64 823d 39b5 0a3b 3cfe 303d
000003c0: 7cf5 aebb 1dc3 183d 19ba 2a3d 95a3 993d
000003d0: 042b 41bc 6c98 07bd 4329 99bc 0fc3 c6bc
000003e0: 3a2b 32bd 9a46 e4bd d130 8bbd 75e6 d2bc
000003f0: 4ac9 643d 49b8 87bd 9898 443c f7c8 54bc
0.011870815 0.03595469 0.056805346 0.032201298 -0.06315235 0.0379845 -0.04721006 0.030639967
-0.14263606 -0.03921414 -0.08243536 -0.01875379 -0.012829291 0.014443446 -0.110343665 -0.05694592
0.0025359693 -0.048756123 -0.017865798 0.00057791494 0.06342621 -0.026329061 -0.0039871046 -0.024613712
-0.0733658 -0.004144492 -0.019707954 -0.017281428 -0.06067957 -0.0021383355 -0.022928309 -0.061271437
-0.041880585 -0.13809955 0.008985231 0.00056415354 0.070647195 -0.03179112 0.03767869 -0.023184944
-0.0419126 -0.07459761 0.0034449256 0.005708838 0.02905473 -0.1118807 -0.012953985 -0.011208192
-0.07286693 -0.023547025 -0.0075407736 0.032723155 0.022733629 0.012195563 0.031178966 0.009427254
0.036660645 0.05772918 0.03418029 0.012578616 0.019597506 0.0043730205 0.070120946 -0.0018303242
-0.053553637 -0.04246274 -0.03285933 -0.039549567 -0.01419487 -0.011017756 -0.018715272 0.054617777
-0.030406829 -0.033257417 0.012652832 -0.023678992 0.026882581 0.06510624 0.04059144 0.01945913
-0.039400693 -0.069565386 -0.03790931 -0.043520827 0.020442927 -0.04183904 0.013316448 0.05546237
-0.00090984884 -0.035363596 0.01690031 -0.018774156 0.0018318008 -0.023331344 0.031523753 -0.010352665
-0.0010855969 0.009345213 -0.011488455 -0.016034344 0.08374229 0.040260434 0.04833868 -0.015605401
0.04716936 -0.0019021966 -0.016418014 -0.023431813 0.02947558 -0.07486044 0.0019707219 -0.017125664
-0.01004591 0.031196997 6.1000013e-05 0.01278567 -0.046014242 -0.059656244 0.0022024855 -0.021182278
-0.04418856 -0.108981304 0.04734418 0.002134484 -0.020863209 -0.03277208 -0.019235175 -0.01947107
-0.008456197 -0.010696897 -0.009961377 -0.04957029 0.061309222 0.017882757 0.017910551 -0.044170406
-0.0044428045 -0.041923508 0.03224132 -0.01572521 -0.020002546 -0.0882981 -0.008373603 -0.03444417
0.016749157 -0.010229226 -0.011718481 0.045934726 0.037484236 -0.024669072 -0.0117099825 -0.026385989
0.033058118 -0.016014757 0.06627251 0.039147545 -0.07737324 -0.04082128 -0.05942121 -0.07102833
-0.0050389334 -0.007926486 -0.04370198 -0.06809083 0.061463766 -0.032086816 -0.020626789 -0.10500466
0.05710519 0.06991332 0.06777313 0.057008 -0.030351864 -0.0883714 -0.120142624 -0.07346141
-0.07349374 -0.07895461 -0.1220377 -0.07375632 -0.05811133 -0.09516756 0.016577914 -0.005230096
-0.006825882 -0.052676562 0.047611646 0.029219614 0.022577498 -0.032908767 0.06492292 0.023112142
0.042622518 -0.016310774 -0.02498825 -0.01996717 0.05830964 -0.0122516425 -0.0063006855 -0.033796586
-0.10209419 -0.103848405 -0.06701655 0.029774688 -0.0044177715 -0.013455297 0.075991854 0.0105586685
-0.044750225 -0.04399238 -0.017761065 -0.02662403 -0.057431918 -0.05402186 0.026040157 -0.027872635
0.030341795 0.091291025 -0.018501189 0.02088551 -0.0432407 -0.02745156 -0.056002337 0.0011057183
0.06733484 0.05133147 0.10566512 0.029112544 -0.008641718 -0.110941105 -0.032010905 -0.007324772
-0.032393023 -0.042607054 0.046282295 0.06393457 0.019836321 0.06366798 0.0021165146 0.043211207
-0.0053393226 0.03729545 0.041681383 0.07501904 -0.011790041 -0.033104345 -0.018696433 -0.024262933
-0.043498255 -0.11146279 -0.0679642 -0.025744656 0.055856027 -0.066269465 0.011999272 -0.012987367

layer3.conv.bias f4 [256]
00000000: 2e90 f23c d3d0 b5bb b91d 90bc 6ef2 04bd
00000010: 6a4a 38bd 57bc 04bd 5da6 1dbd 7477 c9bd
00000020: 3c7c 8aba eb81 92bd 551d 80bc f7c9 55bd
00000030: 31f1 9a3d 3416 85bc 2846 fd3d 632e 91be
00000040: 8276 a4bd 1663 2abd e306 003d 47db 0cbb
00000050: 3131 803c 382b 603d 7639 43bd b368 56be
00000060: 8256 02bd 4675 92bd f185 12bc 5d3b ce3c
00000070: 91ed e5bb b1a2 0d3e 18e2 0bbd b645 2ebc
00000080: 5d8c ebba 00af 103c 6880 96bd 2a63 09bb
00000090: 3b2e 753c 6004 7dbd 8050 023d 817d 4bbd
000000a0: b14c bf3c 5f65 96bc 0e58 5bbc 3f10 d5bd
000000b0: cbab 24bb e158 7fbc d7d7 3abe d0b8 09be
000000c0: 8dec 1cbe ff94 14bd 459f 0cbe 90ea ab3d
000000d0: 4e5a a4bd b017 2ebe f4e8 86ba 7573 aabd
000000e0: 7509 34bd 1ade 993d a785 27bc f046 353c
000000f0: 4f4b 7ebd a32b 35bc 0c49 1a3e dfd6 243d
00000100: 4a39 9b3c 9964 bdbd 50b0 c03d fea0 883c
00000110: 8abb d73d 00b8 70bd f516 1d3d 271c 173d
00000120: 034e 50bc a135 283d d179 11be 83e8 17bc
00000130: bf06 32bd a050 5ebd 9841 df3b 46d9 31be
00000140: f42b 85bd 0dcb 89bd 6810 05be f5c6 04bd
00000150: a3f8 eebb 5023 bfbd eea4 a8bc 6829 a0bd
00000160: 8d6d 413d c35f 29bd c74b 2e3c 2cea 43be
00000170: a3c6 d03d 73a3 88bd 6238 6fbd f24e 7a3c
00000180: bc53 3abd acb9 243d 509b 90bd d9c8 613d
00000190: a7e9 24bd fc8f 463d a996 b33d 2c8c 61bd
000001a0: c523 443c 5483 0a3d 071e 77be 2dd8 8a3c
000001b0: e8f1 94bb 6cf7 13bd c8c7 32bc 9c5b 8b3b
000001c0: ac6c c3ba 1416 903c 7062 58bc 61c7 4cbe
000001d0: 9738 623d 122e d6bd 2b0a 00bd 16e8 e1bc
000001e0: 93b4 d9bc 2084 af3c 4795 6b3d c83e fabb
000001f0: a344 13bd c400 49be bc14 e9bd 541f 8f3c
00000200: 6497 49bd 5cbb 1fbd 71df 3fbe 4bc0 c8bd
00000210: 68fd 943c a584 01be c2a2 e6bb 0514 5fbe
00000220: 8359 883c 9860 e4bd fc17 2cbe 4a0e b0bd
00000230: 8417 dd3d 2e54 03bd 8036 063d 8c0d d63a
00000240: 100a d8bb 7b7f cfbc 14e0 0dbe 6430 ea3c
00000250: 6b51 953c 19da 12bd 7ef0 73bd 8f60 f5bb
00000260: fd49 cabd 1797 b6bc 1301 f2bb 602e 843d
00000270: 3e61 48bd 3f20 103d fc94 b7bd 9a5b 9dbd
00000280: a9ac a33d 2ecf 5bbd b1c6 46be d578 03bc
00000290: a665 3cbc 9f79 983c 8415 64bd 5d41 cfbd
000002a0: dd73 95bd f66e cd3d 20b2 cb3d 2e23 143d
000002b0: ad43 e03b 5024 1a3d 8313 3fbe bda3 e2bd
000002c0: b8cb 5fbd cb2f 09be acf3 b33d a2cc 56be
000002d0: ed92 d0bd 0141 3f3d ba3b c33c 324b babc
000002e0: f4cf ebbc f54c 82bd 771b debd 7b59 7fbc
000002f0: 696d 3fbc d1a4 a53c 0981 0f3c 01b4 e6bb
00000300: 1905 20be 7da4 a6bc 397c 44bd c7a5 e63d
00000310: d989 ad3d 32a1 863d 4b15 34bd 9356 ac3c
00000320: b091 bd3b d3a1 9fbd 39ce 9a3c 94cd 1abd
00000330: 1828 973c f94f 40bc 285e 35bd 7835 0e3d
00000340: f351 7d3c 303e ca3d 93fe 3abd 273a a1bd
00000350: 11c3 e4bd f959 2cbd 1064 be3c 904a acbd
00000360: 58ad 88bd c16a b73d 63a4 fc3d 51f6 32bd
00000370: 9b8a 243d c098 d3bd ab4b adbd 9968 253d
00000380: d888 963d b6fe 34bd 2b45 bf3d a587 86bd
00000390: eafe a6bc 29d3 963c 3dc4 703d 8927 2abe
000003a0: cdd8 7a3c cd11 b2bd f5d4 79bd 980d 293d
000003b0: 8114 02be bb69 c1bb a7ca 063d 88d6 603d
000003c0: 09d3 a5bd de79 0e3d c84d 1abd 0064 0abd
000003d0: abe1 503d 1cc6 c43c d1fa 6c3d 1a8d b9bd
000003e0: 4d96 f3bc 9b1a 823d 3ca7 ab3b 34e4 26bd
000003f0: d547 4cbd f229 7a3b a1a0 1dbe 5c0a 05bd
0.029609766 -0.0055485754 -0.017592298 -0.03245776 -0.04499284 -0.032406177 -0.038488735 -0.09837237
-0.0010565589 -0.07153686 -0.015638987 -0.05219456 0.07565535 -0.016245939 0.12366897 -0.28355703
-0.08030416 -0.041598402 0.031256568 -0.0021493004 0.015648456 0.054728717 -0.04766222 -0.20938377
-0.03182078 -0.071512744 -0.008943067 0.025174791 -0.0070168455 0.13831593 -0.034151167 -0.010636738
-0.0017970909 0.008830786 -0.0734871 -0.0020963647 0.0149646355 -0.06177175 0.031815052 -0.049680237
0.023351999 -0.018358884 -0.013387693 -0.10403489 -0.002512681 -0.015585155 -0.18246399 -0.13449407
-0.15324612 -0.036274906 -0.13732632 0.083943486 -0.08025037 -0.17001224 -0.0010292814 -0.08322803
-0.04395433 0.07513066 -0.010224736 0.011064276 -0.06208354 -0.011057767 0.15066928 0.04024398
0.018948216 -0.09247703 0.09408629 0.01667833 0.10533817 -0.058769226 0.03835197 0.036892083
-0.012713912 0.04106677 -0.14206626 -0.009271744 -0.043463465 -0.05427611 0.0068132393 -0.1736804
-0.06502524 -0.06728182 -0.1299454 -0.032416303 -0.0072928234 -0.09332907 -0.020586457 -0.078203976
0.047223616 -0.04135109 0.010638184 -0.19132298 0.10194137 -0.066718005 -0.05840338 0.015277611
-0.04549001 0.040216133 -0.070608735 0.055123184 -0.04026189 0.048477158 0.087689705 -0.05506532
0.011971419 0.03381665 -0.24132548 0.016948784 -0.004545439 -0.03612463 -0.010911889 0.004252864
-0.0014909706 0.017588653 -0.013207063 -0.19997932 0.05522975 -0.10458006 -0.031259697 -0.027576488
-0.026575362 0.021425307 0.05751541 -0.0076368786 -0.03595413 -0.19629198 -0.11380908 0.017470993
-0.049216643 -0.03899704 -0.1873758 -0.09802302 0.01818724 -0.12648256 -0.007038445 -0.2178498
0.016644245 -0.11151236 -0.16806024 -0.085964754 0.10795501 -0.032062702 0.03276682 0.0016330942
-0.0065929964 -0.025329342 -0.1385501 0.028587528 0.0182273 -0.035852525 -0.059555523 -0.0074883173
-0.098773934 -0.022288842 -0.007385382 0.06454158 -0.048920862 0.035187002 -0.089639634 -0.07683487
0.07991917 -0.05366438 -0.19411732 -0.008024414 -0.011498844 0.018612681 -0.05568458 -0.10119889
-0.0729749 0.1003093 0.09946084 0.036166362 0.006844005 0.037632287 -0.18659787 -0.11066387
-0.05463764 -0.13397138 0.08786711 -0.20976499 -0.10184274 0.046692852 0.02383219 -0.022740934
-0.028785683 -0.06362335 -0.10845082 -0.015585299 -0.0116838 0.020220192 0.008758792 -0.007040501
-0.15626945 -0.020342106 -0.04797003 0.11262088 0.08473558 0.06573714 -0.04396562 0.021037376
0.0057851896 -0.077945374 0.018897163 -0.03779371 0.018451735 -0.011737817 -0.044279248 0.03471896
0.015461433 0.098751426 -0.045652937 -0.0787242 -0.111700185 -0.042077992 0.023241073 -0.08412659
-0.06673688 0.089559086 0.12336042 -0.043691937 0.040171247 -0.10331869 -0.08461698 0.040382955
0.073503196 -0.044188224 0.093393646 -0.06568841 -0.020385224 0.018411236 0.058780897 -0.16616644
0.015310478 -0.086948015 -0.060994107 0.04127273 -0.12703134 -0.0059024966 0.032908108 0.054892093
-0.080968924 0.03478419 -0.037671834 -0.033786774 0.050996464 0.024020247 0.057856385 -0.09060116
-0.029734755 0.06352731 0.0052384418 -0.040744975 -0.049873192 0.0038171974 -0.15393306 -0.032480583
