modele/simple-base.pth (torch, 721577 bytes, 20 tensors)

layer1.conv.weight f4 [64, 1, 2, 2]
000000 74 d2 c2 bd 05 d8 9a be 90 f1 ae 3e c0 7e 98 3d
       -0.09512797 -0.30242935 0.34168673 0.07446051
000010 c4 d0 38 3e ff 77 c1 be ae a4 5e 3d 36 c2 8c be
       0.18048388 -0.37786862 0.05435627 -0.2749192
000020 ca be d1 bc 3d df 0b 3e b0 0c af 3e e9 4d b3 be
       -0.02560367 0.13659377 0.34189367 -0.35020378
000030 5f be 51 be bf 1d e4 3e 40 f2 75 be 74 2f d5 3e
       -0.20482777 0.44553944 -0.24018192 0.41637766
000040 73 c5 d5 be 3a cc 71 be 84 76 85 be d0 b0 fb 3e
       -0.41752204 -0.23613063 -0.26066983 0.49158335
000050 f9 28 55 3e f8 1f 6f be 65 e2 a7 3d bc b6 bd be
       0.20816411 -0.23352039 0.08197478 -0.37053478
000060 da 4e 42 be 2d 0c cf bd c3 6f 8c 3e 01 ec a8 bd
       -0.18975392 -0.10109744 0.27429017 -0.08248139
000070 f4 ef 67 be 15 fb 93 be ef 4c c9 3e 70 ef 1c be
       -0.22650129 -0.28902498 0.39316508 -0.15325713
000080 be 1d b2 3d f6 22 ab 3e 98 8b 90 be 6a b9 24 be
       0.08697079 0.3342511 -0.28231502 -0.16086355
000090 16 ac eb 3e 56 8e e6 3d 7f 03 14 3d 04 ce 7c be
       0.4602973 0.11257617 0.036136147 -0.24687964
0000a0 51 5d a7 be 4d 23 bb 3e 1b dc 8b be 3c 5d 48 3d
       -0.32688382 0.3655037 -0.27316365 0.04891704
0000b0 38 d0 b4 bd ba 3d f9 be c0 23 0b 3e 24 4f 82 bc
       -0.08828777 -0.48679906 0.13587856 -0.015906878
0000c0 80 ba 26 3e 46 f9 24 be 4c 08 23 be ea 0f 07 3f
       0.16282082 -0.16110715 -0.15921134 0.5275866
0000d0 18 51 ed 3e 5c 59 b1 be a2 dc 52 3e eb bc 1c 3c
       0.46350932 -0.34638488 0.20591977 0.009566526
0000e0 65 64 bb be 21 41 b7 3e cf 14 a0 be e4 58 a7 3e
       -0.36600032 0.35791877 -0.31265876 0.32685006
0000f0 32 26 bb be be 4a c0 be 9e b5 bc be ad 8c cb 3e
       -0.36552578 -0.37557024 -0.36857313 0.39755765
000100 e1 1e bc be bd 9d b7 3e 95 7c 11 be 6a ca 1e be
       -0.3674231 0.35862532 -0.1420768 -0.15506902
000110 32 3d a8 3e 6f 1e b9 3d 2e f0 d0 be 5f bd 9b 3e
       0.32859188 0.09039008 -0.40808243 0.30417916
000120 e9 0b a9 3e cf dd a9 be 5c b7 90 3e 78 49 89 be
       0.330169 -0.3317704 0.28264892 -0.26813865
000130 63 e8 a5 bb 8e b4 b0 bb a1 02 bc 3e c4 e7 1b 3e
       -0.005063103 -0.0053926175 0.36720756 0.1522513
000140 49 5f ba be 6c e5 3b be e2 82 18 3e a8 5e d2 3e
       -0.36400822 -0.18349236 0.14893678 0.41087842
000150 e2 10 83 be 18 6f e5 3e 7e ab d9 be 80 1b 8d be
       -0.25598818 0.4481132 -0.4251365 -0.27560043
000160 37 b9 9b bd 69 98 2d be c0 c5 10 3e 82 39 f5 3d
       -0.07603686 -0.16952671 0.14137936 0.11973859
000170 d0 54 51 3e 4a b5 04 bf 7d 2a f9 3e be f9 7c 3e
       0.2044251 -0.51839125 0.48665228 0.24704644
000180 44 76 f1 bd 72 95 9b be ab c7 59 3e 43 87 91 3e
       -0.117901355 -0.30387455 0.21267574 0.2842351
000190 e7 d9 5e be f2 be 6e be 53 a2 73 3e 25 e3 86 be
       -0.2176281 -0.23315027 0.2379239 -0.26345173
0001a0 41 dd bd 3e 82 83 fe bc 95 da f6 3c b9 5e c1 be
       0.37082866 -0.031068567 0.030133525 -0.3776758
0001b0 39 49 9a bd c0 5d d5 3e f3 3e fd be 80 75 1b 3e
       -0.07533497 0.41673088 -0.4946209 0.15181541
0001c0 00 33 c0 3b 01 65 65 3e 79 4f 29 be 2e 00 db 3d
       0.0058654547 0.22401811 -0.16534223 0.10693394
0001d0 a6 c8 ad 3e e6 7a b2 be 5e 66 ad be be 4b 2f 3e
       0.33942145 -0.3485939 -0.33867162 0.17118737
0001e0 e8 68 87 3e f7 09 15 be 42 40 22 be d0 05 46 bc
       0.26447225 -0.14554583 -0.15844825 -0.012086347
0001f0 8b e9 c5 3d 8a 7a a4 3d 71 e2 b0 3e f4 c1 7d be
       0.096636854 0.08031185 0.3454776 -0.24781018
000200 05 ba 34 3e 2a be 4f bb b4 00 89 3e ff 4f 85 bd
       0.17649086 -0.003169904 0.2675835 -0.06509399
000210 63 bd b0 3e 02 1d b5 3e 11 a5 26 3e 42 d6 81 3d
       0.3451949 0.35373694 0.16273905 0.063396946
000220 79 be 97 3d 8d ae 22 3e 37 85 2c be ec 1d 73 be
       0.07409377 0.15886898 -0.16847692 -0.23741883
000230 e9 34 53 be 4c 6a 5c 3d a6 0e f3 bc 62 35 4e 3e
       -0.20625652 0.05381231 -0.02967007 0.20137551
000240 e0 f5 b6 bd 95 3b 29 be 3a c4 a8 3e 83 f4 15 be
       -0.08933616 -0.16526635 0.3296221 -0.14644055
000250 e8 71 2c be 9a 4e 0d bd 65 a4 0d be a1 c2 4d 3c
       -0.16840327 -0.03449879 -0.13832243 0.01255861
000260 94 00 71 3e c2 c2 9b 3d 2f 42 b0 bd df 7e 5b be
       0.23535377 0.076055065 -0.086063735 -0.21435116
000270 44 63 4f 3d 72 83 ce bd f4 b9 34 3e 46 46 0c be
       0.050631776 -0.10083665 0.1764906 -0.13698682
000280 46 8a b1 be cb 27 56 bd ea 9d 19 3e 8e 97 ec 3e
       -0.34675807 -0.052284043 0.15001646 0.46209377
000290 e1 be 5d bc 54 0b 76 3e bb b8 82 3c dd 0c e5 bc
       -0.013534279 0.24027759 0.015957227 -0.027960235
0002a0 dd 5f c0 be ea 3c a6 3e d6 45 b7 3e 65 47 bf be
       -0.37573138 0.3246835 0.35795468 -0.37359157
0002b0 6d 68 49 3e 94 0a 1a 3e 66 d4 ee bc d6 57 77 3e
       0.19668742 0.15043098 -0.029154014 0.241546
0002c0 be ec f6 be 3b 99 93 be 23 39 83 3e 9c 3b 62 3d
       -0.48227495 -0.28827843 0.2562953 0.05523263
0002d0 33 82 ca 3e 22 2b 72 3e 83 d5 a6 be d7 0e 94 be
       0.3955246 0.23649266 -0.32584772 -0.28917572
0002e0 cc 66 37 be 68 bd a2 3e 02 fb 8d 3e 02 25 1e be
       -0.17910308 0.3178513 0.27730566 -0.15443805
0002f0 04 17 9a be c8 82 b0 3d 2c db c6 bd e7 2a 92 be
       -0.30095685 0.086186945 -0.097097725 -0.28548357
000300 4c 89 52 3d e0 5b f7 bd ae 92 9e 3e 16 27 88 3d
       0.051400468 -0.12078071 0.30971283 0.0664808
000310 da 95 e5 3d 93 31 89 3e 8d 8f 40 be 1b b8 a8 3c
       0.112102225 0.26795635 -0.1880476 0.0205956
000320 e9 da d8 3e 96 8b 6a be fa 5d 4f be 31 95 8f 3e
       0.42354515 -0.2290481 -0.20250693 0.28043512
000330 23 50 36 be d0 46 32 3e 5e 35 31 3e 0c 88 77 be
       -0.17804007 0.17409825 0.17305514 -0.24172992
000340 d6 a8 32 bd a6 bb e6 3d 81 ba ce be 26 d7 a6 3e
       -0.043618046 0.1126626 -0.40376666 0.3258602
000350 e9 64 19 3d a4 54 88 3e de cc 4f 3d 3e b2 75 3e
       0.03744975 0.26627076 0.050732486 0.23993775
000360 ec dd 9b be 2f 09 e3 3e 34 c5 3b 3e 09 87 b6 3d
       -0.3044275 0.44342944 0.18336946 0.08912475
000370 b5 2f f7 3c fd 56 ac bd 2d ab 2d bc 86 7e 3f 3d
       0.030174116 -0.08415029 -0.0105998935 0.04675152
000380 6a 43 91 3e c4 71 b1 be 9a 30 26 bd fc 60 98 3e
       0.28371745 -0.3465711 -0.040573694 0.29761493
000390 39 f9 67 3e 5a 49 45 be de 2d 99 bc 1e aa 89 3e
       0.22653665 -0.19266263 -0.018698629 0.26887602
0003a0 ac 35 db 3e 61 26 cc bd 21 67 e4 bc 5a fe d8 3c
       0.42814386 -0.09968258 -0.027881207 0.026488472
0003b0 b2 7e b1 3d 25 12 96 3e 15 ec c4 be df 32 5a be
       0.08666743 0.29310718 -0.38461366 -0.21308468
0003c0 b7 32 c4 be 85 5a 34 3e 6b 82 9a 3e bf f2 a3 3e
       -0.38319942 0.17612655 0.30177626 0.32021138
0003d0 5f 76 81 be b6 21 17 be 94 88 1f 3e 0e 66 a9 be
       -0.25285622 -0.14758953 0.15579444 -0.33085674
0003e0 2f b7 f4 bb 1b f9 b6 3e 2c 82 9a bb 79 3a 32 3e
       -0.0074681262 0.35736927 -0.0047152247 0.17405118
0003f0 d6 43 38 3e 13 75 83 bd 84 a5 fb bc ed 58 9c be
       0.17994627 -0.064188145 -0.030718572 -0.30536595

layer1.conv.bias f4 [64]
000000 66 89 a3 3c 51 a6 03 bf 68 c8 85 3e 4d 0c db be
       0.019962978 -0.51425654 0.2612946 -0.42782822
000010 54 23 c8 be b2 dd 94 be 82 7f 73 3e ab 1c 54 3d
       -0.39089453 -0.2907539 0.23779109 0.051785152
000020 9e f9 96 3e f2 00 af be d9 eb 18 be d3 4f d5 be
       0.29487318 -0.3418041 -0.14933719 -0.41662464
000030 60 53 cc 3e 6c 7a 9e be 14 ae 82 3d 7b 1f 1f bf
       0.3990736 -0.30952775 0.06380859 -0.6215741
000040 92 ea 8c be cb 40 83 be 9c c5 f4 3c fa 95 f2 be
       -0.27522713 -0.2563537 0.029879384 -0.47380048
000050 23 18 e6 3d 60 da dd be 2e 25 01 3e 2a d0 ab be
       0.112350725 -0.4333067 0.12611839 -0.33557254
000060 11 e2 a4 bd 76 43 21 be 13 78 cd 3d ab 56 9b 3c
       -0.08050931 -0.1574839 0.10032668 0.018962225
000070 39 9f 80 3e fd 77 a2 bd 93 27 5f 3e a7 4d 92 3e
       0.25121477 -0.07933042 0.2179244 0.2857487
000080 94 e1 b5 be 8f a0 01 bf 6c 00 18 be 8e 5a 31 3d
       -0.35523665 -0.5063562 -0.14843911 0.04329925
000090 5e 3e 74 bd be f0 b8 be a8 04 3a 3e 25 03 10 bd
       -0.05962979 -0.36121172 0.18165839 -0.03515925
0000a0 81 53 5c be 7e a1 78 3e d3 64 8f be 5f 79 30 bd
       -0.21516229 0.24280354 -0.2800661 -0.0430845
0000b0 8f d5 d1 be bc b2 5c 3d a9 1c 4e be 81 ef ee be
       -0.40983245 0.053881392 -0.2012812 -0.46667102
0000c0 c5 f9 ae 3e 59 37 42 be 38 84 95 3d 15 17 2f ba
       0.34174934 -0.18966426 0.07300609 -0.00066791597
0000d0 5c 80 1c 3d 47 f6 98 be 7e e7 b2 be 36 08 33 be
       0.03820835 -0.29875395 -0.3494224 -0.17483601
0000e0 0d e4 ff bd 27 ef 7a be f0 a5 91 bd 2e e1 3d be
       -0.12494669 -0.24505292 -0.07111728 -0.1854293
0000f0 8c 2f b7 be 64 ce fe be 6e 3b f8 be ab 38 d8 3d
       -0.35778463 -0.4976684 -0.4848284 0.105576836

layer1.bn.weight f4 [64]
000000 17 f6 54 3f 47 80 5a 3f 72 8d 10 3f 4c 49 5f 3f
       0.83188003 0.85351986 0.5646583 0.8722122
000010 94 02 7a 3f e9 7b 49 3f 40 10 2b 3f b5 ca 1b 3f
       0.97660184 0.78704697 0.6682167 0.6085618
000020 8b 93 3e 3f f8 99 63 3f b5 95 59 3f 39 e8 70 3f
       0.7444388 0.8890681 0.8499406 0.94104344
000030 a6 7d 58 3f aa e9 30 3f 1f 07 74 3f f8 1e 44 3f
       0.84566724 0.69106543 0.95323366 0.76609755
000040 59 53 36 3f 43 6b 34 3f d9 20 74 3f e0 92 67 3f
       0.7122093 0.7047617 0.9536262 0.9045849
000050 02 58 7a 3f 14 25 54 3f a1 85 5d 3f 8c 56 39 3f
       0.9779054 0.82869077 0.86532027 0.72397685
000060 a7 2c 4a 3f 6d 20 25 3f 80 e7 54 3f 51 47 73 3f
       0.78974384 0.645026 0.8316574 0.95030695
000070 c8 d3 43 3f 2a 92 41 3f fc a2 54 3f 9e 1e 0e 3f
       0.7649503 0.75613654 0.83061194 0.5551547
000080 ff 70 1f 3f 94 6c 10 3f a1 7b 3e 3f eb 14 7c 3f
       0.62281793 0.5641568 0.7440739 0.9846942
000090 48 59 43 3f 91 18 c4 3e 19 58 55 3f cc b0 50 3f
       0.7630811 0.38299993 0.8333755 0.8151977
0000a0 29 e7 49 3f c2 ba 18 3f bd 7b e0 3e aa 91 83 3e
       0.7886835 0.5965997 0.43844405 0.2569707
0000b0 32 3a 78 3f da 71 5a 3f 50 76 26 3f 28 7c 4c 3f
       0.969638 0.85329974 0.6502428 0.7987695
0000c0 45 b5 50 3f e2 64 3e 3f a7 5c e5 3e 4a 64 dd 3e
       0.81526595 0.74372685 0.4479725 0.43240577
0000d0 34 7e 5c 3f 58 70 b8 3e 9b 61 1e 3f 8e e9 e3 34
       0.8613007 0.3602321 0.61867684 4.2451978e-07
0000e0 41 7a 1c 3f 48 d6 0b 3f 19 b9 f6 3e 25 19 49 3f
       0.61124045 0.5462384 0.48188093 0.7855399
0000f0 f2 c0 25 3f d0 3a 43 3f 70 7d 54 3f 40 2e 06 3f
       0.64747536 0.76261616 0.830039 0.5241432

layer1.bn.bias f4 [64]
000000 ff d7 a8 3e da 6b 0b 3e c8 5a cc 3d 44 07 02 3e
       0.32977292 0.13615361 0.09978253 0.12698084
000010 41 ee c5 3e c3 dd ab 3e 86 8c 88 3e 3a 9a dc 3e
       0.38658336 0.33567628 0.2666971 0.43086416
000020 e0 5e dc 3d 4b c0 1b 3e 31 ce 8b 3e 5e 88 b5 3e
       0.107602835 0.15210073 0.2730575 0.35455602
000030 a2 ce 03 3f 8e cf d0 3d 60 07 b2 3e 14 e4 13 3f
       0.5148717 0.10195838 0.34771252 0.57769895
000040 4f e4 73 3e f9 cb 84 3d eb e0 bf 3e 2d bd e1 3d
       0.23817562 0.06484217 0.37476286 0.110224105
000050 3a 49 b8 3e 3e fd d3 3e 81 07 49 3e 11 da 17 3e
       0.35993367 0.41404146 0.19631769 0.1482928
000060 19 83 4e 3e df ce 4c 3f c4 cb 90 3e fe 11 c3 3e
       0.20167197 0.8000316 0.2828046 0.38099664
000070 d8 3f d1 3e 48 1d fa 3e 46 e2 64 3e e6 af a4 3e
       0.4086902 0.48850465 0.22351941 0.3216545
000080 37 3b 76 3d 50 61 63 3d 54 83 2c 3e 8a bf d3 3e
       0.060115065 0.055512726 0.16846973 0.4135707
000090 7b bf 80 3e 25 3d 0d 3f 50 55 1a 3e ef 2b 81 3e
       0.25146088 0.55171424 0.15071607 0.2522883
0000a0 b1 96 55 3e 9f 3c da 3e b0 81 6c bc 78 53 34 3d
       0.20858265 0.42624375 -0.014435217 0.044024915
0000b0 6b 30 57 3e a5 fb 97 3e ea 72 86 3d 9c bc 51 3f
       0.21014564 0.29684177 0.06564887 0.8192842
0000c0 4a 41 fa 3e 9f 03 20 3e a8 40 c9 3d 53 de 28 bc
       0.48877937 0.15626381 0.09826785 -0.0103069125
0000d0 a4 8d a4 3e 66 7d 04 3d f9 5f 94 3d 14 8d c4 b7
       0.32139313 0.03234615 0.07244868 -2.3430715e-05
0000e0 91 5a a0 3d 77 8e ad bc 28 ad ed 3d b7 45 4e 3e
       0.07829774 -0.021186097 0.116052926 0.20143782
0000f0 65 35 e0 3d 67 bb 38 3f ce 2e c4 3d 9b ab 9f 3e
       0.10947684 0.72160953 0.0957924 0.31185612

layer1.bn.running_mean f4 [64]
000000 7b 26 6b 3d 10 51 e1 3b 9f 5a 54 3e 58 5b 5a 3c
       0.057409745 0.0068761185 0.20737694 0.013327442
000010 83 ca 47 3d e7 bb 18 3d de 1a 99 3e 40 56 86 3e
       0.048777115 0.037288573 0.2990331 0.2623768
000020 3a f7 a4 3e e4 d4 3b 3c 36 67 62 3d ae cc 12 3d
       0.3221987 0.011464331 0.05527421 0.03583973
000030 94 23 33 3e 77 62 4f 3c 3c eb f2 3d 29 2d 86 3d
       0.1749404 0.012657753 0.11861274 0.06551582
000040 34 60 f7 3c 1d 28 13 3c 75 e9 ac 3d 59 a5 93 3a
       0.03019724 0.008981732 0.08442966 0.0011264487
000050 58 c3 18 3e ac ed 8c 3d ef bd 02 3e 45 96 a3 3c
       0.14918268 0.0688127 0.12767766 0.019969115
000060 71 16 fc 3c a4 c1 64 3e 1c 01 17 3e 3f 2d b0 3d
       0.03077242 0.22339493 0.14746517 0.0860238
000070 a6 58 1b 3e f6 74 8e 3d 98 57 7a 3e 57 48 08 3e
       0.15170535 0.06955902 0.24447477 0.13308845
000080 62 3c 0f 3b 35 b3 d3 3c db 95 0c 3d 15 be 6c 3d
       0.002185606 0.025842289 0.0343226 0.057798464
000090 80 e3 10 3d 04 00 00 00 d9 b9 3e 3e cd ff 9a 3c
       0.03537321 6e-45 0.18625583 0.018920803
0000a0 e8 97 e6 3c 61 4f e7 3d a8 49 12 3b 91 bb 46 3d
       0.028148606 0.11294437 0.0022321735 0.04851872
0000b0 a5 01 3f 3d a2 45 c4 3d 18 7f e5 3b c7 58 9c 3d
       0.046632428 0.09583594 0.007003676 0.076341204
0000c0 46 b8 26 3e c8 9d dd 3b 03 94 3d 3d e0 79 75 3d
       0.16281232 0.0067631938 0.046283733 0.059930682
0000d0 47 ba a0 3d 96 cb a2 3c 84 0f 14 3c 04 00 00 00
       0.078480296 0.019872468 0.009036902 6e-45
0000e0 da e3 21 3c a3 b1 28 3b 7f 32 fe 3c 9f cc 4b 3d
       0.009880984 0.0025740645 0.031029938 0.04975569
0000f0 08 22 63 3c a1 6e 3e 3d 1e 40 4f 3a 51 c9 84 3e
       0.013863094 0.046492223 0.00079059775 0.25934842

layer1.bn.running_var f4 [64]
000000 39 ba 7d 3c b1 fc 6f 3a f8 0f 96 3c c7 96 8d 3b
       0.0154862935 0.00091547804 0.018318161 0.0043209526
000010 fe 39 1f 3c 66 17 ae 3b 8b 41 69 3c 16 56 e2 3c
       0.009718416 0.005312848 0.014236818 0.02762894
000020 14 4e d9 3c 80 1f 17 3b c2 a4 40 3c 70 e4 b0 3a
       0.026526488 0.0023059547 0.011758031 0.0013495814
000030 ff 7e 80 3d 08 fa 57 3b 65 f9 1e 3d eb 68 77 3b
       0.062742226 0.0032955427 0.03881206 0.0037751745
000040 4f d8 50 3b 8d a6 fc 3a 27 e1 f3 3c 98 99 fd 37
       0.0031867211 0.001927571 0.029770447 3.0231473e-05
000050 5f 69 02 3d fe c7 cf 3b e6 77 e8 3b b3 64 e4 3b
       0.03183877 0.0063409796 0.007094371 0.006970012
000060 91 91 18 3c d0 67 a9 3c 79 d1 d4 3c 98 56 fb 3c
       0.0093120495 0.020679384 0.02597879 0.03068094
000070 dc dd af 3c 9f 60 61 3b 69 b5 0e 3c 94 d5 29 3d
       0.021468095 0.0034389866 0.008710244 0.04146345
000080 80 bc ef 38 48 04 f6 3b 35 0c 56 3b ff bc 06 3c
       0.00011431519 0.0075078346 0.0032661085 0.008223771
000090 80 2a c5 3b 04 00 00 00 62 76 6e 3c 29 96 4a 3b
       0.0060170293 6e-45 0.014554592 0.0030912256
0000a0 c3 c9 05 3c ea ff ac 3c 56 fc dd 39 5b 91 89 3c
       0.0081657795 0.021118123 0.0004234041 0.016792944
0000b0 04 52 b7 3b 4f 4b 00 3d 3e 1c 54 3a 43 76 86 3b
       0.005594494 0.03132182 0.00080913666 0.0041034534
0000c0 e0 1f 3b 3d 32 13 7f 3a 19 6f 42 3c 1d 70 e7 3a
       0.045684695 0.00097303384 0.011867308 0.0017657314
0000d0 1e 0b 89 3c c7 f5 83 3b c7 a9 d7 3a 04 00 00 00
       0.016728934 0.0040271017 0.0016453796 6e-45
0000e0 13 22 e6 3a ec 05 83 39 bc 97 d3 3b be d3 13 3c
       0.0017557762 0.0002499068 0.006457297 0.009022651
0000f0 d6 ba 64 3b 04 b8 d9 3a 2d 21 97 37 30 3e ba 3c
       0.0034901402 0.0016610627 1.8016051e-05 0.022734731

layer2.conv.weight f4 [128, 64, 2, 2]
000000 be 5a a8 bd 26 aa f5 bd 43 12 09 3e f0 58 2f 3d
       -0.08220433 -0.11995344 0.13385873 0.042809427
000010 7f ac 07 3d 80 4e cc 3d 1d 4b a0 3c 9b dc 38 3d
       0.03312349 0.0997591 0.019567067 0.04513226
000020 4f b9 01 bd be 92 6d 3b c4 1c 80 bc ac ed db bd
       -0.031670865 0.0036250795 -0.015638717 -0.10738692
000030 96 2c 9a 3d 7c 44 28 3d b2 f3 fe ba 8f 87 60 bc
       0.07528035 0.041080937 -0.0019451289 -0.013704195
000040 ce e7 97 bd 95 c0 be bc 69 ad d9 bb fc 18 2c 3d
       -0.0741726 -0.02328519 -0.0066429866 0.042016014
000050 03 ee b9 3d 0a 32 92 3c 3e 97 c3 bd 10 c7 41 bb
       0.090786 0.017846126 -0.095503315 -0.0029568113
000060 15 dd 13 be 67 07 ab bd 96 87 02 3e 05 10 66 bc
       -0.14439805 -0.08351021 0.12747034 -0.014041905
000070 45 6c 0c be 88 06 a1 bd c2 16 f7 3d 37 a5 26 3d
       -0.13713177 -0.07862574 0.120648876 0.040684905
000080 16 b7 32 3d 4e 31 c3 3c 84 43 11 be 15 d0 cf bd
       0.043631636 0.023827221 -0.14185911 -0.101471104
000090 9b 4e 53 bc 92 29 90 3c 35 fc 98 bd 71 c4 83 bd
       -0.012897159 0.017597947 -0.0746998 -0.064339526
0000a0 65 18 62 bc 8c 6e 8f 3d ab 53 19 bd e0 c1 27 3c
       -0.013799761 0.07003507 -0.037433308 0.0102390945
0000b0 05 14 20 be cd 04 02 3d 15 b6 00 3e cd 96 b4 3b
       -0.15632637 0.03174286 0.12569459 0.005511141
0000c0 ba ad 66 3d 7e a2 d5 3c 0f 8a 4e 3c 56 a9 6f 3d
       0.056318022 0.026078459 0.012606158 0.0585111
0000d0 34 52 a8 3c a3 e2 aa 3d 45 ae d5 3b 55 de 09 3c
       0.02054701 0.08344009 0.0065210187 0.0084148245
0000e0 90 3d 17 3b e2 52 80 3d 93 11 7a 3b 4e c8 97 3d
       0.0023077466 0.06265809 0.0038157448 0.07411252
0000f0 23 11 ed bd aa 69 8a bd 19 78 b1 bc 2f 6d 34 3d
       -0.11575534 -0.06758435 -0.021663712 0.044049438
000100 de 9a 72 3c ca ee 8d 3c 08 c2 d7 bc 1c 8b a8 3d
       0.014807431 0.017325778 -0.026337638 0.08229658
000110 06 c4 20 3c 1e 13 69 3c 13 7f db bd 44 ad 77 bd
       0.009812361 0.014225749 -0.10717597 -0.060467973
000120 91 08 63 3d 2c ee 8f 3c 90 79 57 bd a7 a7 0a bd
       0.05542809 0.017569624 -0.052606165 -0.033851292
000130 a6 fc d2 bd 6b ee 96 bd f9 48 95 3d db 9b d1 3c
       -0.10302095 -0.07369693 0.07289309 0.025587013
000140 9f f6 12 be a8 d5 dd bd b1 ff 15 3e e6 56 de 3d
       -0.14351891 -0.10831767 0.1464832 0.10856418
000150 c1 e9 0e bd 37 d4 a5 bc 16 41 82 bd 27 b3 95 bd
       -0.034890894 -0.020242793 -0.063600704 -0.07309561
000160 69 33 30 be ac 5d 4b be 16 75 4d 3e a0 b6 ea 3d
       -0.17207111 -0.19859952 0.20064196 0.11460614
000170 02 0a 1c 3d 38 45 94 3b 99 c1 a5 bd b9 a9 3f bd
       0.03809548 0.004524853 -0.080935664 -0.04679272
000180 aa 9c 9f 3d 25 90 cd bd 31 7e 26 3b e4 52 31 bd
       0.07793553 -0.10037259 0.0025404806 -0.04329194
000190 4a da dd bd 6e 8c c1 bd 96 bf fe bc 29 5f 0c bd
       -0.10832651 -0.09450613 -0.031097215 -0.03427044
0001a0 f8 7d 01 3e 46 58 02 3d 8a 47 cb bd 44 a9 ad bd
       0.1264571 0.031822465 -0.09925754 -0.084795505
0001b0 f9 f4 92 3d 17 58 11 3d ac 1f c3 bd 8e 12 17 bd
       0.07175631 0.0354844 -0.09527525 -0.03688293
0001c0 a1 9a d2 3d 4a f3 b7 3d 9e 7e a8 bc 57 6e d5 3c
       0.102833994 0.089819506 -0.020568188 0.02605359
0001d0 cc f1 2e 3b e1 98 93 bd 05 2b ef bd 09 1e 92 bd
       0.0026694415 -0.07206894 -0.11678127 -0.07134635
0001e0 79 ad ab 3d 85 8d e5 bb ae e3 3c be 65 63 57 bd
       0.08382697 -0.007005396 -0.18446228 -0.052585024
0001f0 7e 88 17 3d 78 00 20 3d ce 16 71 3d ee 8d f0 bd
       0.036995403 0.039062947 0.05885964 -0.11745821
000200 f7 19 b6 bc 24 ee d0 3b 08 1e 4f bb 53 49 2b bd
       -0.022229178 0.006376045 -0.0031603593 -0.041817974
000210 f0 8a cb 3c 57 33 01 3d 12 40 bd bd ae 24 06 bd
       0.024846524 0.031543102 -0.09240736 -0.032749824
000220 58 2f a4 bd aa 4a 92 bd 5a 68 4e bc 25 1b 4d bd
       -0.080168426 -0.07143147 -0.012598122 -0.050074715
000230 65 3a 29 bd 84 ca 0e 3c 5c fb 9f 3d 67 38 06 3e
       -0.041315455 0.008715276 0.07811615 0.13107453
000240 42 52 19 be c9 d1 cf bc 1e 0a 74 3d 3d ed 01 bd
       -0.14972785 -0.025368588 0.05957996 -0.03172039
000250 36 3b 80 bc af 47 27 bd 29 51 81 bd c9 df 6c bd
       -0.015653234 -0.040839847 -0.06314308 -0.057830606
000260 6d b1 cd 3d 45 fd 0b bc 55 c9 0a be 0e 62 36 be
       0.10043607 -0.008544271 -0.13553365 -0.17810842
000270 2e 5e a9 bd 64 d6 9a bc 71 5d 1a bc 72 c1 2f bc
       -0.082699165 -0.018901058 -0.009421692 -0.010727273
000280 62 5a 3c bd ce 0d b1 bd 5e c5 3e bd c0 c6 13 bd
       -0.045984633 -0.08645211 -0.046574943 -0.036078215
000290 fb 3f fa 3d b5 8e 4e 3d 8d ab f7 3c 5f fd 32 bd
       0.122192346 0.050429065 0.030233169 -0.043698665
0002a0 10 b1 71 bc 44 d3 1b 3c 60 81 3f bd 07 af d3 bb
       -0.014751688 0.009510819 -0.04675424 -0.006460074
0002b0 ad c6 89 3d 3d 1b 6c 3d 6b ac f5 bb 1e 43 07 bd
       0.067273475 0.057643164 -0.0074973605 -0.033022992
0002c0 c9 7c c7 bd 71 77 28 be ac 14 8a 3d bd 18 2d 3c
       -0.09740598 -0.16451813 0.06742224 0.01056498
0002d0 ab cf 31 3d dc 7e 8b 3c f0 24 bb bd 04 3c e8 bd
       0.04341094 0.017028265 -0.09137905 -0.11339572
0002e0 f5 07 d0 bd b6 da d2 3c aa 1a 9f 3d b7 2f df bc
       -0.10157768 0.025739055 0.07768758 -0.027244432
0002f0 dc 6a 4d bd fc 9d e5 bc d3 ad 18 be 07 7f ea bd
       -0.050150737 -0.028029434 -0.14910059 -0.1145001
000300 f6 38 90 bc 2f eb 5f bd 0c c1 1c 3e 67 5d 80 3d
       -0.017605286 -0.054667648 0.15308017 0.06267815
000310 4b e8 e2 3c d2 72 02 3d 41 d0 e9 bd ad db f4 bd
       0.027698657 0.031847782 -0.114166744 -0.11955962
000320 8f ff ab 3d 3a b2 8c 3d f6 b7 88 bc 95 01 5c bd
       0.08398353 0.068699315 -0.016689282 -0.053712446
000330 46 b7 bb bd 5d 58 8b 3c 5b 46 c2 bd ca 79 03 bc
       -0.09165816 0.017009908 -0.094860755 -0.008024642
000340 5d e2 43 3d 39 99 a1 3d ee 11 e8 bd 7c 1a 0b bc
       0.0478233 0.07890553 -0.11331545 -0.008490201
000350 24 6d 18 3d 10 ea 90 3c ec 42 23 bd 0b 70 81 bd
       0.03721346 0.017689735 -0.039858744 -0.063201986
000360 ca b7 d6 bd 05 14 61 bc b9 25 04 3c 4f 70 cd 3a
       -0.10484274 -0.013737683 0.008065634 0.0015673729
000370 79 39 d3 b8 ff 6b c2 b8 9a 9f e8 b7 4f 23 f7 b8
       -0.00010071969 -9.270757e-05 -2.7730875e-05 -0.000117844545
000380 68 41 36 3d 7f 30 3f 3d a5 76 af bd 4b 06 47 bb
       0.04449597 0.04667711 -0.085675515 -0.003036874
000390 93 9f 79 bc be 27 ce bc a7 a8 0f bc 12 be 81 3d
       -0.015235799 -0.025165435 -0.008768237 0.06335081
0003a0 2c 5d e2 3d c4 2a e4 3d df 0d fa bc 9e 83 54 bd
       0.110529274 0.111409694 -0.030524192 -0.051883332
0003b0 02 c3 2f bd a3 08 a3 bd 53 14 a8 3c ac e1 96 bd
       -0.042910583 -0.07960632 0.020517504 -0.07367262
0003c0 ca 1e 43 bd 44 89 85 bd 7d 2e 28 3c 7f af 04 be
       -0.047636785 -0.06520322 0.01026499 -0.12957571
0003d0 3a fe c2 bd 0f aa 9a bd 95 f1 5d bd 20 13 38 bd
       -0.09521146 -0.07551967 -0.05418547 -0.044940114
0003e0 2f c6 8c 3c 3f be cb 3c 80 ee f8 bd bb d0 fc bc
       0.017184345 0.02487099 -0.12154865 -0.03086125
0003f0 9a ac 38 3d 8b ef 1b bd f5 f0 1a be b5 50 65 bd
       0.04508648 -0.038070243 -0.1513098 -0.05598517

layer2.conv.bias f4 [128]
000000 cc 9d f5 bd 25 91 7c bd 5f c9 e0 bc 34 2e 58 be
       -0.11992988 -0.061661858 -0.027439771 -0.21111375
000010 66 6c 66 bc 02 bc 07 bd 1e 2b 77 be 38 0e b5 3c
       -0.01406393 -0.033138283 -0.24137542 0.022101507
000020 6b 0c e1 be 7a c7 02 be e7 ba 3c be 85 7e 83 bd
       -0.43954787 -0.12771407 -0.18430673 -0.06420616
000030 93 e7 1b bb 03 41 29 3c af 21 b1 bc 0b 4b 4c 3d
       -0.0023789152 0.010330441 -0.021622507 0.049876254
000040 a5 ea 62 bd 57 56 19 3d b5 38 42 bd 33 0d fe 3d
       -0.055399556 0.037435856 -0.04741736 0.12404861
000050 ec 3a 94 38 58 ce 0b 3d 96 87 c7 3d b9 05 37 3d
       7.068165e-05 0.03413233 0.09742658 0.044683192
000060 d2 42 6c bd c2 88 3b be 82 16 43 be eb 64 26 bd
       -0.057680912 -0.18313888 -0.19051555 -0.040623587
000070 a2 cc 5b 3e ba b3 e9 3d 87 15 0f bd 47 0c a3 3d
       0.2146478 0.11411233 -0.03493264 0.07961326
000080 7c a7 bb bc fe b9 50 3d 67 fd a7 bd 3e 88 b2 bc
       -0.022907011 0.050958626 -0.082026295 -0.021793481
000090 9e 4f 91 3c 8b 06 a9 bc e5 00 27 bd d2 f2 8e bd
       0.01773816 -0.020633003 -0.040772337 -0.06979908
0000a0 a9 81 e9 bd c2 c4 35 bd 1e 2b 64 be 4b 2b 7b be
       -0.11401684 -0.044377096 -0.22282073 -0.24528234
0000b0 59 5c b5 bd 14 70 36 3b 08 80 0b 3d 7f 99 2c bd
       -0.088555045 0.00278378 0.034057647 -0.042138573
0000c0 3e 50 1b 3d 1e e2 0a 3d b1 b0 d1 3d 74 01 80 bd
       0.03791832 0.03390705 0.10238779 -0.06250277
0000d0 8d df 2c be 26 c6 a4 bc c7 3f 0a bc 4f c3 10 bd
       -0.16882153 -0.020114016 -0.008438057 -0.03534251
0000e0 e8 5e bd be d9 57 4c bd ca cf f5 bd ff a4 a8 b9
       -0.3698647 -0.049888466 -0.12002523 -0.0003216639
0000f0 a7 67 a1 bd 2c 2c 0e be f4 c5 b9 be 2f 70 7f 3d
       -0.07881098 -0.13884038 -0.3628384 0.062362846
000100 09 3f 2b 3c 09 bc b5 bd 2a 3d cd be c2 b2 ba bc
       0.0104520405 -0.088737555 -0.40085727 -0.022790316
000110 db 33 9c 3d 5a 77 b6 bb e4 15 fb bd 18 a3 e2 bd
       0.07627078 -0.005568427 -0.12260035 -0.11066264
000120 6f b1 8b 3d 1c 4e 86 bb 3c 76 6f bb ab 01 c2 be
       0.06820952 -0.004098667 -0.003653898 -0.37891898
000130 92 b4 1e bd df ce b8 bc f7 08 a4 bd f1 ce cf bc
       -0.038746424 -0.022559581 -0.080095224 -0.025367232
000140 09 82 3e 3b 6d 46 83 bb 7c 02 2b bd ac 3b 84 3c
       0.0029069206 -0.004006198 -0.041750416 0.016141735
000150 2a cc 04 bd f2 ea 63 bd 89 cb 91 bd 90 ec cc bd
       -0.03242127 -0.055643983 -0.071188994 -0.10006058
000160 cc d4 96 3c 0a 9e 98 3d 77 f9 fa 3a 8c 7c ac 3d
       0.018412016 0.074520186 0.0019147833 0.08422193
000170 a1 00 53 3d 23 3b 14 be 0d 4c 99 3d d5 b2 4d bd
       0.05151427 -0.14475684 0.07485209 -0.050219376
000180 db 82 90 3c f3 03 c0 3c 3b 26 18 3e 3c 6a 4d bc
       0.017640522 0.023439383 0.14858334 -0.012537535
000190 3c 34 73 bd 0e 07 c6 bc 26 a7 42 3d 93 1c 35 bd
       -0.059375986 -0.024173286 0.047522686 -0.044216704
0001a0 05 5c 0b bd ca eb 3b bd 5d 18 d1 3c 5d b7 25 be
       -0.034023304 -0.045879163 0.025524313 -0.16183229
0001b0 20 b6 06 3d 75 ba 40 be 86 4f cc bd 49 92 a6 bc
       0.03288853 -0.18821128 -0.099761054 -0.020333426
0001c0 ed 03 df bd 73 51 58 be 87 f7 1a bd 17 98 22 3d
       -0.10889421 -0.2112482 -0.037833717 0.039695825
0001d0 71 63 96 3b 18 a3 24 be 51 c2 16 3d a7 c4 9e 3d
       0.004589491 -0.1607784 0.03680641 0.07752352
0001e0 f1 07 b1 bd a5 79 00 be dc bb 1f bd a0 f1 9a bd
       -0.08644093 -0.12546404 -0.038997516 -0.075656176
0001f0 d9 a0 82 bd 4c 8a 62 bd 51 50 0b 3d c6 d2 74 3d
       -0.063783355 -0.05530767 0.034012143 0.05977132

layer2.bn.weight f4 [128]
000000 c8 c2 26 3f 05 51 45 3f f8 4b 57 3f 5a 0b 46 3f
       0.6514096 0.7707675 0.84100294 0.7736107
000010 81 0d 27 3f 13 f2 01 3f fd 02 37 3f 98 66 07 3f
       0.6525498 0.5076 0.71488935 0.5289092
000020 d4 4b 7a 3f e5 5c 26 3f 06 28 2a 3f 0a 5c 2d 3f
       0.97771955 0.64985496 0.6646732 0.67718565
000030 c2 e2 3e 3f bf b8 1d 3f 29 78 30 3f bb 4f 34 3f
       0.74564755 0.61610025 0.6893335 0.7043416
000040 53 cd 3e 3f 58 7e 42 3f 9b f6 22 3f 88 90 2b 3f
       0.7453205 0.75974035 0.6365754 0.6701741
000050 ae 1b 5c 3f c6 77 56 3f e2 4d 41 3f 4d ef 93 3f
       0.85979736 0.8377651 0.75509465 1.1557404
000060 8a 90 26 3f 6c 35 2e 3f dd 97 1b 3f cc bf 40 3f
       0.650643 0.68050265 0.607786 0.7529266
000070 6c 94 62 3f f0 58 5a 3f 91 09 28 3f 31 64 37 3f
       0.88507724 0.8529196 0.656396 0.71637255
000080 42 6b 14 3f a8 57 31 3f aa e0 58 3f 05 43 41 3f
       0.5797616 0.6927438 0.8471781 0.7549289
000090 90 71 2e 3f 51 38 1a 3f 29 38 45 3e 12 07 1f 3f
       0.6814203 0.6024218 0.19259705 0.62120163
0000a0 46 62 16 3f 18 a4 72 3f 79 44 47 3f a4 64 2b 3f
       0.58743703 0.9478164 0.77838856 0.6695044
0000b0 df 27 19 3f 75 84 2a 3f a1 ac 81 3f cd 92 4a 3f
       0.59826463 0.66608363 1.0130807 0.7913025
0000c0 d2 5d 72 3f 82 29 58 3f 4d ee 44 3f f7 8d 2d 3f
       0.9467441 0.84438336 0.7692612 0.67794746
0000d0 af 70 15 3f e5 cb aa 3f d9 66 73 3f 40 84 17 3f
       0.58375067 1.3343474 0.9507881 0.5918617
0000e0 54 e7 43 3f 8e 9f 37 3f bf 8b 2f 3f 8c 4c 44 3f
       0.76524854 0.71727836 0.6857261 0.766793
0000f0 03 4f 0a 3f 4f f2 3e 3f 7a 36 42 3f e7 8f 60 3f
       0.5402681 0.74588484 0.75864375 0.8771958
000100 ab f1 47 3f 3e c3 2e 3f cd 4d 5e 3f da d0 25 3f
       0.7810313 0.68266666 0.86837465 0.6477181
000110 2e 09 5d 3f 7d ea 10 3f 91 a1 34 3f 6a 12 48 3f
       0.8634213 0.566078 0.7055903 0.781531
000120 44 10 5b 3f bf b9 2c 3f d8 4c 3c 3f 58 ad 56 3f
       0.85571694 0.67470926 0.73554754 0.8385825
000130 fb 18 4a 3f 1d 01 2a 3f 5e 74 2b 3f 46 34 3d 3f
       0.7894437 0.6640795 0.6697444 0.7390789
000140 87 89 58 3f 61 85 05 3f 97 b1 26 3f 2a 1e 59 3f
       0.8458485 0.52156645 0.6511473 0.8481165
000150 07 b6 36 3f 1a a9 38 3f f5 2d 2c 3f db 2d 07 3f
       0.713715 0.7213303 0.67257625 0.52804345
000160 17 f0 06 3f ca c1 44 3f 00 fa 26 3f c8 ab 3c 3f
       0.527101 0.768582 0.6522522 0.7369962
000170 fa 0c 26 3f f1 c9 21 3f 9a f9 77 3f 81 74 76 3f
       0.6486355 0.63198763 0.96865237 0.9627152
000180 4c cc 19 3f 26 90 4a 3f 9d 48 60 3f 9c 25 2b 3f
       0.6007736 0.79126203 0.876108 0.6685426
000190 25 7e 3f 3f 3e 9f 32 3f 18 36 40 3f 25 23 20 3f
       0.74801856 0.69774234 0.7508254 0.62553626
0001a0 e8 4d 0b 3f d8 71 3c 3f bc 92 ef 3e a8 b3 35 3f
       0.5441575 0.7361121 0.46791637 0.7097726
0001b0 e0 41 45 3f e8 c4 3f 3f 29 4a 30 3f 04 c6 1e 3f
       0.7705364 0.7490983 0.6886316 0.620209
0001c0 ed 4e 18 3f 7f fa 36 3f 6a 29 5e 3f c2 f5 50 3f
       0.5949543 0.71475977 0.8678194 0.81624997
0001d0 89 7b 32 3f a9 c9 0b 3f 24 33 43 3f ce 32 83 3f
       0.6971975 0.54604584 0.7624991 1.0249879
0001e0 e1 bd 42 3f 68 b1 34 3f 2e c7 4f 3f 00 1a 2f 3f
       0.7607098 0.705832 0.811633 0.6839905
0001f0 0c 40 4b 3f 3f bb 35 3f ab 7b 02 3f ba 79 46 3f
       0.793946 0.7098884 0.5096995 0.7752949

layer2.bn.bias f4 [128]
000000 eb 81 52 bb 1b 11 a5 3d 0c 6e d6 3d fc 17 b4 bc
       -0.0032120894 0.08059903 0.104702085 -0.021984093
000010 9c 3f 82 bc d8 1c ce bd d2 f2 8f 3d bf 31 16 3e
       -0.015899472 -0.10064095 0.07028736 0.14667414
000020 3a 1f af 3d 64 f2 b2 3d ba d8 5f 3e 26 4e 3f 3d
       0.08550878 0.087376386 0.21860018 0.046705388
000030 10 e4 ff 3d f9 55 be 3c fa fd ce 3d df f4 15 3e
       0.12494671 0.023234354 0.10107036 0.14644192
000040 23 1b 6c 3d b6 05 da 3d 84 fc a8 3d b7 b8 1f 3e
       0.057643067 0.106456205 0.082512885 0.15597807
000050 a3 2c 64 3e 78 9f 1f 3e 65 d7 34 3e e9 5b 2d 3f
       0.22282653 0.15588176 0.17660291 0.6771837
000060 5a 43 0b 3e 3b 63 fe 3c e6 73 34 bd 84 2e b8 3e
       0.13599911 0.031053176 -0.044055842 0.3597299
000070 28 95 8c 3e 01 e4 00 3e 3e 87 02 3e 63 0a 82 3e
       0.27457547 0.12586977 0.12746903 0.2539855
000080 74 ef 71 3d 6f de 1f 3e 69 81 8a 3e 8d 6e a8 bb
       0.05906625 0.15612195 0.27051857 -0.005140132
000090 87 13 2b 3e d5 66 cc bd e4 99 1b 3f c8 52 04 3d
       0.16706668 -0.09980551 0.60781693 0.03230551
0000a0 01 ba ef bc 2d 62 88 3e 5e c2 cf 3d 88 8e d3 bb
       -0.029263498 0.26637402 0.101444945 -0.0064562
0000b0 69 37 d3 3c e9 4c d1 3d eb 96 1e 3e 10 2f 2f 3e
       0.025783258 0.102197476 0.15487258 0.17107797
0000c0 a0 d1 2e 3e bb 8b 29 3e 83 a5 5f 3d a8 9a 22 3e
       0.17072153 0.16557209 0.054601204 0.15879309
0000d0 93 e5 7f bc 4b f6 93 3e 35 e5 0e 3e 85 cc d6 3d
       -0.0156187 0.28898844 0.13954623 0.10488228
0000e0 e6 f9 cc 3c e2 63 d4 3d f7 c8 c0 3d 5c cb 17 bd
       0.025021505 0.10370614 0.09413331 -0.037059173
0000f0 8a 53 28 3c bd 4b 18 3e 9b 2a 33 3d c3 86 a9 3e
       0.0102738235 0.14872642 0.043741804 0.33110628
000100 0c 02 c3 3d 2d da ab 3d da 65 73 3d 08 a2 5d 3d
       0.09521875 0.08391223 0.059423305 0.054109603
000110 4e bf 41 3e 5b 8d 33 3c fb 17 8c 3d 2f 7e 26 3e
       0.18920633 0.010958995 0.068405114 0.16259073
000120 35 fb 36 3f c8 49 8c 3d 1d 77 ef 3d 16 51 60 3c
       0.7147706 0.0685001 0.11692641 0.013691207
000130 32 df d2 3d 07 89 c4 3d ca 76 55 b9 97 10 ea bb
       0.102964774 0.095964484 -0.00020357515 -0.007143091
000140 21 68 48 3e b0 c1 1f bd 94 15 95 3d 15 1c 6d 3d
       0.19570972 -0.039003074 0.07279506 0.05788811
000150 cf 62 00 3e c1 c2 1a 3e 80 c0 b1 3d 14 2f 67 bd
       0.12537692 0.15113355 0.086792946 -0.05644138
000160 68 cd 9c 3c 21 c5 6f 3d 4d e7 5e 3e 6f bc 34 3e
       0.019140914 0.058537606 0.21767922 0.17650007
000170 29 d2 32 3e dd 1b a6 bc f8 0a 80 3e e2 5e 62 3e
       0.17462982 -0.020276958 0.25008368 0.22106507
000180 57 95 e4 bc 23 7b 94 3d d6 4a 49 3e b4 d8 ac 3e
       -0.027903242 0.07250049 0.19657454 0.3375908
000190 2a f4 63 3e 80 7a 3b 3d eb 99 d5 3d 6e a5 d5 bd
       0.2226111 0.045771122 0.10429748 -0.10431944
0001a0 18 a7 84 3d 52 be 29 3e 13 59 63 3e de 1a 1c 3e
       0.06477183 0.16576508 0.22201948 0.15244624
0001b0 97 bd b8 3d fb 46 cf 3d b2 f9 77 3d d2 46 22 3d
       0.090205364 0.1012096 0.060540862 0.03961832
0001c0 ea 3f 6f 3c 52 f4 6f 3d 3e d7 71 3e b8 f1 ae 3e
       0.014602641 0.05858261 0.23617265 0.34168792
0001d0 76 48 c8 3d 35 49 e6 3b c4 5c 9e 3e f3 70 5b 3f
       0.09779446 0.00702777 0.3093015 0.8571922
0001e0 d3 57 12 3f 30 f8 13 3e 97 ee 11 3e ad 05 22 3c
       0.5716526 0.14450145 0.14251171 0.0098890485
0001f0 1a 61 52 3f 06 57 e6 3d 49 a5 1a 3e 14 21 4e 3e
       0.82179415 0.11247067 0.15102114 0.20129806

layer2.bn.running_mean f4 [128]
000000 ef a7 cd 3d 8a 5b 67 3d 92 fa 02 3e ce 74 6e 3d
       0.100417964 0.056483783 0.12790897 0.058216862
000010 70 c4 6b 3d 21 9e a7 3d 69 0f f6 3d 25 09 ec 3e
       0.057560384 0.081844576 0.12014658 0.46100727
000020 98 60 25 3d 7e 74 03 3f 09 60 1c 3e 02 5a c7 3e
       0.040375322 0.5134963 0.1527101 0.38935858
000030 dc f2 b5 3d 5d 5b 1f 40 10 2c d5 3f 80 19 76 3e
       0.088842124 2.4899514 1.6654072 0.24033165
000040 3e 3a 01 3e b7 38 00 3e df 0a 32 3e c2 7e 2c 3e
       0.12619874 0.12521635 0.1738696 0.1684523
000050 26 b4 30 3e 2c 90 db 3d dd bf ab 3e ca cf 09 3f
       0.17256221 0.10720858 0.33544818 0.53832686
000060 16 17 b6 3f b6 0c 12 3e b9 85 cb 3c fc 03 4a 3e
       1.4225795 0.14262661 0.024844037 0.19728082
000070 37 a8 64 3e 3e f6 46 3e ac a5 be 3e 75 11 6c 3f
       0.22329794 0.19429871 0.37235773 0.9221414
000080 4d 2c 07 3e b8 7d 58 3e 2d d8 b4 3d 94 f6 b2 3c
       0.13200493 0.21141708 0.08830295 0.021846093
000090 f4 11 01 3e 25 8a 4a 40 b2 01 c7 3e 5a 5e 1f 3e
       0.12604505 3.1646817 0.3886848 0.15563336
0000a0 be 91 ba 3d b6 e1 8c 3e d5 34 80 3d f8 fa fc 3c
       0.09109829 0.27515954 0.06260077 0.03088139
0000b0 9e b0 c6 3d fb c3 63 3e 2f 93 32 3e 6c de 11 3e
       0.09701656 0.2224273 0.17438959 0.14245003
0000c0 3c ef 9d 3e 14 0e 06 3e ae 26 9a 3d c0 89 3c 3e
       0.30846584 0.13091308 0.07526909 0.18411922
0000d0 57 1d d5 3e fa 72 e4 3d 96 56 f3 3d 33 f3 9e 3f
       0.41623947 0.111547425 0.11881749 1.2417969
0000e0 68 41 01 3d 95 88 ba 3e d2 16 bc 3e 58 b9 45 40
       0.031556517 0.3643233 0.3673616 3.0894375
0000f0 a1 35 56 3f 80 2d f7 3d 8e 95 df 3c 6a 0a 55 3e
       0.8367558 0.12069225 0.027292993 0.20804754
000100 1e 52 36 3e c6 a1 f5 3d cf 44 16 3d 06 e2 be 3f
       0.17804763 0.119937465 0.036686715 1.4912727
000110 fc 71 29 3e 3c 85 ab 3d 02 f0 7a 3d 87 bd 20 3e
       0.16547388 0.08375022 0.061264046 0.15697299
000120 e9 05 13 3f 0f 3a 0c 3e 01 9e 2c 3f 0d 7c fe 3c
       0.57430893 0.13694023 0.67428595 0.031065011
000130 81 f9 dd 3f e8 24 85 3d 59 7c e7 3e e3 e2 cc 3c
       1.7341768 0.0650118 0.45212057 0.025010532
000140 77 c3 d4 3d a0 5c 8c 3e ca 30 f0 3e a7 d8 b8 3d
       0.103888445 0.27414417 0.46912223 0.09025698
000150 2c 51 f8 3d 46 a2 83 3d 70 03 b4 3e 2c 46 d1 3b
       0.12124857 0.064274356 0.35158873 0.006386539
000160 b6 18 de 3d 13 50 88 3d c9 d3 a0 3d 3f 30 28 3e
       0.10844557 0.06655898 0.07852895 0.16424654
000170 da 99 f5 3d 41 1c 81 3e 97 da 6e 3e 70 bd 41 3e
       0.119922355 0.2521687 0.23325573 0.18919921
000180 4b d8 96 3e 20 ab 95 3d e9 1a 2c 3e 2f 1e fd 3e
       0.29461893 0.0730803 0.1680714 0.4943709
000190 63 0e 6f 3d ea a6 8d 3f 10 f6 e8 3d 63 f6 cf 3f
       0.05836333 1.1066563 0.11375058 1.6247066
0001a0 8d 31 49 3d 78 8f 7d 3f 4a 83 9e 3e c1 86 85 3e
       0.04911952 0.9904704 0.3095954 0.26079372
0001b0 48 cd 77 3d aa 90 04 3e 50 33 e5 3d d6 06 6a 3f
       0.060498506 0.1294581 0.11191428 0.9141668
0001c0 39 5b b7 3e dd df 9d 3d 89 c5 50 3e 48 87 fe 3d
       0.35811785 0.07708714 0.20387854 0.124281466
0001d0 0d 3b e5 3d 4d bd 17 3d c8 21 8d 3f f6 1d 97 3f
       0.11192904 0.037045766 1.1025934 1.1806018
0001e0 e9 3e 41 35 53 f9 f6 3d 66 d5 51 3e 33 f2 90 3d
       7.198965e-07 0.120592736 0.20491561 0.07077446
0001f0 04 00 00 00 1c ae e5 3e f0 40 35 3e d6 e6 59 3d
       6e-45 0.44859397 0.17700553 0.053198658

layer2.bn.running_var f4 [128]
000000 69 e3 6b 3e 54 28 8f 3d 37 53 85 3e f9 31 24 3e
       0.23035969 0.06990114 0.2604005 0.16034688
000010 9a c8 03 3e 6e e3 22 3e 09 82 88 3e 5f c1 01 3f
       0.12869492 0.1590707 0.2666171 0.50685686
000020 d7 7b cc 3d 95 8f b4 3f 88 13 df 3e e0 08 6d 3f
       0.09984558 1.4106318 0.4356959 0.9259167
000030 a7 b0 79 3e ae 58 9b 40 ed 70 87 40 66 ad 1a 3f
       0.24383794 4.854575 4.232535 0.60420835
000040 46 0a 98 3e e6 95 a1 3e 5b c9 e5 3e 03 8e 1c 3e
       0.29695338 0.31559676 0.44880185 0.15288548
000050 c5 a8 14 3f 61 e2 4d 3e 0f e8 71 3f 72 fb 42 3f
       0.5807002 0.20105888 0.9449472 0.76164925
000060 96 76 52 40 70 51 04 3f e4 d8 76 3d 63 bd 07 3e
       3.288488 0.51686764 0.060265437 0.13255839
000070 5d ed e4 3e f1 a1 a2 3e 44 27 23 3f 75 aa 04 40
       0.44712344 0.31764176 0.6373179 2.0729039
000080 41 98 bb 3e f9 39 cb 3e da 8f 64 3e f9 02 39 3d
       0.36639598 0.39692667 0.223205 0.04516885
000090 13 4f 1a 3e 4f e3 4e 40 65 80 85 3f 18 d6 bd 3e
       0.15069227 3.2326238 1.0429808 0.37077403
0000a0 ae 78 85 3e 49 1c 42 3f 43 ce 2f 3e 5a 7e 91 3d
       0.26068634 0.7582441 0.17168526 0.07104178
0000b0 fd b5 70 3e 99 48 e6 3e c5 18 d4 3e 61 58 cd 3e
       0.23506923 0.44977263 0.41425148 0.4010649
0000c0 eb 68 1a 3f 4c 0a 77 3e 65 b1 de 3d 86 9d a3 3e
       0.6031634 0.24125022 0.10873679 0.31956118
0000d0 55 77 8b 3f 06 f3 54 3e 6c 51 57 3e 8b d2 de 3f
       1.0895792 0.20795831 0.21027154 1.7408003
0000e0 78 13 aa 3d e9 02 63 3f d8 96 4d 3f d8 bd 89 40
       0.083044946 0.88676316 0.80308294 4.3044243
0000f0 b1 d7 95 3f 08 45 91 3e b3 51 7f 3d 74 15 c7 3e
       1.1706449 0.2837298 0.062333774 0.38883555
000100 db a3 98 3e 73 89 73 3e 28 13 e0 3d 7d be fb 3f
       0.29812512 0.23782901 0.10941154 1.9667507
000110 b8 8d ac 3e 72 d0 28 3e a1 5b 11 3e 62 83 de 3e
       0.33701873 0.16485766 0.1419511 0.43459612
000120 49 9d 30 3f 9a 3f 71 3e 76 f2 a9 3f c9 6a af 3d
       0.6899 0.23559418 1.3277118 0.085652895
000130 a1 c0 05 40 1e fa 25 3e 65 f3 35 3f c5 28 7a 3d
       2.0898821 0.16208693 0.71074516 0.061074037
000140 35 15 8c 3e 46 e9 03 3f ad 43 2b 3f a1 a1 3c 3e
       0.2735993 0.5152782 0.6690014 0.18421032
000150 b7 80 a4 3e 57 e3 23 3e b3 79 60 3f 42 20 55 3c
       0.32129452 0.16004692 0.876857 0.013008179
000160 81 f0 19 3e e4 d4 07 3e 8b 7f 24 3e be 36 97 3e
       0.15033151 0.13264805 0.16064279 0.29533952
000170 df 1e cf 3e 49 5e f5 3e fe 71 15 3f 4d c5 dd 3e
       0.4045324 0.47923496 0.58377063 0.4331459
000180 18 d4 05 3f 80 64 28 3e 9d 8a a0 3e 72 5a 11 3f
       0.52276754 0.16444588 0.31355754 0.56778634
000190 42 28 fe 3d 0c 0b 19 40 80 03 7a 3e b5 fc c5 3f
       0.12410022 2.3912992 0.24415398 1.5467745
0001a0 49 03 f1 3d 2c 0b 4b 40 0f 84 44 3f 1f 6f 38 3f
       0.11768205 3.1725569 0.76764005 0.7204456
0001b0 a5 37 26 3e 57 ae b8 3e 77 d0 b8 3e 26 a8 c9 3f
       0.16232164 0.3607051 0.36096546 1.575444
0001c0 85 57 3e 3f e2 73 49 3e c5 0e b4 3e 81 5d b4 3e
       0.74352294 0.19673112 0.35167518 0.35227588
0001d0 1d 9d 53 3e cb 11 bf 3d a4 dd 75 40 a4 45 e6 3f
       0.20665403 0.093295656 3.8416529 1.7990003
0001e0 15 e0 0b 35 32 46 a0 3e 83 94 2c 3f c6 0f 04 3e
       5.210762e-07 0.31303555 0.6741411 0.12896642
0001f0 04 00 00 00 f1 cb 7e 3f 8a 77 13 3f dc 30 f1 3d
       6e-45 0.9952994 0.5760428 0.11776897

layer3.conv.weight f4 [256, 128, 2, 2]
000000 24 f5 1f be db 91 b5 bd 25 3f 1b bd ca 55 ff bd
       -0.15620857 -0.0886571 -0.037902016 -0.12467535
000010 45 cd e5 3c 39 ef 83 3c ba 21 ec bc 90 49 c3 3b
       0.028051982 0.016105281 -0.028824676 0.005959697
000020 28 52 e1 bc aa 1c c1 3a 31 12 1e bd 42 60 17 bd
       -0.027504995 0.0014733274 -0.038591567 -0.036957033
000030 e4 5e 7c bd 67 ae 87 bd 07 8b a5 bb 0a 80 3f bd
       -0.061613932 -0.066250615 -0.0050519737 -0.046752967
000040 2a 6a d3 3c 10 fc 89 bc 77 56 3e 3d 74 c1 9d bc
       0.025807459 -0.016843826 0.046469178 -0.019257285
000050 7e 33 fd ba 24 38 2e 3b 9e f2 4a 3d 8c 5a 1b 3d
       -0.0019317714 0.0026583755 0.049547784 0.03792815
000060 e8 81 bb bc 79 dd 11 be fc 56 8b 3d e9 c3 5e bc
       -0.022889093 -0.14244641 0.068037 -0.013596513
000070 37 48 5d bd 26 2f f8 bc 48 73 40 bd e3 8c 2e bd
       -0.054023948 -0.03029592 -0.04698494 -0.04261483
000080 32 d2 8a bd 0b e3 4b bc 96 3a 10 be ed f8 c1 bd
       -0.06778373 -0.012444268 -0.14084849 -0.09471307
000090 72 de 98 bd 2e d5 c8 bd 55 66 37 3d ec 2a 65 bd
       -0.07464303 -0.09806286 0.044775326 -0.055949137
0000a0 bf 41 89 bc a3 98 c3 bd e3 2e bb bd 4d a9 91 bd
       -0.016754983 -0.095505975 -0.09139802 -0.0711237
0000b0 8c 40 81 bd 25 f8 ad bd 1c ee 1e 3d b6 5e f7 bc
       -0.063111395 -0.084945954 0.038801298 -0.030196529
0000c0 09 fb 5f bd 61 6e a1 3b 5e 0a 92 bc 13 27 cb 3c
       -0.054682765 0.0049264883 -0.01782721 0.024798905
0000d0 9c 7e 24 bd d1 06 d2 bd a5 d8 5b 3c 64 99 ce bd
       -0.040159807 -0.102552064 0.013418351 -0.10087851
0000e0 96 cf 9a 3b 17 9b 4a bd 8f f2 89 3d f1 22 46 bd
       0.004724453 -0.04946431 0.067357175 -0.048373166
0000f0 35 21 8b 3d cc 76 9c bd 92 5b 11 3e d7 53 d0 bd
       0.06793443 -0.07639846 0.14195088 -0.10172241
000100 4f 3c f0 bd 50 27 b4 bd 65 0d 02 bd 91 04 1d be
       -0.11730253 -0.08796561 -0.031751055 -0.15333773
000110 12 f7 00 bd 29 bd 90 bd 3e 11 5e bd 33 e1 93 bd
       -0.031485625 -0.070673294 -0.054215662 -0.07220688
000120 bb b6 7b bc e5 12 cd bd 84 6c 4e bc 01 98 30 bd
       -0.015363391 -0.100133695 -0.012599114 -0.043113712
000130 6d 4f a7 3d 2f 8a b8 bb 22 c9 58 3d a6 83 af bc
       0.08169446 -0.005631707 0.05292619 -0.02142508
000140 42 69 9e 3d 0c c5 91 bd 0d 29 e2 3d 17 b9 d8 bb
       0.0773492 -0.07117662 0.11042986 -0.0066138613
000150 0b cb 4b 3d 96 90 ba bc 75 7e 4a bc 6c 19 83 bd
       0.049754184 -0.022774022 -0.012359251 -0.06401333
000160 89 a6 20 3c 9c 2a 30 bd ea 39 da 3d 6d b0 6a bc
       0.00980533 -0.043009385 0.106555775 -0.01432429
000170 41 19 58 3d fa 8b 54 3d f5 9f ae bc e7 7d be 3d
       0.05275846 0.051891305 -0.021316508 0.09301358
000180 c4 5e c3 bd 45 6d c9 bd 3e ea e2 3d dc 2d dc bc
       -0.095395595 -0.09835295 0.110798344 -0.026877336
000190 73 7b 9f bd b9 b1 81 bd 8a e5 51 bc 86 18 be bd
       -0.07787218 -0.06332726 -0.012811074 -0.09282021
0001a0 a5 ca 28 be c5 67 9a bd c5 0f 63 be e1 83 7a bd
       -0.16483553 -0.07539324 -0.22173984 -0.061160926
0001b0 9e c6 78 bd 16 85 19 bb b2 ab 0a bd c5 c4 50 bc
       -0.06073629 -0.0023425273 -0.033855148 -0.012742226
0001c0 3f a3 39 3d 2c 80 96 bd 9d 47 5d 3d 63 4e a1 bd
       0.0453217 -0.073486656 0.054023374 -0.07876279
0001d0 80 74 e9 3c 65 61 32 3d 4a b1 ce 39 12 44 0f 3d
       0.028497934 0.043549914 0.00039423472 0.034977026
0001e0 06 3b 0b 3c b4 06 7b bd 1e 16 8e 3d 7d ee 47 bd
       0.008497959 -0.06128569 0.06937812 -0.048811425
0001f0 88 6b 00 3d 4c 71 bd bd d6 4a e0 3d af 7e 1b bd
       0.03135255 -0.09250125 0.10951774 -0.03796261
000200 07 25 b6 bb 59 39 43 3b 0a 56 2c 3c dd 04 52 3d
       -0.005558613 0.002978882 0.01051856 0.05127417
000210 10 c5 68 bd 93 19 c8 bd 4c 5b d4 3d fe 90 81 3c
       -0.05682856 -0.09770503 0.10368976 0.015816208
000220 40 e8 c7 bd ad 10 c7 bc e6 bf 52 bc 2e a6 0b bd
       -0.09761095 -0.024299944 -0.012863135 -0.03409403
000230 94 27 b5 bc 4e d5 40 bc 2f d4 91 bd 40 02 9c 39
       -0.022113599 -0.011769606 -0.07120549 0.00029756315
000240 61 48 b3 3d 8d 79 f0 bc e4 bc dd 3d e6 a1 4a 3c
       0.087540396 -0.029354835 0.10827044 0.012367701
000250 69 72 de ba 70 48 8c bc 54 08 90 3d 20 fe df bc
       -0.0016971353 -0.017124385 0.070328385 -0.027342856
000260 3a ba 10 bd 03 1a 4d bd dc 8e 2b 3d 2c 5b 53 bc
       -0.03533385 -0.050073635 0.04188429 -0.012900155
000270 3e 3d 83 3b 9a 42 ac bd c6 3f aa 3d ab 20 fb bd
       0.0040051034 -0.08411141 0.08312945 -0.1226209
000280 92 fa 0f be e3 2a 6a bd e0 71 dc bd 0d 70 01 be
       -0.14060429 -0.057169806 -0.107639074 -0.126404
000290 6c 79 49 3d a7 74 25 3d f9 68 8f bb 6c ba 69 3d
       0.049188063 0.04039445 -0.0043765274 0.05706255
0002a0 ce f0 cd 3d 33 47 97 3c a2 97 08 3e cb 5c 83 3c
       0.100556955 0.018466568 0.13339093 0.016035458
0002b0 a3 b4 57 bc 23 1c 34 ba f0 e2 5a bd 2e 98 a7 bd
       -0.013165626 -0.0006870648 -0.05343908 -0.08183323
0002c0 f4 28 6b bd eb cc 3f bd 07 0a c7 3c 64 39 91 bd
       -0.057412103 -0.046826284 0.024296774 -0.070910245
0002d0 a2 07 2e bd 68 be eb bd ac 9c a1 3d 1f 40 aa bd
       -0.042487748 -0.115109265 0.07891211 -0.083130114
0002e0 83 77 74 bd a0 9a 1a bd 84 34 0e be f1 76 67 bd
       -0.059684288 -0.03774512 -0.1388722 -0.056509916
0002f0 4c b7 02 be 5b 15 ae bc 7a ee 94 bd 19 d3 ce bd
       -0.12765235 -0.021250417 -0.07272048 -0.100988574
000300 dd 0e f9 bc 16 79 69 3b 14 01 27 be 08 64 ca 3c
       -0.030402595 0.0035625151 -0.16309005 0.024705902
000310 fb 62 20 bd 2e e2 1a bd 32 a5 8d 3c 81 43 a2 3d
       -0.039156895 -0.037813358 0.017290685 0.079230316
000320 c2 15 d3 bc 06 dd 18 3c 7c 89 0e 3b 8b 62 5f 3b
       -0.02576721 0.00933004 0.0021749428 0.0034085836
000330 4a 53 6c bc 2c f5 35 bd bd de 48 3d 57 a5 18 bd
       -0.014424155 -0.044423267 0.049040545 -0.037267055
000340 04 9a 23 bd c1 82 93 bd cd 9a 1b 3d b5 38 23 bd
       -0.039941803 -0.07202674 0.037989426 -0.039849002
000350 83 81 8f 3d fc 1f 95 bc a7 10 aa 3d c5 58 42 bd
       0.07007124 -0.018203728 0.083039574 -0.04744794
000360 45 d2 2a bd a7 29 fb bc b5 2f 10 bd 94 79 5b bd
       -0.041704435 -0.03065951 -0.035201747 -0.053582743
000370 94 12 32 bd 52 fc 40 bd 3b 3f 5a bd 3b 73 68 bd
       -0.04347475 -0.04711563 -0.053282958 -0.056750517
000380 ba 46 32 bc 1f be 12 bd 21 ea b7 3d c5 77 15 bd
       -0.01088112 -0.035825845 0.089802034 -0.036491174
000390 6b d3 79 3d 45 af 0b be 2f 66 c4 3d 9d f4 7b bd
       0.06099264 -0.13641079 0.095898025 -0.06151258
0003a0 32 88 45 bd dd d7 8b bc cf ed 92 bc 51 22 d0 bc
       -0.04822559 -0.017070705 -0.017935662 -0.025406988
0003b0 ed 1a 11 be 6b b1 22 bd 68 16 83 bd af b8 b0 bd
       -0.14170428 -0.03971998 -0.06400758 -0.086289756
0003c0 7d e6 92 3c 30 1c a5 bd 9e 55 80 3d ff e8 fb bb
       0.017932171 -0.08062017 0.0626633 -0.0076876874
0003d0 a7 60 3d bd fd 6c 3a bc ca c4 0b 3d c3 63 f0 bc
       -0.046234753 -0.011378524 0.03412322 -0.029344445
0003e0 b3 11 34 3c d7 65 92 bd a3 f7 9c 3a 75 30 74 3d
       0.010990548 -0.07148331 0.0011975657 0.059616525
0003f0 f7 ae 6d bd 6b 55 c0 3c 33 78 4e 3d 4d a4 6d 3d
       -0.058028188 0.02347823 0.0504076 0.058018018
