modele/simple-deep.pth (torch, 756812 bytes, 26 tensors)

layer1.conv.weight f4 [32, 1, 2, 2]
00000000: 59b5 d4bc 2c54 73be 9507 be3e 9bf4 81bd
00000010: e860 813e 54a8 113e eb0d b13e 6724 96be
00000020: e8bb b5be f862 493e 48ec 0dbd be6f 9e3e
00000030: ca48 8dbe 9deb 4dbe bc66 933c a6c1 8d3e
00000040: e685 47bd 0b7c 8f3e a236 573e 567f 83be
00000050: 3fe6 f2bd 21f1 873e 5f60 2bbe aae2 1f3e
00000060: 9cb4 6f3e 0232 fabe b80b 183e 0558 b43e
00000070: c588 883e 8638 f63e 4dc0 fdbe 0833 cbbe
00000080: cd59 7cbe fa16 febd 68ad cb3e 6ca1 77be
00000090: fbc6 81be a088 efbd 169c 9a3e 0bba 743d
000000a0: a1ce 1f3c 6a5e b13c 8176 423e 1092 983e
000000b0: 7e52 71be d1ef 34bb dce4 4dbe a7cd 453d
000000c0: 7cc6 21be 1b4c b9be 3489 a73e 7401 4f3e
000000d0: 3207 cabe 3dcb e93e 3953 09bd 8192 0dbe
000000e0: 387a a5be 5997 913e e828 933e 69fe 033d
000000f0: f6ee 963d 3789 bbbe 7481 85be 28a8 843d
00000100: 826e 8b3e 9302 f5bd 542d cabd ca45 17be
00000110: 5262 fd3c e841 f33e b3da fabe 1f97 9c3e
00000120: 8cdf 60be 5cd5 f53e 02f0 bb3e 697e 5cbe
00000130: cb13 023f 369f 8b3e 0fbf 4b3d c451 f2be
00000140: 1081 4fbe fd85 aa3d 8ec1 82be 8cf8 983e
00000150: 5251 213e 9c00 bb3e 110a e6be 5da5 b7bd
00000160: f197 5ebe af27 f9bc 8904 dd3c eda0 753e
00000170: 3f57 c9bd 2542 a6bd baec de3e d501 df3d
00000180: 582c c03d 9ea3 c9be f5c9 853e 6771 03be
00000190: 7008 bb3e ce50 99be 3043 95be 8b91 9e3d
000001a0: 93de d9bd 3e7d cf3d ea03 b43d 69b6 aa3e
000001b0: 92f3 93be 86d8 9dbe 1b68 9a3e e93c 24be
000001c0: 47dd eebe 753a 8dbe 1646 dc3e 3078 973e
000001d0: 2c6d f13e 1735 4cbe 4a55 c23e 9071 62be
000001e0: fa68 ba3e dc33 b6be 848a cb3e 04a6 cabe
000001f0: b9f0 843e 0b0c 6cbe 28a3 d4bd a813 da3e
-0.02596538 -0.23762578 0.3711516 -0.06345483 0.25269246 0.14224368 0.3458093 -0.29324648
-0.35494924 0.1966666 -0.034649163 0.30944628 -0.27594596 -0.2010941 0.017993324 0.27686805
-0.04871168 0.28024325 0.21016935 -0.25683087 -0.11860322 0.26551154 -0.16735981 0.15613809
0.23408741 -0.48866278 0.1484822 0.35223404 0.26666847 0.4809 -0.49560776 -0.3968737
-0.24643631 -0.12406726 0.39780736 -0.24182671 -0.25347123 -0.11695981 0.3019721 0.059747737
0.009753854 0.021651465 0.18990518 0.29798937 -0.23566625 -0.0027608762 -0.20106834 0.04829183
-0.15798372 -0.36190876 0.32721865 0.20215398 -0.39458615 0.4566287 -0.033526633 -0.13825418
-0.32319808 0.28435782 0.28742146 0.032225046 0.07369797 -0.36628124 -0.26075327 0.06477386
0.27232748 -0.119633816 -0.09871927 -0.14772716 0.030930672 0.4751122 -0.4899498 0.30584046
-0.21960276 0.48014343 0.3670655 -0.21532597 0.5081145 0.27269906 0.049742755 -0.47328007
-0.20264077 0.083263375 -0.25538296 0.29877126 0.15753677 0.36523902 -0.44929555 -0.089670874
-0.21737649 -0.03041443 0.026979702 0.2398717 -0.09831094 -0.08118085 0.43539983 0.10889021
0.09383458 -0.39382643 0.26130643 -0.12836228 0.36529875 -0.29944462 -0.29152822 0.07742604
-0.10638156 0.1013131 0.08789809 0.33342293 -0.28896767 -0.30829257 0.3015755 -0.1603886
-0.46653196 -0.27583662 0.4302222 0.29583883 0.47153604 -0.19942127 0.37955695 -0.22113633
0.36408216 -0.3558644 0.39754117 -0.39579785 0.25964907 -0.23051469 -0.10382682 0.42593122

layer1.conv.bias f4 [32]
00000000: 4e73 a83e b2db 4fbe f913 e8bd 89b8 23be
00000010: 44c0 aebd 7510 cc3e 9fe6 23be 64f1 fdbd
00000020: e218 50bd c602 1bbc 31d6 f1be 4351 aebe
00000030: 9c3e 253c 8373 30bd c1a6 19be 7a61 d9be
00000040: 24a0 813e 82f2 5abe 3e86 da3e 1abe a6be
00000050: 4993 89bd 209a 053d 3078 fa3c 4590 c63e
00000060: 7f36 3ebe d4cd a13e ae69 f33e a437 6bbe
00000070: e1b5 873d c17e c7be 2518 fd3b 46d9 c43e
0.3290047 -0.20298651 -0.113319345 -0.15988363 -0.085327655 0.39856306 -0.16005944 -0.12399557
-0.05080498 -0.00946111 -0.47233728 -0.34046373 0.010085728 -0.04307891 -0.15005018 -0.4245718
0.2531749 -0.21381572 0.42680544 -0.3256691 -0.067175455 0.03261769 0.030574888 0.38781944
-0.18575476 0.31602347 0.47541565 -0.22970444 0.066264875 -0.38963893 0.0077238255 0.38447016

layer1.bn.weight f4 [32]
00000000: d4a4 493f c7db 3f3f 13f0 233f 2a0c 6f3f
00000010: 9aa8 243f 580c 773f 9bff 4a3f 6fbb 763f
00000020: 7cd8 293f e849 533f 2cbd 5c3f b67e 223f
00000030: d859 533f b9de 403f 4223 483f 90fd 303f
00000040: f861 4b3f d766 6d3f b6da 373f c210 4f3f
00000050: 34c8 733f 760a 703f cf76 553f 2156 2d3f
00000060: 4f07 573f 2841 4b3f 0121 5b3f 7b5a 213f
00000070: 9823 573f 910a 3a3f 36b4 843f 8558 403f
0.7876713 0.7494473 0.640382 0.93377936 0.64319766 0.9650321 0.79296273 0.9637975
0.66345954 0.82534647 0.86226153 0.63474596 0.82558966 0.7533985 0.781788 0.69136906
0.79446363 0.92735046 0.718181 0.80884945 0.9522736 0.9376596 0.8338441 0.6770955
0.8399553 0.79396296 0.85597235 0.6302869 0.84038687 0.72672373 1.0367496 0.7513507

layer1.bn.bias f4 [32]
00000000: b29e 033e db57 153e 3c15 fd3d cfb3 953e
00000010: 222b 873d daac e43e 55b4 013e b393 6e3e
00000020: be52 cd3e 0e87 7c3e ee40 293e 1692 023f
00000030: 4a26 973e a85f 663e a8b8 c83d 12d8 223f
00000040: 0409 d63e 2d17 523e 09cc e93e dd97 c93d
00000050: cd78 983e fce7 ad3e 3c5b a43e 92b4 c93e
00000060: 9f3c 733e 2fa6 723e 4996 083f bbd8 0a3f
00000070: 9083 993e a0a7 c03d ff02 be3e 7355 f53e
0.12853506 0.14584295 0.12357566 0.29238746 0.06600024 0.44663125 0.12666447 0.2329853
0.4010219 0.24660894 0.16528675 0.5100416 0.295214 0.22497427 0.098008454 0.6361095
0.41803753 0.20516653 0.4566348 0.09843419 0.29779664 0.33966053 0.32100856 0.39395577
0.23753594 0.23696207 0.53354317 0.54236954 0.29983187 0.09406972 0.3711166 0.47916755

layer1.bn.running_mean f4 [32]
00000000: 7e3c 9c3e 7394 ee3c 3bda 0c3d 226b 423d
00000010: 47b2 703c 8106 a13e 7344 af3c c125 a03d
00000020: 6a73 0b3e 1e96 173d cb45 923a 4004 023d
00000030: a179 7b3d 23f7 963d 4dd3 8e3c 7cb3 193d
00000040: a3cc 9d3e 84a1 1a3d e04d 373e dd13 de3c
00000050: b156 263d 6669 c43d ac6e 5e3d 1389 333e
00000060: 06a2 053d 7dc8 d23e 60bd 633e fbfe 2d3e
00000070: aef9 0b3e 4f24 8d3c 90bb a43d b97d 323e
0.30514902 0.02912352 0.03438781 0.04746545 0.014690942 0.31450275 0.021394944 0.07819701
0.13618246 0.037008397 0.0011159716 0.031742334 0.06139529 0.07371356 0.01743474 0.037524685
0.30820188 0.03775169 0.179008 0.02710908 0.04061002 0.09590416 0.054304764 0.17532758
0.03262522 0.41168585 0.2224021 0.16991799 0.13669464 0.017229227 0.08043587 0.17430772

layer1.bn.running_var f4 [32]
00000000: a0e9 dd3c a2e6 013c 478d 223c 7dbc cf3b
00000010: 3b18 173b 4c4e e43c dde3 b33b a3c7 123d
00000020: ac77 273c 1348 183c 5cc7 1138 22d6 343a
00000030: d74b a93c 970e 233c e5b5 673b 6f1f 843a
00000040: da90 903c 3fde 553c 536b 923d 250d 193c
00000050: d7e4 343c 890a c93c 48e4 173c eb64 8a3d
00000060: 5b72 fd3b c0ea a63c 81ee a03d 3a05 5d3c
00000070: 4413 263d 6493 aa3b 8ffe 373d 1a0e 453d
0.02708894 0.007928522 0.009921378 0.006339608 0.0023055214 0.027869366 0.00548981 0.03583492
0.010221403 0.009294528 3.4756362e-05 0.00068983634 0.020666046 0.009952209 0.003535622 0.0010080169
0.017647196 0.013053476 0.07149377 0.009341513 0.011040888 0.024541156 0.009270735 0.0675753
0.0077345795 0.02037561 0.07857991 0.013490016 0.040545717 0.0052055586 0.0449205 0.04810915

layer2.conv.weight f4 [64, 32, 2, 2]
00000000: c7cd 2fbd dcb3 30bb 6b2b 9fbc 29d9 39bc
00000010: de41 203c 6a22 c8bd cd3c eabd 5a5b 9abd
00000020: 8d62 a73d 9c67 a03d 5456 593d 4655 623c
00000030: bd7b 79bd 9023 dcbd 1da0 3fbd edcd 0cbd
00000040: f3ae 08bc 6062 efbc ebbc 1dbd 643a 8cbb
00000050: 1fe2 113b a56f 913e 05d4 c7bd 0ac2 3d3e
00000060: 46b6 0fbd 7cfe 88bc d4d2 533d 7afa 7abd
00000070: fb49 b7b8 8bb7 a9bd ec9c 04bd a2db 17bd
00000080: c85c a1bb 2676 3bbc 65ee 5b3d d137 83bd
00000090: 3d47 9bbb 01ee 93bd 561f 2cbd fd89 a3bc
000000a0: 334c 04be ad89 9cbc 0362 3abe 97f9 58bd
000000b0: 5f61 3a3d e493 74bd fcb5 153e dec6 d0bc
000000c0: 7706 eabd 8692 acbd 217b 38bd 68bd 9ebd
000000d0: 4e8a 903d fc32 b13d 6cc2 603d 0474 64bc
000000e0: 6add 633d 46e4 84bb 4a4b 5fbd e3d0 0cbd
000000f0: 9104 4e3d 34ae 83be 2827 3fbd 8b80 5ebe
00000100: 96ec c03d 91c4 d9bd f7be 20bd 3763 fabd
00000110: 586c 0c3d b339 93bd e914 453d 3679 8e3c
00000120: 4493 d23c fa9c 473c 83d5 acbd 518c db3d
00000130: 72c2 15bd 6a12 cbbd 31c0 2fbd 0845 ccbd
00000140: e52e 373d 72be 683d fdfa 993d 6d8c 943d
00000150: f4a1 abbb 95a8 c43d d638 983d 5fc0 923d
00000160: 5fb2 7a3d bada c93d b4a3 2bbc 4e02 933d
00000170: 021f c6bd a80f 0cbc 89e2 32bd 6048 3e3d
00000180: 7591 9cbd 55d8 9c3d 4536 d43b 7632 8a3d
00000190: 2fbe f73d fb2f 78bd d332 6a3d 7a4d f2bc
000001a0: 0cbd 8bbd 2e78 4f3e 0c87 95bd 0007 6e3e
000001b0: dcc8 033d b4e5 b8bd 9b4b 0cbb 822d 0cbe
000001c0: 47ab b03c 4b9c ebbc e759 95bd e1e7 6abd
000001d0: 5b48 0e3d 4803 893d 22af 983d 32b0 9f3c
000001e0: 585c 143d ef84 853d f8ff 103c b850 723d
000001f0: 26f0 0ebe 8808 783d a1f7 0c3c aace 503e
00000200: d8ec 8b3d 4f8b 333e 4088 a93d 31c3 9e3d
00000210: 3a28 e5bd 76cc cabd 4547 9cbc 00a1 d1bd
00000220: fafe e5bc 1e20 83bd 2a38 c6bd 3b0e 06be
00000230: 9e72 7a3d 7342 da3c 5354 963c fcb6 ccbc
00000240: 555d 103c 832d 1dbe 4b52 37bb bd1a 913a
00000250: b7fc 1fbd 8b1b 2abd 01ff 973d 9c80 ae3c
00000260: 4e25 9cbd cb63 923d 594d acbb f2e2 b83d
00000270: 9338 5dbd 1d63 86bd 0f69 e73c 7c46 1a3d
00000280: bb88 743d e912 c53d 62a7 0b3e 9166 7d3d
00000290: 63b8 023d dbcf fc3c 25d6 093d 6b75 6abd
000002a0: 965a 9f3d d5b7 803d 0099 02bd 74e9 5f3d
000002b0: 904e c63d 0345 a43c 9927 7bbd 227e a0bd
000002c0: d258 123d 0a6e 213e 0774 1a3d 572f 073c
000002d0: 0138 c6bd 6739 60bb d7a1 2c3e b95d 123e
000002e0: 38b5 cebc db28 a9bd 2f97 38bd 8731 00be
000002f0: ba39 fe3d 7822 333d 7d6d 93bd 0af1 debd
00000300: d6f5 1abe 138b adbd e0f1 5e3d 4e1b d4bd
00000310: 8a82 91bd 6fe5 c7bc cb5c f53d fb32 093e
00000320: 81b4 18bc cf1a 67bd 082b 48bc 6696 08bd
00000330: 4ba3 fbbc 0d75 35be 59f2 323d 8992 22bd
00000340: ec07 40bd 147b 0dbe ce78 8abc 6d3e 50bd
00000350: dd22 1cbe 9f21 b6bd 614c fd3d 6f26 113d
00000360: 9d15 23bd 1d7e d4bb 4e0c 76bd d72b a9bc
00000370: f62a dc3d 34d1 b5bb 4d0c 5ebd b185 703d
00000380: eb4a 923c 5917 ea3d 5ae8 0c3d e0dc 32bc
00000390: 4ee6 52bd 5db0 d5bd 8334 903c a5f0 9fbd
000003a0: c70e 733d d1e9 8abd f42c 83bd 6e24 92bc
000003b0: 2ec2 373e 986b 423e e2c0 c43d a573 f33c
000003c0: 6386 113e 5b3f ab3d d4fd d13c 51e7 4d3d
000003d0: 4c62 0abe d6ca abbd 9470 a4bc 6bdb dabd
000003e0: 60f1 d8bb ab94 f63b 795d 5a3d be85 5bbd
000003f0: f8b2 a1bc 4ae7 d9bc ee34 693d a881 913d
-0.042920854 -0.0026962673 -0.019429883 -0.011343279 0.009781329 -0.09772189 -0.11437378 -0.07536955
0.08173094 0.07832262 0.053060845 0.013814276 -0.06090902 -0.107489705 -0.046783555 -0.034376074
-0.008342492 -0.029221714 -0.038510244 -0.0042794216 0.0022260023 0.2840549 -0.097572364 0.18531051
-0.03508594 -0.01672291 0.051714733 -0.06127403 -8.7399e-05 -0.08286961 -0.032376215 -0.037074693
-0.0049243905 -0.011441743 0.053694148 -0.064071305 -0.004738717 -0.0722313 -0.04202207 -0.019963259
-0.12919693 -0.019108618 -0.18201451 -0.052972402 0.045503017 -0.059711352 0.14620203 -0.025485452
-0.11427014 -0.08426385 -0.0450393 -0.0775097 0.070576295 0.086523026 0.054872915 -0.013943676
0.05563108 -0.0040555326 -0.05451516 -0.034378897 0.050297324 -0.25718844 -0.0466682 -0.21728723
0.09420125 -0.10633195 -0.03924462 -0.12225955 0.034283012 -0.0718874 0.048115645 0.017391782
0.025704987 0.012183422 -0.08439162 0.107201226 -0.03656239 -0.099156216 -0.042907897 -0.09974104
0.044722456 0.056822248 0.07518575 0.072533466 -0.005237812 0.09602467 0.074327156 0.07165598
0.061205264 0.09856172 -0.010476042 0.07178174 -0.09673883 -0.008548655 -0.043673072 0.04645574
-0.07644931 0.076584496 0.006476196 0.06747906 0.120968215 -0.060592633 0.057177376 -0.02957796
-0.06823167 0.20260689 -0.07301149 0.23244858 0.032173976 -0.090281874 -0.002140737 -0.13689235
0.021566046 -0.02876105 -0.07292538 -0.057350043 0.034736972 0.06690079 0.07455279 0.019493196
0.03622088 0.06519496 0.00885009 0.05915901 -0.13958797 0.06055501 0.008603961 0.20391336
0.06832284 0.17533611 0.08277941 0.077520736 -0.11189313 -0.09902279 -0.019076953 -0.102357864
-0.028075684 -0.0640261 -0.09678681 -0.13091366 0.061144464 0.026643014 0.018350756 -0.024989597
0.008811315 -0.15349393 -0.0027972634 0.0011070591 -0.039059367 -0.041530173 0.07421685 0.02130156
-0.07624303 0.0714794 -0.005258244 0.090276614 -0.05400903 -0.06561873 0.028248338 0.037664875
0.05970071 0.096227475 0.1363807 0.061865393 0.031914126 0.030860832 0.03365149 -0.057240885
0.0778095 0.06285063 -0.031884193 0.054665998 0.09682953 0.020052439 -0.06131706 -0.07836558
0.035729237 0.15764633 0.03770831 0.008251033 -0.09678651 -0.0034213902 0.16858612 0.14293565
-0.025232896 -0.08259746 -0.045066055 -0.12518893 0.12413354 0.043734044 -0.071986176 -0.10885818
-0.15132841 -0.08473792 0.05442989 -0.103567705 -0.071049765 -0.024401395 0.119805895 0.13398354
-0.009320379 -0.05642205 -0.012217291 -0.033346556 -0.030717513 -0.17720433 0.043688152 -0.039690528
-0.046882555 -0.13816482 -0.016903307 -0.050840784 -0.15247674 -0.088931315 0.12368084 0.035437044
-0.039815534 -0.0064847604 -0.06007033 -0.020650787 0.10750382 -0.0055486206 -0.05421095 0.058721248
0.01785799 0.114302345 0.034401275 -0.0109169185 -0.051489167 -0.10434029 0.017603165 -0.07809571
0.059340265 -0.06782878 -0.064050585 -0.017839637 0.17945167 0.18986356 0.09607102 0.02971823
0.1421142 0.083616935 0.02563373 0.05026943 -0.1351406 -0.08388297 -0.020073213 -0.10686382
-0.006620571 0.007525047 0.0533118 -0.053594343 -0.01973866 -0.026599545 0.056935243 0.07104808

layer2.conv.bias f4 [64]
00000000: 9c28 4e3d 9a53 a3bb ac91 673d ee83 18bd
00000010: 5c54 e8bb 1d31 25be 67dd c73d fa31 54bd
00000020: 3f97 e1bd 1d0e fe3d 24cb 823d 470e b0bc
00000030: ece7 91bd 1076 b5bd d592 623d 2e28 f03c
00000040: 44bb 623d d154 523e f0b2 063e 0212 64be
00000050: 7baa 14be aced 8b3c 682e 2c3e da70 23be
00000060: f64f 8e3b dfcb 51bc 9251 3dbe 0b5b a5bd
00000070: e1ed d53d 809e ab3d 4ec1 8ebe f526 fc3c
00000080: 7b6f b53d a049 ab3d b32b c0bc f666 893a
00000090: d5bf 103e 9a4d 1bbb 021d e0bd 0e1a db3d
000000a0: 25a1 dabd 6d68 203e 5e0b 8fbd 2252 9ebc
000000b0: 674b 573d dffb 663d 01c6 093e 3196 3ebd
000000c0: 9a9f 5cbe 7bfa debd b0da a03d 734c 003d
000000d0: 37ab ac3d 6aae 75bc ab98 eabc c7ff 04bc
000000e0: 24f9 5cbc 4020 403d 158d 4bbe 31af baba
000000f0: 4c76 643d 2309 db3c b8c9 eb3c aa0f 273e
0.050331697 -0.0049843313 0.056535408 -0.037235193 -0.0070901345 -0.16132016 0.09759026 -0.051805474
-0.11015176 0.12405036 0.06386402 -0.021491183 -0.07124314 -0.08860409 0.05531581 0.029316034
0.05535437 0.20540167 0.13154197 -0.22272494 -0.14518158 0.017081104 0.16814578 -0.15961018
0.004343028 -0.012804954 -0.18488148 -0.08074006 0.104457624 0.08379841 -0.27881855 0.030780295
0.08859154 0.08363652 -0.023458337 0.0010482955 0.14135678 -0.0023697377 -0.10943033 0.10698329
-0.10675267 0.15664835 -0.0698459 -0.019326273 0.052562144 0.056392547 0.13454439 -0.046529952
-0.21545258 -0.10887619 0.07854211 0.031322908 0.08431094 -0.014995197 -0.02863725 -0.008117623
-0.013487134 0.046905756 -0.19878037 -0.0014242885 0.05577688 0.026737755 0.02878271 0.16314569

layer2.bn.weight f4 [64]
00000000: 2336 5f3f 8be9 3c3f e640 5a3f b158 3a3f
00000010: 7f26 373f fae4 4e3f 72de 483f dd2b 453f
00000020: 8f49 523f 0c52 2e3f 539a 913f 5449 3b3f
00000030: 09e9 273f becb 643f ad66 4e3f e3a7 253f
00000040: 79b9 353f ffff 563f 90fb 2d3f 5e33 433f
00000050: 283a 623f 0133 5c3f d76b 5c3f 874f 503f
00000060: c6aa 363f e0a9 323f cf41 3e3f 4fc7 4f3f
00000070: 2133 2b3f 7b4b 6e3f 7ebe 443f 71d0 393f
00000080: f608 433f acc4 4d3f 8ca6 643f dc89 4b3f
00000090: 5022 3a3f 6085 3b3f dc2a 363f 5e57 813f
000000a0: 807e 613f 7bb4 3c3f 21e3 203f e5c1 323f
000000b0: 8e29 663f 9f2b 6f3f 2600 363f 593a 4b3f
000000c0: f1b3 5a3f 92ca 3e3f 3c93 4f3f 1084 2f3f
000000d0: 7832 383f ef57 533f dfb3 6a3f c4f7 573f
000000e0: 84b8 4d3f 5781 453f 86b2 393f bd2f 403f
000000f0: 8cec 423f 8d00 703f 63ae 583f 09e3 503f
0.8719198 0.7379386 0.8525528 0.7279158 0.71543115 0.8081814 0.78464425 0.77020055
0.8214349 0.68093944 1.1375221 0.73158765 0.6558996 0.89373386 0.8062542 0.647093
0.70986134 0.8398437 0.6796198 0.76250255 0.8836999 0.86015326 0.8610205 0.8137135
0.7135433 0.6979046 0.74319166 0.81163496 0.6687489 0.93083924 0.7685317 0.7258368
0.7618555 0.8037822 0.8931663 0.7950723 0.72708607 0.7325039 0.7115915 1.0104787
0.8808365 0.7371289 0.6284657 0.6982711 0.8990716 0.93425936 0.71093976 0.79385906
0.8543082 0.7452785 0.81084037 0.68560886 0.7195201 0.8255605 0.9168071 0.84362435
0.80359674 0.7715048 0.7253803 0.7507284 0.7614219 0.9375084 0.84641093 0.8159643

layer2.bn.bias f4 [64]
00000000: a7d6 703e ced6 c43d 046a 213e 566d 343e
00000010: 7bd4 29bd 3d34 ec3d b6c1 cc3e 6801 513e
00000020: 331e 083e 9fe8 a03e 43ad 063f d8c8 173e
00000030: 0875 b93d 9462 8b3e 69d7 653e 3a77 183f
00000040: 9c20 403e 1458 993e b3e6 ea3d 211b 593d
00000050: 5939 2a3e 7206 703e 5767 103e 15d3 bd3d
00000060: 8884 f2bb 6914 27bd 4faa 7e3d ab75 1d3e
00000070: 88c7 683e 89bc 463f af86 473d 1ea9 0c3e
00000080: 09e0 7e3e 74b9 2b3e 1957 02bd a006 493e
00000090: 7691 e53e 534d a33d 28c8 bc3d 645f b23e
000000a0: 0432 2d3e 501e ec3d bd2d 9c3d 9908 58bd
000000b0: e883 673e 8d27 803e 00e1 5c3e ee02 aaba
000000c0: bf92 3a3e 33ee b53d c6b3 cd3e f193 e43d
000000d0: b05c 0c3e 261f 2b3e 3e82 293e 4f3c 3a3e
000000e0: aed6 5c3e 1c53 063e 9e9f c93d ae50 0bbd
000000f0: 4f28 693e 2121 4b3e 60a1 7d3e ce18 5c3e
0.23519383 0.09611283 0.15763098 0.17619833 -0.041462403 0.11533401 0.3999154 0.20410693
0.1329277 0.31427476 0.52608126 0.1482271 0.09055525 0.27223647 0.22445454 0.59556925
0.1876244 0.2995001 0.11469784 0.053004388 0.16623439 0.23439959 0.14101921 0.09268776
-0.007401053 -0.04079095 0.062174138 0.15376918 0.22732365 0.7763143 0.04871243 0.13736388
0.2489015 0.16769964 -0.031821344 0.19631433 0.4483754 0.07973733 0.09217864 0.34838402
0.1691361 0.11529219 0.076259114 -0.052742574 0.22608912 0.25030175 0.21570206 -0.0012970844
0.18220042 0.088833235 0.4017622 0.1116103 0.13707232 0.16711101 0.1655359 0.18187068
0.21566269 0.13117641 0.09844898 -0.03401249 0.22769283 0.19836856 0.24768591 0.21493837

layer2.bn.running_mean f4 [64]
00000000: 14c3 fe3e 358b 343f 938e 7e3e c6b6 9c3e
00000010: 586f 1a3e 8c9d 003e 8d03 b63e 6257 b63e
00000020: f0ed 523e d23a 123f d57b 913e 9754 a43f
00000030: 8fff 873e 750a d43e 1c81 803e 5a97 3a3f
00000040: ec20 083f 261c 9c3e 3060 4c3e 6d3b c43e
00000050: 177d e93e e579 933e e036 013e 2fcc 8e3e
00000060: 70fc 143f e173 a33f f6cc 613e 861e 223f
00000070: 9a39 9c3e 47a0 753f 7242 cc3d 6b42 063e
00000080: d679 983e 0934 5f3e c4a5 ff3f 6ca7 183e
00000090: 139e f93e 3e06 4a3f a557 3e3e a4d0 4c3e
000000a0: e165 a63e 32d2 1b3e a9d7 ec3d 208f 823f
000000b0: 8727 ac3e 421e 903e 3b9a 893e 1829 ba3e
000000c0: 0437 013f d633 5a3d f973 b23e 7377 bb3e
000000d0: fccf 233e 7b35 9b3e 19a8 943e de2a a93f
000000e0: a2e8 dd3e dfaf 9f3e 360f 9c3e 4e14 1b40
000000f0: fa47 1b3f c650 953e a88e d23e a669 ef3e
0.49758208 0.70524913 0.24859075 0.30608195 0.15081537 0.125601 0.35549584 0.35613543
0.20598578 0.57121 0.2841479 1.2838315 0.26562163 0.41414228 0.25098503 0.72887194
0.53175235 0.30490226 0.19958568 0.38326588 0.45603248 0.28803936 0.1261859 0.27890155
0.5819769 1.2769738 0.22050843 0.63327825 0.30512697 0.9594769 0.09973611 0.13111274
0.29780453 0.21797194 1.9972463 0.14907616 0.48753414 0.78915775 0.18588121 0.20001465
0.32499602 0.15216902 0.115645714 1.0199928 0.33623907 0.28148085 0.2687548 0.36359477
0.5047457 0.05327209 0.34854105 0.3661457 0.15997308 0.3031424 0.29034498 1.3216207
0.43341547 0.31188866 0.30480355 2.4231143 0.606567 0.29163188 0.41124463 0.4676029

layer2.bn.running_var f4 [64]
00000000: 851f cd3f d9db 6e3f 68a9 c93e cc94 a83e
00000010: 0963 cd3e 26ae 603e 106d 7a3e 18f8 3f3f
00000020: 3c03 a83e fadf ed3e ea2a a13e 2c08 1140
00000030: f8b8 113f 1841 763f fab4 933e e693 0d3f
00000040: f293 553f 1456 b93e 6502 723e 7d44 4c3f
00000050: b45c b13f 5e9b e43e 997a 503e 966a 203f
00000060: 4b40 6f3f 81bc 973f ffc1 d03e 229a 463f
00000070: 0fab 743e acb9 6b3f 30d0 4c3e 40c3 3e3e
00000080: 7c63 9b3e 05a1 9b3e dc64 0b40 1e9d aa3e
00000090: 76fd d73e 9512 403f 54d6 c93e 7617 6c3e
000000a0: 7af8 413f 3f52 6b3e 4d07 113e 473b c03f
000000b0: 6e9c 4a3f f695 ba3e db77 503e 9a8b c33e
000000c0: c986 af3f 2235 893d 3155 8f3e 2c3d f23e
000000d0: ebde 9d3e 9701 803f 3e68 223f 6771 2b40
000000e0: c7d2 173f 6e01 0e3f 1023 3c3f ec7b f83f
000000f0: d5f1 1f3f 2838 3a3f cd41 3b3f bd6a 1f3f
1.6025244 0.9330421 0.3938706 0.32926023 0.4011462 0.21941432 0.24455667 0.74987936
0.32814968 0.46459943 0.31478053 2.2661238 0.56922865 0.96193075 0.28849012 0.553038
0.8342887 0.36198485 0.23633726 0.79792005 1.3856416 0.44649786 0.20359267 0.6266264
0.9345748 1.1854402 0.40773007 0.7757894 0.23893379 0.9208019 0.20001292 0.1862917
0.30349338 0.30396286 2.178031 0.33322996 0.42185563 0.75028354 0.39421332 0.23055825
0.7576977 0.22980593 0.14162941 1.501809 0.7914494 0.36442536 0.20358221 0.38192445
1.3713008 0.066995874 0.27994683 0.47312295 0.30834135 1.0000485 0.6344031 2.6787965
0.59305996 0.5547093 0.73491 1.9412818 0.6247838 0.7274194 0.7314728 0.62272245

layer3.conv.weight f4 [128, 64, 2, 2]
00000000: 82c1 713d bcf2 80bd b2c7 183d c72d 41bd
00000010: 377f 0fbe c65c d6bd 473f c9bd 2eed 08be
00000020: af61 1dbe ac61 bdbd 76a3 babd 8e55 41bc
00000030: 8b0c 71bd 1de4 473c cabe eabc de0e 843d
00000040: 1a54 b9bd 72dd 23bd edb8 0cbe 4856 1cbd
00000050: 3c76 823c 32af 2cbc 85af f53c 82e1 ddbd
00000060: c0c8 03bc c09d 1a3d 7cdd 43bd 9f59 25bd
00000070: fdf5 213d 9531 2c3c 8985 ccbc da23 33bd
00000080: 65e8 0d3e 29b7 18ba bbc0 8d3d 5128 bcbd
00000090: 1e2a 863d 1169 8b3d 32ea 3dbd 630f 33bd
000000a0: 21df b7bd b160 35bd bac2 943c 8615 febc
000000b0: 1f76 623a 1408 1ebd f194 a2bd 15bc 54bd
000000c0: ddf1 a5bd 71f5 d2bd 8750 06be f625 8dbd
000000d0: aa35 b33d 0614 bc3d 2637 beb8 0d1b eebc
000000e0: 31d8 743d 2a62 bc3d d186 8c3d ee93 29bd
000000f0: 3432 1a3d 7aed 0e3d 83c3 c83c 7617 243d
00000100: d502 24bb e52b 1dbd a651 2abb 21f8 febc
00000110: a8a1 843d 5595 9c3c cd56 993c f2cc 0bbe
00000120: 5249 173d 2e0e cfbc 1e50 c13d 790c 2d3d
00000130: b99e 6fbb b5f2 9f3c bcb9 91bc 7b85 66bd
00000140: 11e5 23bd 224d 11bd e46c e6bd 4f7e a8bd
00000150: 702d 13be 043a b0bd 2c1c 50be 8e16 a4bd
00000160: b3ff 96bd 0296 ffbd 414f 53bd e2c7 c4bd
00000170: b71a f7bd ab84 2cbe e504 cdbd c00e 17be
00000180: 695b 83ba a85f 0f3d c362 a33b 1d83 66bd
00000190: 2a47 aabb 1131 b9bc aa0e 99bc e9e4 18bd
000001a0: 3739 8cbd 20fa bcbd ba2e 16be 3c2d 43bd
000001b0: c957 07be 1607 58bd 408e e8bd 1bfe 16be
000001c0: 0a86 a2bd f4ae 73bd 524c b83c 88b1 6b3d
000001d0: 1ac2 3bbd 6e16 cebc dd4f 19bd f885 933c
000001e0: 10f3 40bd 15cd c6bd d15e 22bd ebb4 0cbe
000001f0: 771e 233d 49b4 c23d 984e e53c c3a2 9f3d
00000200: 3049 b6bc e648 793d cab6 67bd 4348 ed3d
00000210: ebcc 2f3d 4609 993b d1ce 213e 6b3f 9f3c
00000220: 4e62 58bd abbc 1cbd de61 27be 9afe 99bd
00000230: 6da7 273d 1160 c9b9 ae85 07bc 5558 84bc
00000240: 9f2e ddbc abec 9abd 82fb c33b ddf8 11bd
00000250: bb9b 99bd 5c76 e1bb 8027 17bd 11de 973d
00000260: bb47 a7bc 37a9 c63d c482 f93c 502f 593c
00000270: f509 4e3d 20c0 c73d c315 eb3c 3d9b d6bd
00000280: 8820 613d f2f2 523d 2c72 bc3d 4637 10bd
00000290: 70e6 9fbc 0b5b 50bd 238c e43c 2704 943c
000002a0: f11e 2c3c cb50 703d 6865 f9bd bad7 4bbd
000002b0: 6a88 2e3d 07f3 463d 5b2a 86bd ce77 803d
000002c0: 3d72 03bd 58a5 9e3d 6acd 72bd 21a5 e2bc
000002d0: 131c efbd 0099 a53d a551 f7bd 263a 733c
000002e0: b85f 503c 5050 353d cd7d 3b3e 1f46 83bc
000002f0: 0031 b8bd a6dd 91bd 8120 58bd 834f 0bbe
00000300: 1f5f 0a3d 8e3a c73c 0c17 29bd 8c2a b5bd
00000310: c96c dabd 9535 41bd 38b2 d3bd b711 6abe
00000320: dce4 25bb 2585 2dbd 8595 afbb be7f 2c3c
00000330: 170d 2a3d 67fb 2f3d e891 ac3d 0f62 31bd
00000340: 6690 b73d 28eb 603c 6a31 3a3d fc09 75bc
00000350: 2ff3 203d 6c27 11bc 4c2e 613c 00b9 bb3c
00000360: e030 f53b 2560 453c cb92 84bc 0cfe e83d
00000370: 5af5 153c 69ed debc d2f5 9e3b 5f20 26bd
00000380: 8788 063d 6377 873d c925 603d 3497 473e
00000390: 3353 b3ba b45b 51bd f284 ba3c e9f9 e2bd
000003a0: d7f5 303d b440 04bc 8f51 93bb 9e2b 49bd
000003b0: b66d abbd 5ae2 64bd f251 45bd edaf d6bd
000003c0: a63e f8bc 225f 6c3c 3c80 02bc fb9d 903d
000003d0: cb07 c0bd 59ff 8ebd 04e3 05be 2c61 55be
000003e0: d434 1abd aa5f 13bd 1128 8cbb 9954 25bd
000003f0: e15d b43b db4b a4bd 513b 4dbb cbfc 26be
0.059022434 -0.06296298 0.03729982 -0.047162797 -0.14013372 -0.10466914 -0.09826522 -0.13371727
-0.15369295 -0.09247145 -0.09113209 -0.011800183 -0.058849853 0.012200383 -0.028655428 0.06448148
-0.09049244 -0.04000611 -0.13742419 -0.03816822 0.01592552 -0.010539817 0.02999092 -0.10834028
-0.008043468 0.0377481 -0.047818646 -0.040368672 0.039541233 0.010509868 -0.024966018 -0.043735363
0.13858183 -0.0005825633 0.06921526 -0.09187377 0.06551002 0.06807149 -0.046365924 -0.043715846
-0.08978105 -0.044281665 0.01815926 -0.031016123 0.0008638817 -0.038581923 -0.079385646 -0.05193718
-0.081027724 -0.103007205 -0.13116656 -0.06892006 0.0875047 0.09183507 -9.070178e-05 -0.029065633
0.05977649 0.09198411 0.06861652 -0.041400842 0.037645534 0.034894444 0.02450729 0.040061437
-0.0025026102 -0.03837194 -0.0025988608 -0.031124176 0.06476146 0.019114176 0.018718148 -0.13652399
0.036935158 -0.025275316 0.09439109 0.042248223 -0.0036563112 0.019524911 -0.01778876 -0.05627964
-0.040013377 -0.03547395 -0.11251238 -0.082272165 -0.14372802 -0.086048156 -0.20323247 -0.080121145
-0.073729895 -0.124797836 -0.051589254 -0.09608437 -0.12065642 -0.16847484 -0.10010699 -0.1475172
-0.0010021749 0.035003334 0.0049861385 -0.056277383 -0.0051964717 -0.022606404 -0.01868375 -0.03732768
-0.0684685 -0.09227395 -0.14666262 -0.04765056 -0.13217081 -0.052741133 -0.11355257 -0.14745371
-0.07935722 -0.05949302 0.02249733 0.057542354 -0.045839407 -0.02515718 -0.03742968 0.018008217
-0.047106802 -0.09707085 -0.039641205 -0.1374089 0.039823975 0.09507043 0.027991578 0.07794716
-0.022251695 0.060860537 -0.056570806 0.115860485 0.042920034 0.004670295 0.1580155 0.01943942
-0.052828126 -0.038265865 -0.16345927 -0.075192645 0.040931154 -0.00038409283 -0.008271618 -0.016155401
-0.02699977 -0.07564672 0.00598091 -0.035637725 -0.07500406 -0.0068805646 -0.036902905 0.07415403
-0.020419946 0.09700244 0.030457862 0.013255909 0.050302465 0.09753442 0.0286969 -0.10478828
0.054962665 0.051501222 0.09201464 -0.035208963 -0.01951906 -0.050868075 0.027898854 0.018068386
0.010505424 0.0586708 -0.12177545 -0.04976628 0.042610563 0.048571613 -0.065510474 0.06272851
-0.032091368 0.077463806 -0.05927793 -0.02766663 -0.116752766 0.08085823 -0.12076119 0.014845407
0.012718134 0.044266045 0.18309708 -0.016024647 -0.08993721 -0.07122354 -0.052765373 -0.1360455
0.03378212 0.024319913 -0.041281745 -0.08846006 -0.1066528 -0.04717024 -0.10336727 -0.2285832
-0.0025313413 -0.042363305 -0.0053584003 0.010528503 0.04151639 0.042964365 0.08426267 -0.043306407
0.08963089 0.013727941 0.04545728 -0.014955994 0.039294418 -0.008859497 0.013743948 0.022915363
0.007482633 0.012046848 -0.016183278 0.113765806 0.009152735 -0.027212815 0.0048510814 -0.040558215
0.032845046 0.06614568 0.054723535 0.19491273 -0.0013681412 -0.051112846 0.022768471 -0.11082823
0.0432032 -0.008072067 -0.0044958065 -0.049113862 -0.08370535 -0.05587993 -0.048173852 -0.10482774
-0.03030331 0.014426978 -0.007965144 0.070613824 -0.093764864 -0.069822975 -0.13074881 -0.2083785
-0.037648037 -0.035979904 -0.004277237 -0.04036388 0.0055043553 -0.08022281 -0.0031315873 -0.1630737

layer3.conv.bias f4 [128]
00000000: 608b a4bd 8631 bfbc 9869 abbe 76f3 50be
00000010: f336 7dbe 8040 e5bd 7050 00be 265b 2fbd
00000020: bbb7 00be 9ca0 19be 9d6c a6be 2660 04be
00000030: 072e cdbe b0e5 383b 06d5 22be b113 7bbe
00000040: 95a3 5fbe e28a 193c 9fcc 59be 3e5f aa3d
00000050: 7932 9cbe 0a9e dabd 2856 d2bc 6032 c6be
00000060: 444f 20be e1f2 bbbc cee6 23be 6d97 9f3b
00000070: 6299 60bd d239 06be 8503 12be 011d 21bd
00000080: baba 88bd 1205 19bd 5c97 26bb 3387 bebc
00000090: c275 88bd 0918 10bd b2f8 b8bc 0ed0 f0bd
000000a0: c43e be3b c740 bfbb da84 57bc 64d1 1dbe
000000b0: 9874 8cbe b5eb 81be a511 66be a0a8 16bd
000000c0: be33 46be f725 fcbd 5271 c2be 8ac8 b4bd
000000d0: dfe1 45be 2a1d 183e 7251 5dbb d99b 6bbd
000000e0: 09d5 a93d a284 863c fe77 b0bd 4681 c8bd
000000f0: 9d5d 27be eecc 46be d8fe b8bd eb99 e7bd
00000100: 0c00 873d e2d5 7dbe d71b d8bd 792a 29be
00000110: a11e 693d 2e61 a5bd ba1c 7fbe 3623 33bd
00000120: 565a d7bd 3c97 34be 54c8 b9be 8723 2c3d
00000130: c0a4 29be e80a dfbd 330f b0bc 47ed 9e3c
00000140: 5199 85bd c95f 3bbd df72 64bd bcc0 e3bd
00000150: cf30 cfbd cd39 22be 4a2f 12be 7249 33be
00000160: f268 c5bd cda3 21be 85e8 02be 94fd 473d
00000170: 6d8a b4be 8b94 aabd e334 58bd 25a9 79be
00000180: 64f7 c5bd bfe9 d33c 5a08 eebc 86c4 1ebe
00000190: f48d 83be 63c9 87be e6f6 9bbd 8ad2 07bc
000001a0: fcff 1e3d 3ec2 a4bd 8d9f 01be f761 9bbe
000001b0: 7fce 9ebb 4f8d 44be c545 98be c695 71bd
000001c0: 1b69 8cbe 1fde 2cbe f008 9bbb f3f7 c1bc
000001d0: 6d19 8abd cdab 1bbe 5866 1dbe 461b 03bd
000001e0: 2629 cdbe ab33 b33c 26a0 8ebd 29bc 263d
000001f0: c0f7 26be df25 22be cf5c e4bd 8a25 0fbe
-0.08034396 -0.023339044 -0.33479 -0.20405373 -0.24727993 -0.11193943 -0.12530684 -0.042811535
-0.12570088 -0.15002674 -0.3250474 -0.12927303 -0.4007418 0.0028213076 -0.15901574 -0.2451923
-0.21839745 0.009371491 -0.21269463 0.08318947 -0.30507258 -0.10674675 -0.025675848 -0.38710308
-0.15655237 -0.022942962 -0.16006014 0.0048703463 -0.054833777 -0.13107994 -0.14259155 -0.0393343
-0.0667624 -0.03735835 -0.0025419807 -0.023257827 -0.066630855 -0.03517917 -0.022579525 -0.11758433
0.005805822 -0.0058365795 -0.013154233 -0.15411907 -0.27432704 -0.25375143 -0.22467668 -0.036781907
-0.19355676 -0.12311929 -0.37977082 -0.08827312 -0.19324444 0.14854875 -0.003377047 -0.057521675
0.08292586 0.016420666 -0.08616637 -0.09790282 -0.16344304 -0.19414112 -0.090329826 -0.113086544
0.06591806 -0.24788621 -0.10552185 -0.16520108 0.056913976 -0.08075176 -0.24913302 -0.04373475
-0.10515277 -0.17635816 -0.3628565 0.04202607 -0.16566753 -0.10890752 -0.021491623 0.019400252
-0.065233834 -0.045745645 -0.055773612 -0.111207455 -0.101167314 -0.15842362 -0.14275852 -0.17508486
-0.09639157 -0.15785141 -0.12784012 0.048825815 -0.3526186 -0.083291136 -0.05278481 -0.2438093
-0.09666327 0.025868295 -0.029056717 -0.15504655 -0.2569424 -0.26520833 -0.076154515 -0.0082899425
0.038818344 -0.08044861 -0.1265852 -0.3034818 -0.0048463936 -0.1919453 -0.2974073 -0.058980726
-0.2742394 -0.16881607 -0.00473129 -0.023677802 -0.06743131 -0.15202256 -0.15371072 -0.03200843
-0.40070456 0.021875223 -0.0696414 0.040706787 -0.16305447 -0.15834759 -0.11150514 -0.13979164

layer3.bn.weight f4 [128]
00000000: a1f7 483f 9c7e 4b3f 6996 403f 5457 2f3f
00000010: 60ea 263f 47b8 5a3f f6c6 3d3f 5c5b 4e3f
00000020: 5ca1 633f fe76 303f fbea 323f 87c9 4f3f
00000030: 576c 453f 2622 2e3f a663 323f 61c2 4b3f
00000040: 72c8 3d3f e81e 443f 768b 443f 8f4b 6c3f
00000050: 0b4b 6d3f 9d1e 2b3f b220 3e3f 34aa 513f
00000060: ce09 393f 4082 453f 8fee 303f d344 633f
00000070: f5c0 5d3f e1f4 373f 5730 6c3f 4270 6f3f
00000080: 63d6 483f e864 343f 5088 4b3f 0296 493f
00000090: 8844 5c3f c150 633f 07a8 503f 1a21 573f
000000a0: ac2a 2d3f c915 453f 04aa 383f 96d7 413f
000000b0: 8744 563f cf70 223f 29f0 3f3f 1cf6 373f
000000c0: c53b 683f ce24 573f 9560 783f fb4b 453f
000000d0: 70c2 1d3f b4ee 543f da39 423f f54d 4a3f
000000e0: 5334 343f 8146 3d3f f137 553f 137b 6c3f
000000f0: 10e6 563f 06db 363f 5d68 553f a00d 393f
00000100: 16c7 4e3f d802 473f b031 5b3f c794 353f
00000110: 0d85 3f3f 5c5d 1c3f d994 343f cee9 3b3f
00000120: e6a9 363f cbbc 3f3f 0afc 483f 3526 433f
00000130: ba06 393f 4034 653f d404 403f f5ba 3a3f
00000140: 6904 413f 2d7a 5e3f b062 403f f3cc 333f
00000150: 709b 293f 2541 453f 4688 3e3f 93ff 463f
00000160: 5c90 3b3f 1aed 3f3f 412b 563f 190e 4f3f
00000170: 7199 363f eed0 503f 366c 593f aae5 503f
00000180: dd10 4c3f 6172 5e3f c21a 433f de91 3c3f
00000190: 2d42 493f 894d 3d3f f165 2b3f a574 573f
000001a0: 35cf 3d3f 7586 493f a1c5 2f3f e03d 4b3f
000001b0: 4ed1 443f f093 383f 8757 5e3f ccf9 613f
000001c0: 64b3 6b3f 68a0 3d3f 853c 413f f2b8 343f
000001d0: 778b 4c3f 1241 3c3f f81e 583f ae0d 363f
000001e0: 3b48 533f 698e 313f 748d 1f3f 77cc 973f
000001f0: 124c 473f 7098 5b3f 2b11 483f 3dbb 383f
0.7850285 0.79490066 0.7522951 0.6849263 0.6520138 0.85437435 0.74131715 0.80608153
0.8891809 0.6893157 0.698898 0.8116688 0.7711844 0.68020856 0.696833 0.79593474
0.7413398 0.7660966 0.767753 0.92302793 0.9269263 0.6684359 0.7426864 0.81900334
0.72280586 0.7715187 0.6911401 0.8877689 0.86622554 0.7185803 0.9226126 0.93530667
0.7845213 0.7046647 0.7950487 0.7874452 0.8604207 0.88795096 0.8150639 0.84034884
0.6764324 0.76986367 0.72134423 0.75719583 0.83698314 0.6345338 0.7497583 0.7185991
0.907162 0.84040534 0.9702237 0.7706906 0.61624813 0.8317673 0.75869524 0.79025203
0.7039234 0.73935705 0.83288485 0.92375296 0.839448 0.71427953 0.8336237 0.72286415
0.8077253 0.77738714 0.8562269 0.7093014 0.74812394 0.61079955 0.70539623 0.7340363
0.71352994 0.7489745 0.7850958 0.76230174 0.7227589 0.8953285 0.7500737 0.72941524
0.75397354 0.86905175 0.75150585 0.702346 0.66252804 0.7705253 0.74426687 0.77733725
0.7326715 0.74971163 0.8365975 0.80880886 0.71327883 0.815688 0.8493074 0.8160044
0.7971323 0.8689328 0.76212704 0.73660076 0.786166 0.73946434 0.66952425 0.8416236
0.741443 0.7872079 0.6866093 0.7939129 0.76881874 0.72100735 0.86852306 0.88271785
0.92070603 0.74072886 0.7548297 0.70594704 0.79900306 0.7353679 0.84422255 0.71114624
0.8253209 0.69357926 0.62325215 1.1859273 0.7785045 0.85779476 0.78151196 0.721607

layer3.bn.bias f4 [128]
00000000: 38f6 043d b059 6f3d 5139 733c b27b cbbd
00000010: 975a 80bd 994a be3d a038 12bd c3ff db3d
00000020: bcd5 873d f786 ecbc fbc8 e9bd 398c c43d
00000030: f54a 67bc bf2a b93c dc06 7b3c 42c7 013d
00000040: 5182 753c 0996 a23d e7ca 60bc 7af1 6f3e
00000050: a4db 163c defd c83c c4ad 7d3d 40e7 9ebc
00000060: e8c6 09bd df5e 003c 6fa8 123c 5e04 233e
00000070: 724b 113e 0476 9a3d f7fe 563d d4db d23d
00000080: 054f 8d3b a979 76bc 832f 9bbd 3b13 b03d
00000090: 2d6a a83d a751 263e 01a0 ce3d 3388 bc3d
000000a0: 5bfc b0bc 431d 933d ebc0 70bd 7f6f a0bc
000000b0: a772 5abc 5ae3 96be a5b8 bf3c c2d4 8e3c
000000c0: 0d33 ae3c d8de 023e fbb5 113d 0bdb 643d
000000d0: 6956 cfbd 436e 683e 4412 c13d ba57 343d
000000e0: 6c63 013d 82a2 d33d bec0 033e 4738 423d
000000f0: b2ac d53a 5556 9a3d c8bd 0fba b813 f03c
00000100: 24be 283d fcb2 963c da9d d43d 7b81 5bbd
00000110: 7bca bc3d 02b0 013d adbe 53bd c99d b2bc
00000120: ab3d 093c 54cf a33d 66d6 ffbc 9e47 c43d
00000130: eaa1 3ebb 269d e93d 1423 93be 8db0 063e
00000140: bb61 023e eba3 053e 9ba2 273e 9aa6 75bd
00000150: d0d0 89be a224 2abd 9c09 2abd 53a0 d4bd
00000160: f790 9c3c 5303 90bd 56df 853d 9ba8 d33d
00000170: 5942 a33b eb98 683d 89f7 fd3d 2a61 c0bc
00000180: e12e d03c e3bc 453e ab8b 773c ab7e ed3a
00000190: 20e5 a43d e3e1 8e3c 1f63 e2bc 6f6f de3b
000001a0: effc bc3d 5691 7e3d bc0f fabc df6c f13c
000001b0: 3a85 6a3d 9714 373a 97bf 913d 876d 5e3d
000001c0: 5bb1 af3d 3338 84bc a679 51be 08aa d73c
000001d0: 0a3e ee3d 9c23 223c 05fc f03c 8d1c 9c3d
000001e0: 6b56 803d bc71 913d 67bc 103c c719 8c3e
000001f0: 4d87 dabc 1e96 6d3d 623a 593d 51d2 b9bc
0.032461375 0.058435142 0.014845208 -0.099357024 -0.06267279 0.09291572 -0.035698533 0.10742142
0.066325635 -0.02887295 -0.11415287 0.09597058 -0.014116992 0.02260339 0.01532146 0.031684168
0.014984683 0.07938773 -0.013720251 0.2343196 0.00920764 0.024535116 0.061933294 -0.019397378
-0.033636957 0.007835119 0.0089512905 0.15919635 0.14188936 0.07542041 0.052489247 0.10295835
0.0043123984 -0.0150436545 -0.075774215 0.08597418 0.082233764 0.16242085 0.10089112 0.092056654
-0.021604707 0.071833156 -0.05877773 -0.019584415 -0.013332999 -0.2947033 0.023403475 0.017435435
0.021264577 0.1278032 0.03557394 0.05587296 -0.10123903 0.22698312 0.09427312 0.044028975
0.031588957 0.1033373 0.12866494 0.04741695 0.0016302078 0.07535998 -0.00054832967 0.029306278
0.041196957 0.018395893 0.1038167 -0.05359028 0.092183076 0.031661995 -0.051695514 -0.021803753
0.008376519 0.07998529 -0.031230163 0.095839724 -0.0029088208 0.11406927 -0.287377 0.13153286
0.12732594 0.13050811 0.16370623 -0.059973337 -0.26917124 -0.041538842 -0.04151307 -0.10382142
0.019112093 -0.07031884 0.065367386 0.10334893 0.0049822745 0.05678646 0.12400729 -0.023483831
0.025412979 0.19310336 0.015108983 0.0018119415 0.080515146 0.017441696 -0.027635155 0.0067881863
0.09227931 0.062150322 -0.03052508 0.02947086 0.05725596 0.0006983964 0.07116621 0.054303672
0.0857875 -0.01614008 -0.20456561 0.026326194 0.11632927 0.009896185 0.029417047 0.07622633
0.06266483 0.07101771 0.008833981 0.27363417 -0.026675845 0.05800449 0.053034194 -0.022683294

layer3.bn.running_mean f4 [128]
00000000: 9834 213e c46c d83d f591 2b3e 9294 2d3e
00000010: f2de 0e3e 6525 ea3d 2201 083e dd49 063e
00000020: 31d4 193e 7367 0e3e 254a 7f3d 2749 813e
00000030: a33c 503d f774 953d 5686 443e b52d 013e
00000040: 84ae 323e b3e8 043e 4e95 2b3e 07fc a33e
00000050: 9abf 563d a470 253e 5413 2c3f 4aea 063d
00000060: bc74 f33e 6a6e e73d e04d d33e 4ca7 4a3e
00000070: 159c 1b3e 693a 593e 7a2f 023e e6a6 383e
00000080: 7587 043e de84 ba3d 0021 6d40 d71e a53f
00000090: 4777 373e 194e a63e 4aab 093e b5e2 1a3f
000000a0: 46ad e93e ec9c 383e 712e 033d 223a 8b3e
000000b0: 2448 bb3d b609 d23e cadd 6c3e c0e3 913e
000000c0: e213 d53d d568 273e 998f df3d e203 953e
000000d0: c2a4 973e 6b60 c73e 7268 ff3d f1e0 4d3e
000000e0: 63ae 633e 5b3a 4b3e 677e bd3e 0ea9 3b3e
000000f0: cb6e d83d 9654 443e 6225 443e 6bcd 2b3e
00000100: f51d 943d e3e6 913d 2770 493e 74c6 2c3e
00000110: 9563 9a3e 71b0 223e 9023 953e 6079 063e
00000120: e14b a33d f774 e03d 053b 033e fd13 323e
00000130: e9fe f03d 3ce3 503e e14e 3c40 aac7 f03d
00000140: 8c63 8b3e a8a1 033f 7b51 083f f7bd f63d
00000150: 6a93 973f e5b9 3c3e 7337 b63d c71d d73e
00000160: bf91 163d 8356 d73d 9d49 113e 4b32 bd3d
00000170: 9056 b83d 2d00 923d bbf4 7a3e 6322 073e
00000180: 5380 693d 30fb 953e 4ee6 283e 8fa7 fc3d
00000190: 6fca 403e 08f5 143e c306 8d3d 14d8 7f3d
000001a0: 1520 423e 0e13 d33e 2d8f a73e 44c5 be3d
000001b0: 0add 453e a556 243e 5f6a ec3d 8eb0 933e
000001c0: d9c3 bb3d 2f99 6e3d 3546 8640 2014 693e
000001d0: 464b b23e 0395 883e 9288 df3d ae72 373e
000001e0: 0964 a93d c121 5d3e 3199 ad3d 5cc7 0e3e
000001f0: 7a16 bd3d b972 103e 2e17 c83d f237 133e
0.15742719 0.105676204 0.16754897 0.16951206 0.13952234 0.11432914 0.13281682 0.13114114
0.15022351 0.1390665 0.06232657 0.25251123 0.050839078 0.072977 0.1919187 0.12615092
0.17449385 0.12979393 0.16756174 0.3202822 0.05242882 0.1615625 0.6721699 0.03293828
0.4755 0.11300357 0.4127035 0.19790381 0.1519626 0.21213688 0.12713423 0.18032417
0.12942298 0.09107374 3.7051392 1.2900037 0.17916594 0.3248146 0.13444248 0.6050218
0.4564001 0.18028611 0.03202671 0.2719279 0.09144619 0.41023034 0.23131481 0.28494072
0.10404183 0.16348584 0.10916061 0.29104525 0.29617888 0.3894075 0.12471093 0.2010534
0.22234492 0.1984648 0.370105 0.18326208 0.10568007 0.19172892 0.19154885 0.1677758
0.07232276 0.07124116 0.19671689 0.16872579 0.301541 0.1588762 0.29128695 0.13132238
0.07973457 0.10959809 0.12815483 0.17390437 0.1176737 0.20399183 2.9423144 0.11756833
0.27224386 0.5141854 0.5324933 0.12047952 1.1841862 0.18430288 0.08897295 0.42014906
0.036760088 0.10514548 0.14188237 0.09238108 0.090008855 0.0712894 0.2450742 0.13196711
0.057007145 0.29293203 0.16494104 0.12336647 0.18827222 0.14546597 0.06886055 0.062461928
0.18957551 0.41225475 0.32726422 0.09314969 0.19322601 0.16048677 0.11543726 0.28845638
0.09168214 0.058251556 4.19607 0.22761583 0.34823054 0.26676187 0.109147206 0.1791484
0.08271033 0.21594907 0.084764846 0.13943237 0.09232803 0.14106263 0.09770046 0.1437681

layer3.bn.running_var f4 [128]
00000000: 7494 d43e 86b3 a23e 1a35 063f d244 cf3e
00000010: b59d c73e 3d80 733e cd8b ac3e 1eb0 dd3e
00000020: 612c 003f b5d2 093f ef06 043e 8fbe 593f
00000030: 4e85 273e 7082 6e3e 33e5 b63e a91f d13e
00000040: f995 f83e 6bdd f13e 513b 023f 52cd fb3e
00000050: 4ce1 233e b100 e63e 2fda bd3f 77e2 b33d
00000060: 921b ad3f 1309 863e 54fe 8e3f 9765 233f
00000070: b7e5 033f f134 0f3f cf9f ef3e 04a1 ee3e
00000080: 7ec2 9e3e c381 883e 34de b340 1f67 8140
00000090: 4b32 0f3f 26a8 833f 8e80 9e3e 2953 2240
000000a0: f63b 1c3f 7f9c 0d3f aa58 8d3d 4bde ee3e
000000b0: ee09 a13e 31a3 4f3f 2df1 2c3f ba21 de3e
000000c0: 3855 c13e 3bda 093f 0381 ba3e 8a9c 073f
000000d0: dd65 773f db45 243f 2340 883e 662e f03e
000000e0: d7b4 263f 5fc7 fd3e a5db 833f a43e 433f
000000f0: b81a 7f3e 364b ea3e 620a 0d3f aed4 103f
00000100: bd50 4a3e c706 6d3e 221f 053f 9c74 f53e
00000110: a42e 343f c0b6 f23e c7b3 783f 7a8d d53e
00000120: 1d1f 6c3e 82ba 8d3e 8295 d03e 92d8 c73e
00000130: 1d05 b63e 00ad 1a3f a9fd 6b40 d0bf 0c3e
00000140: 14ef 633f 30df 6c3f 2b3c 463f c593 cc3e
00000150: 58ca f13f ade7 2a3f f2b9 923e 150e 863f
00000160: 2047 fc3d ca1d a33e 4691 dc3e 61d7 7d3e
00000170: 12d6 923e 8331 6b3e 3674 393f b8f6 ae3e
00000180: 8680 fe3d f340 303f 6af6 b83e 80d3 a93e
00000190: db59 233f 59f4 f93e ac84 543e 5a3a 183e
000001a0: e210 b63e c7e9 753f 9a94 7c3f f670 a93e
000001b0: 56cc cb3e 53d0 8e3e 0a77 dd3e 96f0 453f
000001c0: 7f97 a63e fe18 133e 5aa3 7d40 cb2f 2d3f
000001d0: b26f 9d3f 1797 4d3f 7ae3 c33e 0e87 1c3f
000001e0: e1c6 893e a5d8 2e3f 2c26 c23d b257 6b3e
000001f0: 11bc 8d3e 80c8 e13e 62a2 513e f7cc e53e
0.4151951 0.3177759 0.52424777 0.40482193 0.38987508 0.23779388 0.3370041 0.4329843
0.50067717 0.5383714 0.1289327 0.85056394 0.16359445 0.23291945 0.3572174 0.40844467
0.4855192 0.4723924 0.5087176 0.49180084 0.16003913 0.44922403 1.4832209 0.08783429
1.3524039 0.26178798 1.1171365 0.6382689 0.5152239 0.5594016 0.46801612 0.4660722
0.3100776 0.266615 5.6208744 4.043838 0.55936116 1.028569 0.30957454 2.5363257
0.61028993 0.5531692 0.06901677 0.4665397 0.31452888 0.81108385 0.67555505 0.43385106
0.3776033 0.5384862 0.36426553 0.52973235 0.96639806 0.6416909 0.26611432 0.469104
0.6511969 0.4956617 1.0301405 0.76267457 0.24912536 0.45760506 0.5509397 0.56574523
0.19757362 0.23147117 0.5200063 0.47940528 0.7038367 0.47405052 0.9714932 0.417095
0.23058744 0.27681357 0.40739065 0.39032418 0.35550776 0.6042023 3.6873572 0.13745046
0.8903668 0.9252806 0.7743556 0.3995649 1.8889875 0.6675976 0.2865749 1.0473047
0.123182535 0.31858665 0.43079585 0.24789192 0.28678948 0.22968106 0.7244295 0.34172606
0.12426858 0.68849105 0.361255 0.33169174 0.63808984 0.48819235 0.20753735 0.1486601
0.35559756 0.9605984 0.9866425 0.33093995 0.39804333 0.27893314 0.43254882 0.7732023
0.32537457 0.14365003 3.9630952 0.6765105 1.2299712 0.8030867 0.38259488 0.6114358
0.26909545 0.68299323 0.09479937 0.22982672 0.27682546 0.44098282 0.204721 0.44882938

layer4.conv.weight f4 [256, 128, 2, 2]
00000000: 3770 00bb 173f 9dbd 861a febd 70c8 edbd
00000010: f5a0 573d fce7 563c bc1d 24bd d94b f6bc
00000020: 0a1f 373d 65e0 693d a98d 5a3d a8f2 853d
00000030: f8b1 0b3d 1ffe cd3c 3762 2d3c 3b18 6b3d
00000040: ed16 57bb 90eb e73b 8aec 503c 5e64 8d3c
00000050: a7b5 3c3c 0327 02bc 0456 1fbc 907a bc3c
00000060: 1108 80bd 0621 053c b392 95bd eadb 0c3c
00000070: b429 063d 373f bc3d 5660 e23d 5da0 913d
00000080: 0413 0dbc a70d cfbc ada2 a2bb 8ef8 9fbc
00000090: d87f cabd 73dc 8fbc 912e 5f3b 3b96 013d
000000a0: 670d b63d 236c b93d a79c 113d cdcb 233d
000000b0: 64ca 75bc 7616 f3bc 17b3 d5ba dc32 a3bc
000000c0: 7c36 f4bd 619c d8bc 7579 69bd 28b5 d7bd
000000d0: 96d2 243d 8440 b83d 1c61 9e3c 5ca1 ad3d
000000e0: d215 9e3c 7cce 6bbc b059 63bd 33e3 4ebc
000000f0: 77a3 22bd 7aeb 0c3d 18ac c73c a39b 2e3d
00000100: e7e3 493d 5d56 583d 7622 5d3d 82c1 563d
00000110: 8bc8 e0bc 4ac2 a63a 3459 01bd 7af6 03bc
00000120: e49b a53d 2f7d 533c 0558 a3bd 1596 51bd
00000130: eaa7 8ebd 3f43 7ebd 792c f8bd 1f37 90bc
00000140: 95d2 dcbd 75a3 053c 5446 4bbd 2819 9abc
00000150: 7038 4fbc b0c3 f23c 7973 acbc b000 82bd
00000160: e87d c23c 4dd8 f0bd ea22 30bd be84 3ebd
00000170: 3570 533c 2cd0 813c d539 b63d b361 563d
00000180: ac46 df3d 57ea 4a3d f225 fd3d 5424 bf3d
00000190: 6321 ca3c b412 a13d a780 40bd 9f41 c13d
000001a0: 4efb 83bd 4120 843d f5a8 a3bb cb88 f23c
000001b0: ec59 82bd adfb cebd daab febc 0024 46b9
000001c0: 41ab 143c 542f d3bc 67e2 f9bd d580 91bd
000001d0: 1ca0 82bd c26e 4bbb e4bc 023d bca8 ac3d
000001e0: af05 31bd c136 bfbc cd35 a2bd e12f 09be
000001f0: 5dcc 3ebd 881b d0bc ad3d ba3d 4eb1 31bd
00000200: 4aea 0f3e 7592 c03d cb5e 743d 39a4 583d
00000210: f739 73bc 9e4a 3abd e1e8 6bbd 7802 fbbc
00000220: 94c8 9bbd 01d4 ccba 65ee 1fbd 14f0 7bbb
00000230: 0c25 98bd 2cd3 32bd 0437 81bd b402 29bc
00000240: 933b 0cbd b645 ee3c e372 c33c a4ce a9bd
00000250: e4d1 26bd 7cfc 80bd 38cf 463c 86d4 76bd
00000260: de0a 9abd b1f2 d3bd cbe6 84bc 1321 c8bd
00000270: 01e4 b3bc 6f7d 25bd 3bd3 72bd 2a59 d03b
00000280: 6917 fa3c 1ac0 eb3c 6daa 643c ab9a 99bb
00000290: ce16 3bbb a3d7 ee3c 6302 50bd 6335 b5bd
000002a0: 79f0 1c3c 0786 e33d 1170 5d3d 9c68 ad3d
000002b0: e5dd 0ebc 1693 9ebc 6e40 aa3b bbfd 93bc
000002c0: 0f4e 1ebd b618 2d3d 95dd 903c 9a0b 953d
000002d0: 6907 f4bc e6bc 473d 65f8 c53c b1ae 853d
000002e0: d876 05be 9ba2 7bbd 4ee6 c1ba 90fc 913c
000002f0: bb34 733d 8ef7 12bc 2544 593d 81ec 023d
00000300: 0783 49bd 3ae0 063d 1ff5 efbc 027b 3fbd
00000310: f48e 1c3d d92c b6bd 1779 933c cd45 a7bd
00000320: ef7d d5bd b310 69bd aa8a fdbd 52d5 16bd
00000330: 78bf 96bc b1da 403d ec44 35bd 6093 ed3d
00000340: 8b64 47bd e2fa d83c deea 2b3c e2ce 37bb
00000350: ba2b bcbc 5a71 dcbd 6095 e9bc 2c4b f4bb
00000360: 01bc 473c 0682 a43d 30b0 bb3c bcc9 f23c
00000370: 4b29 f73d deef 2c3d f749 b0ba 2513 5b3c
00000380: acca 14bd 33d1 85bd 8b3e 27bd 59ec 77bc
00000390: 2292 35bd 02ac e1bd fa83 5cbd 33aa d83a
000003a0: 4293 fdbd 52b1 19bd cb48 65bb 1a0d 0c3d
000003b0: a7f2 9b3c 6bd5 c2bb e045 91bc da28 ea3c
000003c0: 5b3d 19bd ea4a fa38 1b83 7dbc e847 a53c
000003d0: 57ce 44bd 75aa 9bbd 15bd f7bb d141 e2bd
000003e0: d27b 923d 194a 9d3d 6b08 773d d700 9a3d
000003f0: c76e e0bd 3ba0 55bd af39 0bbe 41c0 05be
-0.0019598135 -0.07678049 -0.12407403 -0.11610496 0.052643735 0.013116833 -0.04006742 -0.030065464
0.044707336 0.057098765 0.053357754 0.06540424 0.03410527 0.025145588 0.010582498 0.057396155
-0.0032820061 0.007077642 0.012751708 0.017259773 0.011517919 -0.007943871 -0.009725098 0.023007661
-0.062515385 0.008125549 -0.07303371 0.0085973535 0.032754615 0.09191745 0.11053531 0.07110665
-0.008610491 -0.025275065 -0.00496324 -0.0195277 -0.098876655 -0.017561173 0.0034054855 0.03163741
0.08889275 0.090538286 0.035549786 0.03998928 -0.015001867 -0.029673796 -0.0016303983 -0.019921713
-0.119244546 -0.026441755 -0.057000596 -0.105326 0.040239893 0.089966804 0.019333415 0.084780425
0.019297514 -0.014392491 -0.055505455 -0.012627411 -0.039706673 0.034404255 0.024374053 0.042628895
0.04928961 0.052816737 0.053987943 0.052430637 -0.027439376 0.0012722698 -0.03157921 -0.00805437
0.080863744 0.012908264 -0.07975773 -0.05116852 -0.06965621 -0.06207585 -0.121178575 -0.017604409
-0.10782353 0.008156647 -0.049627617 -0.018810824 -0.012647733 0.029634327 -0.021051155 -0.063477874
0.023741677 -0.11760006 -0.043002047 -0.04651331 0.01290517 0.015846334 0.08897749 0.052339267
0.109021515 0.04953989 0.12360753 0.09333101 0.024674123 0.078648955 -0.046997692 0.09436344
-0.06444417 0.064514644 -0.0049945065 0.029606244 -0.063648075 -0.10106597 -0.031087805 -0.00018896163
0.009074033 -0.025779404 -0.12201386 -0.07104651 -0.06378195 -0.0031041359 0.03191842 0.08430621
-0.04321831 -0.023341538 -0.07920418 -0.1339717 -0.046581615 -0.025403753 0.09093795 -0.04338198
0.14054218 0.094029345 0.059660714 0.05289099 -0.014845363 -0.045481317 -0.057595138 -0.030640826
-0.076066166 -0.0015627147 -0.03904571 -0.0038442658 -0.07428941 -0.04365842 -0.063093215 -0.010315586
-0.034236502 0.029085975 0.023858493 -0.08291367 -0.04072751 -0.062981576 0.012134366 -0.060261272
-0.07521604 -0.10349024 -0.016223332 -0.097719334 -0.021959307 -0.040402826 -0.059283476 0.0063582854
0.030528741 0.028778125 0.013956648 -0.0046876273 -0.0028547528 0.029155558 -0.050783526 -0.08848073
0.0095788175 0.11109548 0.054061953 0.08467218 -0.008719896 -0.019357245 0.005195669 -0.018065324
-0.03864866 0.042259894 0.017683784 0.072776034 -0.02978869 0.048764132 0.024166295 0.0652746
-0.13033617 -0.06143437 -0.0014793368 0.017820626 0.05937646 -0.008970154 0.053043503 0.03196383
-0.049197223 0.032928683 -0.029291688 -0.04674817 0.03822227 -0.08895273 0.018002076 -0.0816761
-0.104244106 -0.05690069 -0.12379964 -0.03682453 -0.018401846 0.04708356 -0.044255182 0.11600375
-0.04867987 0.026486818 0.010493008 -0.0028046896 -0.02297007 -0.107638076 -0.02851361 -0.0074552502
0.01219082 0.080326125 0.022911161 0.02963721 0.12068423 0.042220943 -0.0013449778 0.013371264
-0.036326095 -0.06534042 -0.04083113 -0.015132033 -0.044328816 -0.11019136 -0.0538368 0.0016530216
-0.12381603 -0.03752262 -0.0034986015 0.034192182 0.019036604 -0.0059458516 -0.017733514 0.028583933
-0.03741203 0.00011934883 -0.0154731525 0.02017589 -0.048048344 -0.076008715 -0.007560382 -0.1104771
0.07152523 0.07680149 0.060310762 0.075196914 -0.10958629 -0.05215476 -0.13596223 -0.1306162
